Exercises/other/mnist_params.npz (npz, 556801 bytes, 9 tensors)

arr_0 f4 [34048]
00000000: 0a82 7a3f 9771 823f 5927 783f 0ef8 743f
00000010: fa32 803f 3319 733f 9290 733f d7be 753f
00000020: 5c48 8e3f 986f 863f a7b3 813f 88ee 7d3f
00000030: 4bb0 7b3f a7c5 813f 0000 803f d1a4 773f
00000040: 6eb0 853f cca1 843f e147 733f dbbd 793f
00000050: 5572 7d3f ee5b 763f f168 803f d7db 853f
00000060: 29d1 7d3f 1300 803f a2ff 7f3f 9a73 843f
00000070: 7681 7e3f 6f95 8d3f 0ca8 803f 18ce 8b3f
00000080: e9c5 783f 0c5f 813f 54ed 843f 7e6a 813f
00000090: af5b 7c3f d981 7e3f 1bf5 753f 5f16 713f
000000a0: 64ca 773f cb98 813f bd94 723f 7869 813f
000000b0: c921 7b3f 1aa9 813f 0000 803f d8e7 873f
000000c0: c859 833f af41 813f bed3 873f edda 763f
000000d0: e095 833f dcb3 7a3f bf7d 813f 0233 803f
000000e0: 190f 7e3f cf1a 813f 653d 7e3f e330 833f
000000f0: da75 823f 1e1f 893f e9f4 843f ea61 843f
00000100: 0393 8d3f 0130 813f 84ff 7c3f 7ab7 7b3f
00000110: 4109 783f 4914 853f 58c8 7a3f b442 743f
00000120: 35d4 793f 60be 7d3f eff3 783f 4cc6 833f
00000130: 2d75 7b3f 8e22 823f 0900 803f 040a 833f
00000140: d52f 823f 225a 7e3f 8118 823f 3606 7e3f
00000150: 435b 803f 9875 7a3f 8044 813f a0d7 873f
00000160: fb02 7e3f 37c6 7e3f e667 7f3f e629 7f3f
00000170: 2876 7e3f bcb3 7d3f 7cbc 753f d9fd 833f
00000180: 1cb9 8c3f 7f4d 773f 3187 793f 59e2 7e3f
00000190: 29ba 853f 8aca 823f 8373 803f 1dba 6d3f
000001a0: 31f2 8a3f bc7e 733f 7f72 743f 96e7 803f
000001b0: a77a 823f 9a5e 873f 971e 803f ae77 853f
000001c0: b225 7c3f 5f7b 823f 97e8 7f3f 9b44 773f
000001d0: db09 853f 2a8c 813f ef15 7b3f 8ae3 853f
000001e0: 4526 7e3f 3a93 803f ab2e 803f 52da 7c3f
000001f0: 9519 7d3f 8aee 743f bf24 723f 09ed 803f
00000200: a14c 773f 2f29 833f 1bc8 773f 25aa 6d3f
00000210: 6560 793f cf23 863f 7dc4 803f e905 7a3f
00000220: 792f 7d3f ab34 843f f8b8 833f 254a 7e3f
00000230: cd48 7e3f 5a18 8c3f e6ae 7e3f 9bc7 713f
00000240: 2c41 813f 947b 823f df42 773f 18d3 843f
00000250: f2c6 6a3f e375 7c3f 027d 7a3f 9c60 6d3f
00000260: 179d 803f 1073 813f f95f 813f 6705 783f
00000270: 22b9 823f 357e 703f aefa 723f 1d72 813f
00000280: 1169 7a3f 8b46 7b3f fe0d 5e3f 469b 783f
00000290: 8763 7f3f 27d0 763f 289a 7b3f 3ea8 753f
000002a0: e5eb 7b3f e6c4 843f fc7e 7f3f c4de 7b3f
000002b0: a85d 7f3f 4dad 7a3f d74f 803f 1adf 6e3f
000002c0: 9f0b 793f fd4b 703f c1f0 7d3f 7257 7c3f
000002d0: f7e4 693f 8e32 8b3f 8f6d 7b3f b295 823f
000002e0: 8be1 813f 6fff 7e3f 3144 803f 6069 793f
000002f0: b408 7d3f bb68 763f d58c 813f 0f9a 6a3f
00000300: fd58 7c3f 70a6 723f 4242 823f 810a 823f
00000310: 1684 8a3f a502 683f cb54 763f 75fb 6f3f
00000320: 7127 863f 9d4a 7c3f 1366 883f 91a4 7c3f
00000330: 6822 7c3f c3ea 803f 14bf 7f3f ef79 783f
00000340: 10fd 793f 69b6 713f abd4 7d3f 322b 873f
00000350: 8087 803f eb82 763f 3106 7b3f bcd3 7b3f
00000360: 4119 813f d079 7f3f 6fc7 843f 7a43 893f
00000370: 35fd 803f db9f 7d3f b568 7c3f bfc9 783f
00000380: 9ee4 783f 11b8 7a3f c6e6 803f e8eb 8f3f
00000390: 9c0f 8a3f 7c29 7c3f ee4a 803f 8f8d 823f
000003a0: 40a1 803f eb36 853f a79b 7c3f c72b 803f
000003b0: 33f0 833f c9ec 7c3f 6fb1 803f c9e8 8c3f
000003c0: a957 833f 31e0 833f 028d 883f 4e8c 7f3f
000003d0: c898 743f c787 8d3f f577 8c3f 3987 833f
000003e0: d932 803f 3540 823f 76a1 793f 76d9 763f
000003f0: 83b2 783f 3c92 7d3f 0f1c 843f b58e 8a3f
0.97854674 1.0190915 0.9693504 0.95691 1.0015557 0.94960326 0.9514247 0.95994323
1.1115832 1.0502806 1.013295 0.99192095 0.98315877 1.0138444 1.0 0.96735865
1.0444467 1.0361876 0.95031554 0.9755532 0.9900258 0.96234024 1.0032026 1.0457715
0.9914728 1.0000023 0.9999944 1.0347779 0.9941629 1.1061229 1.0051284 1.092227
0.97176987 1.0107131 1.0384927 1.0110624 0.985774 0.9941688 0.96077126 0.9417476
0.967932 1.0124754 0.94758207 1.0110312 0.9809843 1.0129731 1.0 1.0617628
1.0261774 1.009817 1.0611494 0.96427804 1.0280113 0.97930694 1.01165 1.0015566
0.9924179 1.0086306 0.9931243 1.0249294 1.0192215 1.0712621 1.0387241 1.0342381
1.106049 1.0092775 0.98827386 0.9832684 0.9688912 1.0396816 0.9796195 0.9541428
0.9758943 0.99118614 0.97247213 1.029489 0.9822567 1.0166795 1.0000011 1.0237432
1.0170847 0.9935628 1.0163728 0.9922823 1.0027851 0.97835684 1.009903 1.0612679
0.992233 0.995212 0.9976791 0.99673307 0.9939904 0.9910238 0.9599073 1.0311843
1.0993991 0.96602625 0.9747191 0.9956413 1.0447437 1.021806 1.0035251 0.9286211
1.0855161 0.95115256 0.9548721 1.0070674 1.019368 1.0575745 1.0009335 1.0427148
0.9849502 1.01939 0.9996428 0.9658906 1.0393633 1.01209 0.98080343 1.0460064
0.99277145 1.004493 1.0014242 0.9877063 0.9886716 0.9567648 0.9458732 1.0072337
0.966013 1.0246943 0.9678971 0.92837745 0.9741271 1.0479678 1.0059963 0.9766527
0.9890056 1.0328573 1.0290823 0.99331886 0.99329835 1.0944932 0.99485624 0.944452
1.0098014 1.0193963 0.9658641 1.0376921 0.91709816 0.9861738 0.97846997 0.9272554
1.004794 1.0113239 1.0107414 0.96883243 1.0212748 0.93942577 0.94913757 1.011295
0.9781657 0.98154515 0.867401 0.9711193 0.9976124 0.96411365 0.982821 0.9595984
0.9840682 1.0372589 0.9980314 0.9838679 0.99752283 0.97920686 1.0024365 0.93309176
0.9728336 0.9386595 0.99195486 0.9857093 0.91365 1.0874803 0.9821405 1.0201933
1.0146955 0.9960851 1.002081 0.97426414 0.98841405 0.96253556 1.0121104 0.91641325
0.98573285 0.94785213 1.017647 1.0159456 1.082156 0.90629035 0.96223134 0.9374307
1.0480787 0.9855135 1.065615 0.9868861 0.9849 1.0071644 0.9990094 0.97061056
0.9765177 0.9441896 0.9915263 1.0560057 1.0041351 0.96293515 0.9805632 0.98369956
1.0085832 0.99795246 1.0373362 1.0723717 1.0077273 0.99072045 0.9859727 0.9718284
0.9722384 0.97937113 1.0070426 1.1243868 1.0786014 0.985008 1.0022867 1.019945
1.004921 1.0407385 0.98675007 1.001336 1.0307678 0.98798805 1.0054148 1.100854
1.0261127 1.0302793 1.0668032 0.9982346 0.95545626 1.1057061 1.0974108 1.0275642
1.0015517 1.0175844 0.97511995 0.9642557 0.9714739 0.9905126 1.0321063 1.0824801

arr_1 f4 [3, 3, 1, 32]
00000000: 533a d3bd 98f5 0b3d d79e 75bd e311 31be
00000010: a2f6 abbd a6b4 abbd 97b7 863d 9011 76bd
00000020: 7c36 6e3d 8272 ffbd b5dc 1bbe 6cf2 d3bb
00000030: 157b 4cbe 5e41 9fbb 2e52 103e 78f2 193e
00000040: 6146 6f3d db2d 313d f412 07be e946 f7bc
00000050: 0f12 713d e931 ee3b 14c8 0a3e bd1b 55be
00000060: 6546 99bd 5494 c33d 120f c2bd 9ca2 c53d
00000070: 3b2d d0bd fc24 0abe 0b4f 4dbd fb8d f53d
00000080: 8c65 9ebc cfa8 883d 98eb 1cbe eb0f b5bd
00000090: baa6 96bc 1262 fab9 5c7d abbc a82f 363e
000000a0: bf1b 543d 44ec 99ba f40f 3a3b 2b58 02be
000000b0: 941c cf3d a0a3 af3d ca8b 223d 234b 03be
000000c0: efec bcbd 340c 26bd a7f4 16be 1acb a43d
000000d0: 927f 16be 81d3 7cbd ecde 35be 99e6 e2bd
000000e0: 3688 f4bd 267e 9d3d 2c05 343d 9cff eb3c
000000f0: cf80 26be 9795 14be 6c4e 88bd b304 27bd
00000100: 1713 143e f659 9fbd 3abb 773d 6136 873d
00000110: 0cee 28bd f629 213e 5b5b 21be e561 17be
00000120: ef1b 083e 9b8c b9bd ead1 c13b 61f9 a23d
00000130: 6635 c2bc 14ca d23d f397 98bd 9ebf 353d
00000140: 2fc8 e3bd a20d 0d3e 4a4d 20be 84ec 53bd
00000150: 0c23 c2bd 161d a6ba c060 1b3b 9524 bb3d
00000160: 1065 8f3c 28fe 103d 0370 31bd 94bf 9dbc
00000170: 8d59 413c 5bf5 9f3d 8619 dfbd b02f 4e3d
00000180: b6aa 4bbe 052d 0ebe c91b 82bd faa8 8f3d
00000190: 5a2c 903d 5374 9e3d f282 563d 85ca b03c
000001a0: a6b8 8dbc f1d5 f03d b35a 7e3d 96b0 0c3e
000001b0: ff07 82bd 1566 58be b9e1 1b3d 756a 7d3d
000001c0: 2799 b5bb 0f5e 0ebe 3cf1 83bd 6d75 86bd
000001d0: c87f 8a3c 805d 143e 0f4b 103d 8363 d43d
000001e0: c023 e73d 4b57 d5bd 588c d93d 5537 debd
000001f0: 9139 a63d 1d30 8b3d 747c 593d 6b33 5d3d
00000200: 3b06 0ebc aca1 52bc 6409 9a3d cc08 2b3d
00000210: 39ba 413d 4db9 213d c4d4 c03d 0901 873d
00000220: 50ed 983c e7dc 983c 2a40 313e 462b 01be
00000230: 02a5 0f3e e9a7 163c d309 4bbd 7f6f 04be
00000240: b3ce 0e3e c44a c7bd 0ed8 0d3c f2e6 1cbe
00000250: 4ade 413d 384d 3abe 232e 02bd 1635 3fbd
00000260: 289a 513c 36a4 edbd 5ff4 68be f0d3 033e
00000270: cdfa 39be 8f13 b93c c978 b63d 8a38 e43d
00000280: 4bf4 e4bc 24cf 253e 2ef9 0e3d c978 c3bc
00000290: cdd5 bf3d cede fd3d 0df9 1cbe 6178 c3bd
000002a0: 1279 9d3c bc56 d8bb 45c3 d7bd 6b46 333d
000002b0: d979 e7bd 37f1 d9bd 353e be3d b4a5 72be
000002c0: ba46 ebbd bf9d 0ebe c5b4 12bd f950 da3c
000002d0: 8cb0 eabb 0671 a23d 2985 bdbd d46f 833d
000002e0: 7fec 9fbd f3a3 39be b748 a2bd a82f 49be
000002f0: ce31 8abc 1f34 93bd 38ce 1bbe 0673 8abc
00000300: fd82 acbc e352 a0bd 80d6 05bd 981a 283e
00000310: 9440 e0bd 8c9a a6bb f8b5 83bd 8a05 a63d
00000320: 36c4 a1bd 4e40 33bd 98dd 3bbd 5b1f ff3b
00000330: c75f 24bc abda 263e 61ec 16bd 4f37 93bd
00000340: 1dc6 4abd 81c5 1a3e 5b03 6dbd 0b1f 28bd
00000350: ceea 1e3e 4a4e 82ba 51cd 6e3d beba 18ba
00000360: a2e7 f0bd 8a77 9fbd 9747 de3c 2a38 0cbd
00000370: 598b 5fbd 515e 2e3e 30bf a03d fb62 b1bd
00000380: 9982 71bc 1c41 adbc 12a0 103d 4181 163d
00000390: 5107 e2bd d87b 19be 2b03 3bbe 0da9 07be
000003a0: 6b57 8d3c 74ed 973d ef11 cd3d 9ff1 39bd
000003b0: d80b 083e e963 acbd 8875 d2bd 7149 5a3c
000003c0: 8fc3 cb3d 30d3 893c 0359 f53d 468c 973c
000003d0: 1232 b0bd 28a4 87bd 068a c53c 4d24 a53d
000003e0: c4a4 1ebd 8fef 403d 1624 2fbe b403 bf3d
000003f0: db48 04be 850b 50bd 2449 1a3e d0e7 39be
-0.10313859 0.034169763 -0.059965935 -0.1729198 -0.08396651 -0.08384065 0.06577986 -0.060075343
0.05815743 -0.124730125 -0.15220912 -0.006468108 -0.19968827 -0.0048600873 0.14093849 0.150339
0.058416728 0.04325662 -0.13190824 -0.03018518 0.058855113 0.0072691333 0.13552886 -0.20811363
-0.0748413 0.09549776 -0.09475531 0.09650156 -0.10164877 -0.13490671 -0.05012421 0.11989971
-0.01933553 0.06672823 -0.15324247 -0.08840927 -0.018390048 -0.00047756784 -0.0209338 0.17791617
0.051784273 -0.0011743386 0.0028390856 -0.12728946 0.10112873 0.08576131 0.039684094 -0.12821631
-0.09224879 -0.04053898 -0.14741765 0.08046551 -0.14697102 -0.061725143 -0.17760819 -0.11079139
-0.11940043 0.076900765 0.043950245 0.028808407 -0.16260074 -0.14510189 -0.06655583 -0.040775966
0.14460407 -0.077808306 0.060481288 0.06602169 -0.041242644 0.15738663 -0.15757506 -0.14783438
0.13291906 -0.090600215 0.0059149163 0.079577215 -0.023707103 0.102924496 -0.07450857 0.044372194
-0.11122166 0.13774732 -0.15654483 -0.05173923 -0.09479341 -0.0012673463 0.002370879 0.09137837
0.017504245 0.035398632 -0.043319713 -0.01925639 0.011801136 0.0781047 -0.1089354 0.050338447
-0.1988934 -0.13884361 -0.06352956 0.070146516 0.070397094 0.07737031 0.052370973 0.021580944
-0.017299961 0.11759556 0.062098216 0.13739237 -0.063491814 -0.21132691 0.038057063 0.061869103
-0.005541939 -0.13903068 -0.06442496 -0.06565366 0.016906634 0.14488792 0.03522783 0.10370543
0.11286116 -0.104170404 0.106224716 -0.108503975 0.08116449 0.06796286 0.053097203 0.054004114
-0.008668478 -0.012855928 0.07521322 0.041756436 0.047296736 0.039483357 0.09415582 0.06591994
0.018667847 0.018660022 0.17309633 -0.12614164 0.14027789 0.009195306 -0.049569916 -0.12933157
0.13946037 -0.09731057 0.0086574685 -0.15322474 0.047331132 -0.18193519 -0.03178228 -0.046681486
0.012793101 -0.116035864 -0.2274947 0.12873816 -0.18162079 0.022592334 0.08909757 0.111435965
-0.02794852 0.16192299 0.034905605 -0.023861306 0.09366951 0.12396012 -0.1532938 -0.09544445
0.01922277 -0.0066021364 -0.105352916 0.043768328 -0.113025375 -0.10641711 0.09289209 -0.23696023
-0.114880994 -0.13927363 -0.035816927 0.026649939 -0.0071621593 0.07931714 -0.09253914 0.06417814
-0.0780878 -0.18128948 -0.079240255 -0.19647086 -0.016869452 -0.07187676 -0.15215385 -0.01690055
-0.021058554 -0.078283094 -0.032675266 0.16416395 -0.10949817 -0.0050843414 -0.06431192 0.08106525
-0.078987524 -0.043762498 -0.045865625 0.0077857203 -0.010032601 0.16294353 -0.036846522 -0.07188284
-0.04950534 0.15114404 -0.05786453 -0.04104523 0.15519258 -0.0009941545 0.058301274 -0.00058261666
-0.117629305 -0.07786472 0.027133746 -0.03423325 -0.05457625 0.17028166 0.07848966 -0.08661457
-0.01474061 -0.02114921 0.035308905 0.03674436 -0.11036552 -0.14988649 -0.18262927 -0.13248082
0.017253598 0.074183375 0.10013186 -0.045396443 0.13285768 -0.08417494 -0.102763236 0.013323174
0.09949409 0.016824335 0.11979868 0.018499505 -0.086033 -0.06623107 0.024113666 0.080635644
-0.03873135 0.04710346 -0.1710361 0.09326878 -0.12918417 -0.050792236 0.15066963 -0.18154836

arr_2 f4 [32]
00000000: 52b1 debc 6bd9 283d f846 5b3d 6097 a33c
00000010: 13f3 bc3b c0be ad3d 88b3 2abc b869 363c
00000020: 28b9 993c 292d 5939 3e63 273d a3ce 9abd
00000030: 43af e8bb 1c21 10bb 871d 36be 8ec2 e1bc
00000040: 53f8 a1bc 0c08 c03c 26b3 0c3d de4d 05bc
00000050: 85bc 703d d337 90bb 2d4a 50bc daad 7e3d
00000060: 9f1b 26bd 00b2 6dbd 581f edbd 07f8 0d3d
00000070: 249b 0fbd 6638 8a3b 0568 5b3d 71c0 873d
-0.027184162 0.04122297 0.053534478 0.019969642 0.0057662814 0.08483648 -0.01041878 0.011133604
0.018765047 0.00020711556 0.04086613 -0.07558944 -0.007100971 -0.002199239 -0.17784701 -0.027558591
-0.01977173 0.023441337 0.034350537 -0.008136241 0.058773536 -0.004401186 -0.012712997 0.062177517
-0.040553685 -0.058031082 -0.11578244 0.034660365 -0.035060063 0.004218149 0.053565998 0.06628502

arr_3 f4 [3, 3, 32, 64]
00000000: 6c13 443b 2f85 bdbd 74e7 48bd b6bb e13d
00000010: 1310 8ebc ae15 b53d 2467 6c3d 63d1 69be
00000020: cfa2 0fbe 20a6 fdb7 ecda c73c 98cd 36be
00000030: 7fbb 00bc 9533 13be 93d5 40bd 5845 773b
00000040: 51ce 0e3e 3710 fbbc 42e5 e4bd 304b 0abe
00000050: cb77 8f3c 1bed c3bc 6a83 2b3d 7639 5f3d
00000060: afba 893d 1afd 5fbc ef10 0c3d 8ab3 bb3d
00000070: c4bc b73c 37f0 43be e134 d8bd 6de2 8fbd
00000080: 3844 29bd 23f0 e3bd f441 f1bc e8e7 96bb
00000090: fd76 42bc 98fc fa3c 802c 87bc 2cc9 7d3d
000000a0: 37bf 68bd b8b6 053b 9411 85bd 3ec0 823d
000000b0: 0eab 05bd d888 ebbb e434 e6bc 20f2 e93d
000000c0: 306f 39be a3ce f83c 8336 873b b406 5b3d
000000d0: 456a 113d 838e ac3d ce31 793d 68a0 05bd
000000e0: feef 7d3c 1a2e 89bd e693 633e 396e 3e3e
000000f0: 7a1a be3d 850e 28bb e7c8 153d 7bf7 4d3e
00000100: 48ec 623e 6edb 83bb e7dc abbc aadf ac3d
00000110: 71d3 34bd 026d 863d a017 723e 8905 82bd
00000120: 675e 2f3d e1e7 0cbe d2c3 5abc e42c 87bd
00000130: 1702 bebc 07f2 2d3e c3aa a1bd f8af a7bd
00000140: 3d55 6d3e 81ed ae3d d67a 99bd 1a16 8abc
00000150: 2498 94bd 9be8 e4bd 3140 2f3e e4d1 783d
00000160: 3a45 06bd 74e0 733e 65a4 bb3c 5782 dc3d
00000170: 7df3 c73d 1a27 af3d f80b c1bc 773c 40bc
00000180: e0a8 e93d 8ea7 253c c036 893d c9dd 80bd
00000190: 7756 96bd 5414 72be c029 043e 70f8 0d3e
000001a0: c441 96bd 6252 34be 838b 45bd fc8f 85bd
000001b0: cc71 91bc e886 433b 4b24 763d 953e f4bc
000001c0: 85bb ae3d 1d2b fabc c43d bc3c 0b77 283c
000001d0: 4fba 543c 9ec1 04bd 1549 8a3d 5827 a4bd
000001e0: 9a5f cfbd 76a9 693c 0d96 47bd f8b6 173d
000001f0: b8a9 493d e971 a2bd 88c1 09be 2bc7 d4bc
00000200: 8595 b7bb 93a6 89bd 689c 3bbd 67c8 a93d
00000210: 25da e73c 83c8 353d 9fc0 75bd 3535 c1bc
00000220: 05e5 1c3d 6b9c dbbc 005a c3bc 7324 17bd
00000230: bffe 4ebd 226c d0bc 3f07 d23d 3aa0 873d
00000240: 278b 6e3d 8eee 3ebd 1292 afbd eec2 6eba
00000250: 3e06 433d d08b 563d 2e32 0dbd d6ae 19bc
00000260: cd1e b5bd 0a52 51bd 381e 953d 03f0 583d
00000270: 7529 603d 46e5 26be c499 243d 8a24 ba3c
00000280: 53c7 3fbe e103 cc3c 5745 a9bd a980 be3d
00000290: 9819 353d 1743 4cbd 2613 ccbd 70d7 103d
000002a0: 8ef0 afbd 24f6 a63d d616 513c 6ddb bc3d
000002b0: e106 843d 0552 7fbd 3453 903d 3ee0 0a3c
000002c0: e118 f83c 12d0 1f3b 8c24 0039 e5aa 993d
000002d0: ccb4 09bd 0c7c d1bd 1d4d acbd f64d 2ebd
000002e0: e679 bfbc af36 c73d 6a32 983d 8b5f 393d
000002f0: 27df 2d3c 1541 613d 50ca 21bc 4491 05bd
00000300: 6ca6 673d 0c47 edbd a802 d4bd e50b 3bbd
00000310: 410b bcbd 7143 0ebe 6607 5ebd 16ce da3b
00000320: 3666 ae3d f127 733d 0ec5 8e3d 8cbc 95bd
00000330: 9e65 c1bd 331e bfbc 2b94 31bb 824f 203d
00000340: a2e5 49bd 7df5 723d 41b9 b93c 1660 f7bc
00000350: d8b3 95bd 16a9 43bd 6b1f c93c 8dfb c8bd
00000360: 7d7c 843c ccb2 c3bd 6816 bcbd 1fd9 043d
00000370: f0ce 013c 5ea9 4e3d f336 95bd cb1e 01be
00000380: 3479 0fbe 14d7 ee3c c42c 503d 238a 033e
00000390: 5e3d d53d a050 0e3b 8f51 b73b 5b74 5c3d
000003a0: f3d4 243c b972 8dbd 9511 4abd a27c 1a3d
000003b0: d84d 023e e13d 13bd f449 98bb 1866 46bd
000003c0: 03c3 b43c 8847 a4bd 0a49 43bc 86cc a4bd
000003d0: 3a9c ed3d a41c b7bd ae7e e6bc 0988 4d3c
000003e0: ad44 b5bd 58d1 e1bc dcb3 06be d881 06bd
000003f0: 2e77 44bd 08b7 87bc 00f4 9d3d c5e3 b03d
0.0029918803 -0.092539184 -0.049048856 0.11022131 -0.01734165 0.08842026 0.05771555 -0.22833781
-0.1402695 -3.0237308e-05 0.024396382 -0.17851865 -0.007857203 -0.14375146 -0.04707868 0.003773054
0.13945891 -0.03064738 -0.1117654 -0.13505244 0.017513176 -0.023916772 0.041873373 0.05449816
0.0672506 -0.013671184 0.034195837 0.09165104 0.022428878 -0.19134603 -0.10556961 -0.07025609
-0.041324824 -0.11129787 -0.029450394 -0.004605282 -0.011869189 0.030638024 -0.016500711 0.06195943
-0.05682298 0.0020403098 -0.064974934 0.063843235 -0.032633834 -0.007187944 -0.028101392 0.11423135
-0.18108821 0.03037197 0.0041263714 0.05347319 0.035501737 0.084256195 0.060838513 -0.03262368
0.015499113 -0.06698246 0.22224388 0.18596734 0.09282394 -0.002564342 0.03656855 0.20113938
0.22160447 -0.004023961 -0.020979358 0.08441098 -0.04414696 0.0656376 0.23641825 -0.06348712
0.04281464 -0.1376033 -0.013352351 -0.06600359 -0.023194356 0.16986857 -0.07893898 -0.0818786
0.23177047 0.08541394 -0.07494132 -0.016856242 -0.07255581 -0.111771785 0.17114331 0.060747042
-0.032780863 0.23816091 0.022905538 0.10767048 0.097632386 0.0855238 -0.023565277 -0.011733166
0.114091635 0.010110749 0.06699896 -0.06292302 -0.073407106 -0.23640567 0.12906551 0.13864303
-0.073367625 -0.17609552 -0.048228752 -0.065216035 -0.017754458 0.002983505 0.060093205 -0.029814998
0.0853186 -0.030538136 0.02297867 0.010282288 0.012983873 -0.03241121 0.067522205 -0.08015317
-0.101256564 0.014261594 -0.048727084 0.037039727 0.049234122 -0.07931883 -0.13452733 -0.025973877
-0.005602541 -0.06721225 -0.045803457 0.08290177 0.028302262 0.044380676 -0.05999815 -0.023584941
0.038304348 -0.026807984 -0.023846626 -0.036899995 -0.050535914 -0.025442187 0.10255288 0.06622358
0.058238175 -0.046614222 -0.085727826 -0.0009108026 0.047613375 0.05237943 -0.034471683 -0.009380063
-0.088437654 -0.05110363 0.072811544 0.052963268 0.054727037 -0.16298398 0.040185705 0.022722501
-0.1872838 0.024904193 -0.08265179 0.09301884 0.04421386 -0.04986867 -0.0996459 0.035361707
-0.08590804 0.08152416 0.012761792 0.0922154 0.064466245 -0.06233408 0.0704712 0.008476315
0.0302853 0.0024385494 0.00012220646 0.07503299 -0.033619687 -0.10228738 -0.08413146 -0.042554818
-0.023373555 0.09727227 0.07431491 0.045257133 0.010612286 0.054993708 -0.009874895 -0.03260924
0.056555197 -0.11585817 -0.10352069 -0.04566564 -0.09181834 -0.13892914 -0.054206274 0.0066773994
0.08515589 0.059364263 0.06971179 -0.07311353 -0.0944321 -0.02332983 -0.0027096372 0.039138325
-0.04929126 0.059316147 0.022671344 -0.030197185 -0.07309693 -0.047768675 0.024551114 -0.098136045
0.016172642 -0.09555587 -0.09183961 0.032433625 0.007922873 0.05045449 -0.07285871 -0.12609403
-0.14011079 0.029155292 0.05082394 0.12845664 0.104120955 0.0021715537 0.0055944393 0.053821903
0.010060537 -0.06906647 -0.049333174 0.037716515 0.12725008 -0.035947684 -0.004647488 -0.048437208
0.022065645 -0.08021456 -0.011919269 -0.08046822 0.116020635 -0.0894101 -0.028136577 0.01254464
-0.088509895 -0.027565643 -0.13154548 -0.032838672 -0.04796522 -0.016566768 0.07712555 0.086371936

arr_4 f4 [64]
00000000: 4b28 7b3d 5a97 83bc da81 4d3d 3a86 cfbc
00000010: 3c76 78bc e216 563c 4061 c13a 2ede 0dbc
00000020: 4dd9 7dbc 80b0 8abc 8fd8 913b 67e8 023c
00000030: f44b 4fbb 7c05 8ebd 8123 4d3d 1c11 cfbb
00000040: 0909 183d f2a7 a0bd d29f a83c 5612 98bc
00000050: 521e 34bd d36a 9cbb 37f5 38bd 2500 f43c
00000060: 584f 1b3d 1af3 f4bc 72e8 4cbb 9597 8c3b
00000070: 174a 13bd 5de5 55bd 45ac acbc e2a0 04bd
00000080: 0a46 4abd 1d1b ac3d de20 633d d45c 96bd
00000090: 8c53 743b 9f48 75bd f515 0dbd a3b6 88bd
000000a0: f7da 92bc 7a00 413d b7f8 01bc 985d e8bc
000000b0: c2ba 923c e27d 49bc 871c 213d 788e 3f3c
000000c0: 36c8 b83b 8669 023b c675 943c c542 9bbc
000000d0: f2bb 7f3b 5766 203d 2b97 7abd 5c96 ed3c
000000e0: 48c2 86bd 424b 7abb 8a1f af3c 7d4a ffbc
000000f0: f3f0 353d 08a8 58bd 1ded 193c 1d0f d0ba
0.061317723 -0.016063381 0.050172664 -0.025332559 -0.015164908 0.013066979 0.0014753714 -0.008658929
-0.015493703 -0.016929865 0.0044508646 0.007989979 -0.0031630965 -0.0693464 0.050082687 -0.0063191783
0.03711799 -0.07844533 0.02058402 -0.01856343 -0.04397423 -0.0047734766 -0.04515573 0.029785225
0.037917465 -0.029901076 -0.0031266478 0.004290531 -0.03595933 -0.05222069 -0.021078238 -0.032379992
-0.0493832 0.08403609 0.055451266 -0.07341924 0.0037281243 -0.05988371 -0.034444768 -0.0667546
-0.017926676 0.047119595 -0.007932833 -0.028364941 0.017911319 -0.012298079 0.039333846 0.011691682
0.0056391014 0.0019899323 0.018122565 -0.018952737 0.0039021936 0.0391601 -0.06117932 0.029002361
-0.06580025 -0.003819183 0.021377344 -0.031163448 0.04441924 -0.052894622 0.009394911 -0.0015873645

arr_5 f4 [3, 3, 64, 128]
00000000: f79d 6c3d c03e 1fbd 5095 c83a cf48 6fbd
00000010: ddfd b93d 7e9b 3f3d 2e40 443c d3ac 493d
00000020: 65fc 4c3c 16ee f2bd a7d9 4dbd 3414 98bb
00000030: 754c 3cbd 44e7 d33d db8b 46be 6003 e9bd
00000040: 4074 f13d 3f64 543c 9800 773d 5c10 59bb
00000050: 82e8 1c3d 1fa6 7abd ec92 053d 1b36 053e
00000060: 8edf 923c 883c 963d a2c7 913d ac6d e4bd
00000070: d44b 143c bba7 f6bb 41ba edbc 49e5 acbd
00000080: 1c08 2fbd 10b2 aebd 8d5d 073d 48c5 d13c
00000090: 0dd6 0a3c 3aa8 7d3c d6ed 97bb 0b98 b63d
000000a0: 8e6f 893d 8b1a 653d 72b8 edbb cf85 a6bd
000000b0: 7999 b23b 36d6 8f3b e236 003b c051 403d
000000c0: 6c4c 4a3c f775 133c ea15 cdbc 13f8 493d
000000d0: a2cf 863c 59af 133c 8a10 f3bd b5d0 fb3c
000000e0: 3e97 85bd 3136 e23d 2466 063b 9d7a 2d3d
000000f0: 5ec4 823d c9b7 93bc 218f b83d 9212 02bc
00000100: 5664 dc3c 89d0 453d 877f 20bb 5258 afbd
00000110: 40e8 3f3c eda5 ba3c 4cc1 9dbc 32e2 b83d
00000120: daa5 fa3d d446 233d 54f8 efb9 cbf1 313d
00000130: 90ec ed3d 01d9 6d3c 681c 66bd 723f 92bd
00000140: 2f83 373c ec2b 74bd b54d f73c 239e eb3c
00000150: 8d0e df3d 0b3e a33d 2db4 80bc 4823 30ba
00000160: 2f97 adbc 734d 523d 47eb b8bd 1e30 ae3d
00000170: b59c e2bc 1420 d23d 6bbf 33bd 5d11 4bbd
00000180: a494 14bc 09a0 e63c 1b3e 55bd ded5 9f3d
00000190: c585 9f3c b7cb dfbc 5823 b63d 1f6e 1c3d
000001a0: 7615 b93d 1af1 903d 129b 0a3e 5366 2c3d
000001b0: f47a 83bd 9b3d dfbd 3041 6abd 69e9 32bd
000001c0: d4e9 643b 53ed 923d de3c a63d b346 153d
000001d0: 2e91 333d 3118 793d 2b22 ebbc ed60 31bd
000001e0: 573d edbc 9170 0fbd 0e24 cf3d cabc 15be
000001f0: 5cbc 7abd 79b2 b63c 3aed c1bb b250 7c3d
00000200: 2c3d b53d ed15 9fbd d241 03bd 317a ec3c
00000210: af48 7cbd 995e 66bc 9f8f cfbd 4a53 da3c
00000220: 3e7b 273d 1e6e d5bc 00db 84bd bd53 683d
00000230: 6bd0 e1bc 9335 c8bd 47db 91bd 95a3 853d
00000240: a947 bd3a 455b 343c 0a3e b33d bbfe 90bc
00000250: 2831 0bbc 3698 a53d ae19 cdbd 672b 6e3c
00000260: 3b0d 38bc 0e71 ef3d 3ed6 393d 0578 9abc
00000270: cc72 e2bd a17f 8dbd f4e8 803d 32c2 d63c
00000280: 82df 8c3c 011e 7c3d 123a 47bc 2134 4ebd
00000290: 4d02 98bd 8257 013e 2a69 053d 9dcd c6bc
000002a0: eea2 f13c f1df 4d3d c0c4 a8bc 5b7f 123e
000002b0: eb4c 8bbd 730c c3bc e06c a13d e9a0 883d
000002c0: acba 803c fa09 e2bb c432 59bd 7b60 8d3d
000002d0: 5d23 45bd e196 8d3d 4172 cc3d 9aed fdba
000002e0: bd0d 433d a593 c23d 104b 8c3c cfbb 22bd
000002f0: cee0 ff3d 3229 44bd b7e6 9d3b 88da 13be
00000300: 5537 6b3d 26fb 813d 14e9 2e3d a3d5 9dbd
00000310: 5ba5 54bd 5670 823d fd25 913d 9ba6 c3ba
00000320: cede 4c3d d79d 9ebd 3c1b 0c3d 0ab1 133e
00000330: cb49 82bd ec80 d73c 30b3 57bd c9cd 313d
00000340: db6e 263e bfdb 44be 28e1 243d 3b36 a53c
00000350: 27bf 183c ab88 e6bd a36f ddba 10e1 cd3c
00000360: a875 703c 810b a2bd 4112 bb3d 63a0 8f3c
00000370: 3ea1 083e ca94 9f3d 30a3 28be b4e2 a63d
00000380: 4828 933d 5311 b6bc f57f 583d d3d8 20be
00000390: 1efc 38bd 2102 b9bd 8187 133d 8089 82bb
000003a0: 22d7 bd3c 4fb9 d0bd fc85 d63d 7086 b43d
000003b0: 8ff5 9bbd 31fb f9bc a8fd 073e c876 363e
000003c0: 8020 823d e9bf e7bd 996b 77bc 39ed 933d
000003d0: 13fe f1bc 1070 c23d 7879 3bbd fdf5 d0bc
000003e0: c2e7 10bc 4d87 0dbe cc6c 513d c088 c0bc
000003f0: b9ab fe3d 058a 833c 6199 f5bd 587e 9a3c
0.057767835 -0.038878202 0.0015303288 -0.058419045 0.09081624 0.04677915 0.011978192 0.049237084
0.012511347 -0.118618175 -0.050256398 -0.0046410803 -0.045971353 0.10346845 -0.19389288 -0.11377597
0.11789751 0.012963354 0.0603033 -0.0033121323 0.038307674 -0.06119358 0.03261082 0.13008921
0.017928865 0.07335764 0.07118155 -0.11153731 0.009051282 -0.0075273192 -0.029019477 -0.0844217
-0.042732343 -0.085300565 0.0330482 0.025606766 0.008473885 0.015482003 -0.0046365066 0.08915719
0.067107305 0.055933516 -0.0072546536 -0.08130991 0.0054504243 0.0043895496 0.0019563963 0.046952963
0.012347322 0.009000293 -0.025034864 0.049308848 0.016456429 0.009013974 -0.11868389 0.030739168
-0.06522988 0.110454924 0.0020507658 0.04235326 0.0638511 -0.018031972 0.09011675 -0.007938998
0.026903313 0.048294578 -0.0024490075 -0.08561768 0.011713088 0.022784198 -0.01925721 0.09027518
0.12238665 0.03986247 -0.0004577065 0.043443482 0.11617386 0.01451707 -0.056179434 -0.071410075
0.01120071 -0.0596122 0.03018842 0.028761929 0.10891447 0.07970818 -0.015710915 -0.00067191245
-0.021190254 0.051343393 -0.090292506 0.085052714 -0.027662614 0.10260025 -0.043883722 -0.049577106
-0.009068642 0.028152483 -0.05206118 0.07804464 0.019472966 -0.027318818 0.0889346 0.038190957
0.090372965 0.070772365 0.13535717 0.04208977 -0.06419936 -0.10900422 -0.057191074 -0.04367963
0.0034929411 0.07174172 0.08117078 0.036444377 0.043839626 0.060814086 -0.028702816 -0.043305326
-0.028959913 -0.03501946 0.10114299 -0.14622799 -0.06121479 0.0223019 -0.005918172 0.061600395
0.08849558 -0.07767854 -0.032045193 0.02886686 -0.061592754 -0.01406064 -0.101348154 0.026651043
0.040889017 -0.026053485 -0.064870834 0.056720484 -0.027565202 -0.097758435 -0.07121902 0.065253414
0.0014440912 0.0110080885 0.087520674 -0.01769959 -0.0084956065 0.080856726 -0.10014664 0.014536715
-0.011233623 0.11691485 0.045370333 -0.018856058 -0.11057052 -0.06909109 0.06294432 0.026215646
0.01719642 0.06155205 -0.012159841 -0.050342683 -0.07422314 0.12631038 0.032570995 -0.024267966
0.029496636 0.050262395 -0.02060163 0.14306395 -0.0680178 -0.023809647 0.078820944 0.06671316
0.015714012 -0.006898162 -0.05302693 0.06903168 -0.04812943 0.069135435 0.0998273 -0.0019373179
0.047620524 0.09500817 0.017125636 -0.03972989 0.1249405 -0.04789085 0.004818763 -0.14438832
0.057425816 0.06346731 0.04270275 -0.077067636 -0.051915508 0.06369083 0.07087324 -0.0014926972
0.05001717 -0.07744949 0.03420566 0.14423004 -0.06361731 0.026306592 -0.05266112 0.043409143
0.16253226 -0.19224451 0.04025379 0.02016746 0.009322918 -0.11256536 -0.0016894232 0.025131732
0.014676489 -0.079123504 0.09134341 0.017532533 0.13342759 0.07792051 -0.16468501 0.08148709
0.071854174 -0.022225058 0.052856404 -0.15707712 -0.045162313 -0.09033609 0.0360179 -0.0039836764
0.023173872 -0.10191595 0.10474774 0.088147044 -0.07615196 -0.030515285 0.13280356 0.17818749
0.06353855 -0.11315901 -0.015101337 0.07222981 -0.029540097 0.094940305 -0.04577014 -0.025507921
-0.008844318 -0.13821144 0.051129147 -0.023502707 0.12435097 0.016057024 -0.11992145 0.018859074

arr_6 f4 [128]
00000000: c4f6 08bd 0c01 47bd 40a9 f8bd 6db2 bcbd
00000010: 07e5 c6bd a6a3 cebd 01a6 d0bc 28e0 d2bd
00000020: 431a a1bd f39d 17bd 7e84 83bd 1eec 9dbc
00000030: 900a 31bb 06c4 2ebd 5ec8 8abd a20e 8abd
00000040: ea04 923b 0ea6 7abd 8d75 67bd f7b6 48bd
00000050: 4cf0 21bd 2e00 12be a7c2 8fbd 3d06 12bd
00000060: ce4c a9bc c2fc 29bd 8629 96bc 58b4 0cb7
00000070: 6854 ecbc 2e36 1bbc f9b5 8bbd baab 923a
00000080: c66b b9bd 177f c7bd d5e3 a5bd f078 a2bd
00000090: 69cc d7bd edfc 76bd f187 c4bc 0839 85bd
000000a0: 49f6 6dbd d06c 4bbd dac5 80bd a7ee d9bc
000000b0: 622b 4fbd 523d 95bc 2b72 1abd 7202 48bd
000000c0: aed4 7dbd b6db b3bc 7e0f 48bd 27f5 b6bd
000000d0: e6b8 52bd 79a9 99bd a104 8abd 8e71 2dbd
000000e0: f2af 1dbc 5c7d 14bd 9a69 88bd d65d 4cbd
000000f0: f37d a8bd 08cf aabd 96c3 12bd d2dc 3bbd
00000100: 96b3 3ebd 2a64 5bbc 39e6 9dbd 5829 2cbd
00000110: 6928 29bd b214 78bd 83c1 4cbd bff8 85bd
00000120: 4be7 7bbd 24e1 323b c803 58bc 2eae 33bd
00000130: 35f3 81bd d1ab 3abc 4c26 82bd 6f68 2bbd
00000140: e49d 59bd 3dfe 66bd 10cb 81bd 6bb7 53bc
00000150: 0891 98bd 4b5d 29bd fa6d 9ebd 2877 c6bc
00000160: 964a b9bd 4eee 7dbd 6793 07bd 4753 8c3c
00000170: 6a76 f1bd e3c1 b9bc 5c08 5dbd fcf5 2abd
00000180: d3ce 3cbd 41bd 91bd 76c5 a4bd 1222 79ba
00000190: 1636 d6bd 00a7 b2bc 4722 b63b c485 e03c
000001a0: 34ec 10bd e27c b8bd 6a6e 42bc 59d5 8fbd
000001b0: 784c 1ebd ad54 51bd 4aa6 82bd b9a5 91bd
000001c0: 4a9e 95bd 94c9 5b3d 1b7a 38bd ad45 e9bc
000001d0: 738e 19bd 500a b4bc a929 80bd 99d3 51bd
000001e0: ca34 84bd cb30 40bd a31d d3bd d0b0 b0bd
000001f0: 72ef 77bd bb90 b2bd 1489 8fbd da62 61bd
-0.03343846 -0.048584983 -0.12141657 -0.092137195 -0.09711652 -0.10089807 -0.025469782 -0.10296661
-0.07866337 -0.037015866 -0.06421755 -0.019277629 -0.0027014352 -0.04266741 -0.06776498 -0.06741072
0.004456152 -0.06119352 -0.05650859 -0.049002614 -0.039535806 -0.14257881 -0.07019549 -0.03565048
-0.020666506 -0.041500814 -0.018330347 -8.38664e-06 -0.028848842 -0.009473367 -0.06821818 0.0011190095
-0.09053759 -0.09741037 -0.08100096 -0.07933223 -0.10537035 -0.060299803 -0.023990603 -0.065050185
-0.058096204 -0.04966432 -0.06287737 -0.026603056 -0.050578482 -0.018217716 -0.037706535 -0.048830457
-0.061970405 -0.021955352 -0.0488429 -0.08933478 -0.051445864 -0.075030275 -0.06739164 -0.042344622
-0.009624468 -0.036252365 -0.06660767 -0.049894176 -0.08227148 -0.08340269 -0.035831057 -0.045864888
-0.046557985 -0.01339058 -0.07709927 -0.042031616 -0.041298304 -0.06056661 -0.049989235 -0.06541585
-0.061499875 0.0027294839 -0.013184495 -0.043867283 -0.06345216 -0.011393503 -0.06354961 -0.041847643
-0.05312909 -0.056394804 -0.06337559 -0.012922148 -0.074495375 -0.041348737 -0.0773582 -0.02422674
-0.09047429 -0.061994843 -0.03309956 0.017129553 -0.11790164 -0.02267546 -0.05396305 -0.041738495
-0.04609568 -0.071161754 -0.08045475 -0.0009503673 -0.10459535 -0.021808147 0.0055582854 0.027407534
-0.03538151 -0.090081945 -0.011867145 -0.07023115 -0.038647145 -0.051106144 -0.06379373 -0.07111687
-0.07305582 0.053659037 -0.045038324 -0.028475607 -0.037489366 -0.021977574 -0.06257946 -0.051227186
-0.06455381 -0.046921533 -0.10308387 -0.08627474 -0.060531087 -0.087190114 -0.070085675 -0.055025913

arr_7 f4 [3200, 10]
00000000: b86f 473c efdc 0bbe 5bb7 213e 368d e0bd
00000010: a9c0 debd 0b5c 90bd bbe9 433c 8595 abbd
00000020: 71d4 e6bd e8ee 25be 7250 6bbd e959 15bd
00000030: b3da 0fbe 054a 2dbd a3f2 1fbd f860 a0bd
00000040: 0ede be3c a10e 443d 6d63 c1bd 9a65 9cbd
00000050: 8cd2 cc39 3fe8 7ebc 299e 42bd d99f 7f3d
00000060: d858 a4bd 88ef 1bbe e1dc 343b 3bf6 ffbd
00000070: 0d37 fabd 824c 92bd 8e6a 6fbc d4a4 40be
00000080: 75a3 0bbe 6482 97bd f164 87bc 4a6f 653b
00000090: 5117 c4bd 95df b0bd e7fb 91bd fc98 4fbe
000000a0: 1199 9fbd 3ad1 7f3d 9c2a 18bd 5f36 b3bd
000000b0: 23a9 5bbd 743f 26bc 6447 163c fb17 b53c
000000c0: 7b02 1dbe 4192 bebd e149 fa3c d862 e7bb
000000d0: 8a65 bdbb 8948 8e3b 7db8 173c 57fe 57bd
000000e0: 901e 11be f848 7dbd c8dc 52bc 4288 88bd
000000f0: da06 bebd 1b67 eabd 06b3 f8bb 40a9 333d
00000100: ed8f 03be 4d78 8fbd 36d1 1fbe e0c0 3bbd
00000110: 9c13 eabc 4fe5 2fbb 5e57 d6bc c5ee 5c3c
00000120: 62ec 70bd 6f85 ae3c e633 8a3d 184c 16be
00000130: 0e8f 303d f2f1 c33b 0980 9abd 6767 81bd
00000140: d3c3 2ebd 16ff 2bbd 25c2 61bd b36f 59bd
00000150: 992b 90bc 8bba 00be 29e3 3ebd f16b 3fbd
00000160: bd3b 99bd c12a e2be 7451 78bd 312d f5bc
00000170: c734 7abe 12f2 3dbe b3aa 0dbd 0d02 f0bd
00000180: 3141 7fbb ff71 533d 1690 3f3b e041 9f39
00000190: 5be5 d7bd 2bc0 06bd 35bb fbbd dd84 6bbd
000001a0: 6f1b 98bc 874f 05be 9a14 b9bc 69ab a8bc
000001b0: 6603 35bd 93c1 31bd d3f8 bebd 22d4 fdbc
000001c0: 07b0 10be dc5b 46bd 01db c7bc 8b85 68be
000001d0: 4e28 17bd f4b5 9d3b 1bbf e2bc a6cf e7bd
000001e0: ffdb 973d 1743 b2bd 375a 073d 4d1e 3dbe
000001f0: b89e 28be ed5a e7bc ce4a 03bd fb4e 47bb
00000200: 5da7 95bd b32d acbd 8616 2a3c 192f 71bd
00000210: 0585 f13c 053f f8bc 77ac 393c 4328 c83c
00000220: 00bd c1bc 2eff 9ebd 9da2 6bbd 2a14 45bc
00000230: 0029 443d 57c9 52bd 1a01 2abd a706 aebc
00000240: 6639 e5bb a931 85bd 8169 8cbd 836d 9cbc
00000250: e62f d8bc 20d4 53bb d8e0 a2bc f8b7 2bbc
00000260: 4ef3 5cbd 6d43 513c bc06 4abd c809 8fbd
00000270: 20f6 10be 5a46 febc 9c89 123d 774c 26be
00000280: f036 1bbd a0c3 74bd 6664 733d 548b ae3a
00000290: ce11 eebd 8aa7 c8bd 200b c43d 9a50 d7bd
000002a0: 8a86 4bbd 7b1f 12be a77a 9b3d dac4 04be
000002b0: 6075 b23c 0102 eabd 0940 323d d43e 48be
000002c0: 1648 8abc b38c 7bbd 8da7 b73c fe06 1abe
000002d0: 54c9 84bd 37d9 82be c358 88bc ec67 15be
000002e0: b44d 7dbc 00dd 74bd 1afb c6bd b9ea fcbd
000002f0: 34dd 913d 26b0 a13c ab51 45bd 7031 11bd
00000300: e1ce a53d 2945 9abd decf 05be 434d 83bd
00000310: b50d 243c f229 c9bd 4808 7cbd dbca f4bd
00000320: 7611 62bd 541a 80bd ef00 80bb fd8b 52bd
00000330: f8d5 96bd 7772 87bd cad1 f03c 2db7 19bd
00000340: 1fea 94bd 806f 25be a0eb a93c 4561 5dbe
00000350: 1874 13bb 0146 39bd 0995 383d fc1c f2bd
00000360: cd32 403c 60d6 8bbd 7496 b53c cdb9 6dbe
00000370: 6f75 a6bd 3a0e f6bd 4cf1 8ebd 8e3b 94bc
00000380: e078 753d addd 07be 57ac afbd 592c 00bd
00000390: c366 0ebe 5294 acbd ebb6 5c3d 8d29 50bd
000003a0: 31d4 b6bd b00a a9bd a34b 47bd 570c bebb
000003b0: 00db 063a 0394 1abe 52f9 21bd d822 51be
000003c0: c1be 91bd 3e87 d6bc d2e8 75bd 2efe 8c3c
000003d0: 48c2 e6bd fa98 ccbd 16a2 103d f891 07bd
000003e0: f392 16be 49ea c2bc 9496 d5bd b49c 51be
000003f0: fb3a c2bd b499 79bd 7aed 94bd 8c52 5f3d
0.012172632 -0.13658498 0.15792601 -0.10964434 -0.10876591 -0.07048806 0.011957581 -0.08378128
-0.11270989 -0.16204417 -0.057449766 -0.036462698 -0.14048271 -0.04230692 -0.039049756 -0.07830995
0.023299243 0.047865514 -0.09442792 -0.076365665 0.00039066782 -0.0155583015 -0.047514115 0.062408302
-0.08024758 -0.15228093 0.0027597474 -0.124981366 -0.12217531 -0.07143499 -0.014612807 -0.18812877
-0.13636573 -0.07397917 -0.016527625 0.003500896 -0.0957476 -0.08636395 -0.07128125 -0.20273203
-0.07792867 0.062455393 -0.03715001 -0.08750605 -0.0536281 -0.010146964 0.009172294 0.022106161
-0.15332977 -0.093052395 0.030552806 -0.0070613436 -0.0057799267 0.004342143 0.009260294 -0.05273279
-0.14171815 -0.061837167 -0.012870021 -0.06666614 -0.092786506 -0.11445447 -0.0075897006 0.04386258
-0.12847872 -0.070053674 -0.15607151 -0.045838237 -0.028573804 -0.002683956 -0.026164707 0.0134846615
-0.058819182 0.02130386 0.0674818 -0.14677465 0.043105178 0.00597977 -0.07543952 -0.063185506
-0.04266722 -0.041991316 -0.05511679 -0.05308504 -0.017598914 -0.1257116 -0.046603356 -0.0467338
-0.07482097 -0.44173244 -0.060624555 -0.029928776 -0.24434195 -0.18549374 -0.03458662 -0.11719141
-0.003894877 0.051622387 0.002923017 0.00030375924 -0.10541793 -0.03289811 -0.12291566 -0.057499755
-0.018567769 -0.13018619 -0.022592831 -0.020589547 -0.044192694 -0.043397497 -0.09324803 -0.030984942
-0.14129649 -0.048427448 -0.024396421 -0.22707193 -0.036903672 0.0048129503 -0.027679017 -0.11318903
0.07415008 -0.087042026 0.03304502 -0.1846859 -0.16466796 -0.028241599 -0.03205376 -0.0030412066
-0.07307313 -0.08407154 0.010381347 -0.058882806 0.029482374 -0.030303488 0.011332623 0.02443326
-0.023649693 -0.077635154 -0.057528127 -0.012028733 0.047890663 -0.051461544 -0.041504957 -0.021243406
-0.006995368 -0.065036125 -0.06856061 -0.019095188 -0.026390027 -0.0032322481 -0.019882604 -0.010480873
-0.05394297 0.012772423 -0.04932283 -0.069842875 -0.14156389 -0.031039406 0.035775766 -0.16240107
-0.03789419 -0.059756875 0.05942192 0.001331667 -0.1162449 -0.097975805 0.095724344 -0.105134204
-0.049688853 -0.14269821 0.075917535 -0.12965718 0.021784484 -0.114261635 0.0435181 -0.19555217
-0.016880076 -0.061413478 0.022418762 -0.1504173 -0.06483713 -0.25556347 -0.016643887 -0.14590424
-0.01546042 -0.059781075 -0.097158626 -0.12349457 0.07122269 0.019737314 -0.048173588 -0.035447538
0.080961 -0.075327225 -0.13067576 -0.06411221 0.010013034 -0.098224536 -0.061531335 -0.11952754
-0.055192433 -0.06255022 -0.0039063613 -0.051403034 -0.0736503 -0.06613629 0.02939691 -0.037528206
-0.072712176 -0.16155815 0.020742238 -0.21619137 -0.0022499617 -0.045232777 0.045064006 -0.118219346
0.011730862 -0.06827998 0.022166468 -0.23215409 -0.081278674 -0.12014432 -0.069796175 -0.018094804
0.05992973 -0.13268156 -0.08577793 -0.031292293 -0.13906388 -0.08426727 0.05388538 -0.050820876
-0.08927191 -0.082539916 -0.048656117 -0.005799811 0.0005144328 -0.15095524 -0.03954441 -0.20423448
-0.071164615 -0.026187535 -0.060036488 0.017211046 -0.11267525 -0.099901155 0.035310827 -0.03309819
-0.14704494 -0.023793356 -0.10429111 -0.20469934 -0.09483906 -0.0609376 -0.072718576 0.054522082

arr_8 f4 [10]
00000000: cda7 cebd ce77 25bd 651a 3dbd 1dbf c13d
00000010: 4542 33bc fab3 5b3c 4634 21bd 9508 8cbd
00000020: 57c4 a83d effb 17bc
-0.10090599 -0.040397458 -0.04616775 0.0946028 -0.010941093 0.013409609 -0.039356492 -0.068375744
0.08240574 -0.009276374
