Exercises/fashion-mnist/fashion-mnist_params.npz (npz, 557359 bytes, 9 tensors)

arr_0 f4 [34048]
00000000: 2c5f 7e3f 9682 753f 11a8 843f 2270 7f3f
00000010: 3736 743f 06f6 713f 2b3e 6b3f 4a52 843f
00000020: 0a70 7f3f 8537 8a3f 2a9e 843f cd80 6d3f
00000030: 7bfb 6a3f b924 883f f9d4 863f 46d1 723f
00000040: bc9e 823f 36c2 633f 71de 773f 43ea 8d3f
00000050: 08cc 793f 6f00 863f 6b89 7c3f e58a 713f
00000060: 8b11 8e3f 113b 813f d10e 623f f4f7 7f3f
00000070: a287 583f 1414 883f 7a70 7b3f 8081 6f3f
00000080: 12ca 893f 07b7 7b3f 6353 743f 71e6 5c3f
00000090: 0152 7b3f 05a8 863f ff4c 803f 72e6 7d3f
000000a0: e15c 6b3f 0bbc 7b3f aeeb 713f 7d98 703f
000000b0: 2306 5e3f bc0c 813f 49b0 653f 023f 7c3f
000000c0: b5a2 5c3f 6a80 833f 9404 7c3f 7791 8c3f
000000d0: a86b 803f 07cf 913f 0f82 853f b9c6 813f
000000e0: df04 843f 7f23 8d3f 1b9c 4b3f c118 663f
000000f0: da87 6c3f de6e 943f 0fb6 853f f12d 493f
00000100: a99b 843f 0730 7d3f 7fe1 7e3f 8856 813f
00000110: 5eb8 763f a2f5 893f 2551 853f 9536 6f3f
00000120: 0879 7b3f a03a 783f 8bc5 8d3f 2f63 6b3f
00000130: da85 753f de2b 823f 290b 8b3f ee0d 823f
00000140: fe8b 6d3f cb09 7c3f eb35 853f 6640 753f
00000150: 79a0 803f 56e3 863f 5b64 793f f5c2 753f
00000160: b4ad 8b3f 2314 913f 904a 653f f81b 783f
00000170: 1020 8b3f ffe8 803f b91b 793f 2f87 833f
00000180: ec3a 803f ad08 743f c229 913f 89d9 8a3f
00000190: 3e2c 893f 4623 8b3f 53dc 893f d2dc 653f
000001a0: ab8f 8b3f e679 813f f229 8d3f 2ce9 883f
000001b0: c3e6 723f d656 853f e8b1 6c3f 837d 833f
000001c0: bfd9 8d3f 8769 903f c3e9 7e3f 4350 8f3f
000001d0: 925e 673f 1c5e 8b3f 5937 743f d607 853f
000001e0: 2057 853f 35bc 833f b31d 823f 0fca 823f
000001f0: af0b 693f 7765 803f e9a1 703f c3b0 833f
00000200: ceec 803f ab5a 8d3f 99c1 813f bb5a 633f
00000210: ebdf 703f 76e4 8a3f a10c 843f 4990 893f
00000220: 20f1 753f 071c 873f d603 933f 472f 873f
00000230: 467d 813f bdcb 903f 7ca2 8a3f 4dc9 793f
00000240: 9420 883f 06a8 803f be2a 883f 5f35 7f3f
00000250: b8f4 833f 93aa 603f 63d3 823f 936a 683f
00000260: 8180 8a3f 776d 8b3f c4b4 803f d244 813f
00000270: c71a 7b3f 5268 713f df8f 623f 9069 8e3f
00000280: 51ac 7d3f 4101 753f 487c 573f c45d 893f
00000290: 4631 7e3f 99c1 823f 11ea 843f aba3 633f
000002a0: a300 7c3f a894 793f cf79 7f3f 9ade 723f
000002b0: 0536 883f c488 863f 0a28 7f3f 725c 883f
000002c0: f2fc 7a3f 80e1 8f3f a09e 753f 3bd3 873f
000002d0: ae65 783f 5d2b 853f db5e 8d3f 1f29 793f
000002e0: ac44 8a3f 28d7 793f feed 963f 4df0 913f
000002f0: 03d0 813f f419 803f 1a29 5e3f d3a1 8d3f
00000300: 9706 6f3f a81b 853f 08a0 893f 0a54 763f
00000310: 1e6d 783f b12d 583f 401d 803f 4c38 883f
00000320: 90df 753f 1985 683f a2b8 803f 830e 893f
00000330: effa 693f 853f 723f 4837 833f 097b 873f
00000340: 85e2 8a3f 0383 8c3f bc51 803f 892f 833f
00000350: f403 593f 982f 843f 9c1c 833f ad8c 733f
00000360: dd82 7e3f 95ef 833f 536f 693f 401f 8a3f
00000370: 9acb 743f 23ce 863f dfe9 7b3f 5aec 653f
00000380: b489 7b3f c5c4 893f c492 8e3f d809 6f3f
00000390: e1c6 7c3f c429 733f 1b70 8a3f 3789 6e3f
000003a0: e59b 883f 71d3 673f f86e 893f 60a7 703f
000003b0: a9da 723f b608 733f a326 643f 9e08 883f
000003c0: 1e92 8b3f fc58 683f cc46 863f e081 7c3f
000003d0: ca33 853f e2fa 853f e6f9 713f cb57 863f
000003e0: 315c 673f db34 703f 97ee 7e3f ac50 813f
000003f0: 575d 7c3f 146c 7b3f c523 843f e706 7a3f
0.9936397 0.95902383 1.036379 0.99780476 0.95395225 0.94516027 0.91891736 1.0337613
0.99780333 1.0798193 1.0360768 0.9277466 0.9178998 1.0636207 1.0533744 0.94850576
1.0204692 0.8896822 0.96823794 1.1087116 0.9757695 1.0468882 0.98647183 0.9435256
1.1099104 1.0096151 0.8830386 0.9998772 0.8458196 1.0631127 0.982185 0.93556976
1.0764792 0.9832615 0.9543974 0.86289126 0.98172003 1.0520025 1.0023497 0.99179757
0.91938597 0.98333806 0.94500244 0.9398268 0.86728114 1.0082011 0.89722115 0.9853364
0.8618577 1.0273564 0.98444486 1.0981892 1.0032854 1.1391305 1.0430316 1.013877
1.0313987 1.1026458 0.79535073 0.8988152 0.92394793 1.1596334 1.0446185 0.78585726
1.0360004 0.9890141 0.9956283 1.0104532 0.9637507 1.0778086 1.0415388 0.9344266
0.98231554 0.96964455 1.107591 0.9194822 0.95907366 1.0169637 1.0862781 1.0160501
0.92791736 0.9845244 1.040708 0.9580139 1.0048972 1.0538127 0.97418755 0.96000606
1.0912385 1.133427 0.895669 0.96917677 1.086916 1.0071105 0.97307926 1.027563
1.0017982 0.9532574 1.1340868 1.0847636 1.0716627 1.087014 1.0770363 0.8979007
1.0903219 1.0115325 1.1028426 1.0696158 0.94883364 1.0417125 0.92458963 1.0272678
1.1082076 1.1282204 0.9957544 1.1196369 0.9037868 1.0888095 0.95396954 1.0393016
1.0417213 1.0291811 1.0165313 1.0217913 0.9103345 1.0030965 0.93997055 1.0288318
1.0072267 1.1043295 1.0137206 0.8881032 0.9409167 1.0850971 1.0316354 1.0747157
0.9607105 1.0555428 1.1485546 1.0561303 1.0116355 1.1312176 1.0830836 0.97572786
1.0634942 1.0051277 1.0638044 0.9969081 1.0309057 0.87760276 1.022076 0.9078762
1.0820466 1.0892781 1.0055165 1.0099127 0.98087734 0.94299805 0.8850078 1.1125965
0.9909106 0.9570504 0.84174013 1.073174 0.99293935 1.0215331 1.0383931 0.8892161
0.9843847 0.97492456 0.9979524 0.94870913 1.0641485 1.0510488 0.9967047 1.0653212
0.98042214 1.1240692 0.9594517 1.0611337 0.9703015 1.0403858 1.1044573 0.9732837
1.0802207 0.9759393 1.179138 1.1401459 1.0141605 1.000792 0.86781466 1.106501
0.9336943 1.0399065 1.0751963 0.96221983 0.970415 0.8444472 1.0008926 1.064218
0.96044254 0.9082809 1.0056345 1.0707554 0.9139852 0.94628173 1.0251245 1.0584422
1.0850378 1.0977482 1.0024943 1.0248882 0.84771657 1.0327024 1.0243106 0.9513653
0.9941843 1.030749 0.9118549 1.0790787 0.9562317 1.0531658 0.98403734 0.8981377
0.98256993 1.0763174 1.1138539 0.93374395 0.98740965 0.94985604 1.0815462 0.93178123
1.0672575 0.9055701 1.073699 0.94005394 0.948649 0.94935167 0.89121455 1.062763
1.0903966 0.9076078 1.0490355 0.98635674 1.040643 1.0467188 0.9452194 1.0495542
0.9037505 0.9383065 0.9958281 1.0102744 0.98579925 0.9821179 1.0323416 0.9766678

arr_1 f4 [3, 3, 1, 32]
00000000: c304 2bbe 077a 053e 84b8 1f3e c6a9 e23c
00000010: bae7 2b3d 32d3 8abd 67a0 24be e7ff bcbd
00000020: 9ec0 183d bc32 31bc 10ea 0d3e 9d6a dabd
00000030: ad5a 08be cddc ae3c 7846 46be f2bd eebd
00000040: 5f5a 993d 4042 0f3d 06bb 0ebe f194 fdbd
00000050: 297f 283d 3b66 113e 43c5 e6bc 2937 f0bd
00000060: 89ee e4bd b049 133e 298e 1e3d b445 f5bd
00000070: 1585 173e 7799 8abd d72f 72bd 6433 9fbd
00000080: 04fc d63d f575 9e3d d8ae e5bb b6c3 6abe
00000090: 8cbc aa3d 2836 5fbd 1640 0b3d 0cfb 02be
000000a0: 44bd 28bd a41b ca3c 636a bd3d 1db1 4bbe
000000b0: 8fd0 81bd adf9 b23d ad27 9b3b 257b 283e
000000c0: 3a2a 363d cec9 14be 1cd2 c4ba d170 a5be
000000d0: 2ba6 7abe ac43 c13d 8bc1 47bd 40f0 f3bc
000000e0: f77e 113c e6c1 cc3d ab7a b9bd 4427 833d
000000f0: 0a65 83bd 1ee9 27bd a8fd afbd 1ef1 963c
00000100: f19d ed3d fe58 19be f297 03be 88f4 a6bd
00000110: 90b4 10be 27c3 043d 53bc c3bd 7ecf cf3d
00000120: 38d8 353e a1bc 05be a3e9 983d 3d5b 55be
00000130: 78a7 0bbe d6f3 7fbb 094a 253e 8c8c 033d
00000140: d966 d6bd 2b0a 66bd 5081 41bb 5887 0bbe
00000150: 7f0c 04be cdf4 923d 22df ccbd a87d 26bc
00000160: 8cff 0d3e e35a f13d 2bf6 143e 5551 eb3d
00000170: 424f debc 3b8a 1abe c7d7 21bd 58ab fdbd
00000180: cf2c 11be afa2 783d 8848 21be ae7a 953d
00000190: a1a2 253d 4c1f ffbd 964b 9fbd 34a0 aabd
000001a0: f5a5 92bd 7ff8 8a3d b0cc 71bd 7a02 9e3d
000001b0: b673 9c3d c577 153d 2fc5 c03d e013 c3bd
000001c0: a8ae 1a3d fb38 b63d 403a 833d 8eaf 15bd
000001d0: ca9a 483c c285 543d beba e0bd fa73 a0bd
000001e0: 8776 25be d8e2 93bd b9b1 8a3d 3b9e f73c
000001f0: e6c5 fcbc a4ee 10be f1bf 043e 4e2d dd3c
00000200: d756 cdbd a280 c0bc 0fd2 bc3d 9092 2fbd
00000210: 8a81 1fbd a14e e73d 1887 7a3d 2987 9a3d
00000220: 9ad7 0b3d 5f9b f93d 2e54 31bd 9ac2 dfbd
00000230: 6eb9 e43d bc2e 063e f339 2fbd 1c44 8bbd
00000240: 79eb 2a3d 1b73 043e a954 63bd f122 e33d
00000250: 186d 79be 6457 ebbd a7e4 333e d004 583d
00000260: b87d 093e 3541 d93c d7ba ecbd 41c8 eabd
00000270: d625 8ebc 3f47 30be 5f7c 12be b398 8d3e
00000280: eea5 073e ed91 f8bd 7245 0c3e 8033 553d
00000290: 527d 123b f304 cdb9 ec4b 5a3a 0275 c53d
000002a0: ee45 d03d 7e16 963d b75c 023d 981f b9bd
000002b0: d983 27bd 1948 b7bb 6f5d 61bd 8c45 a3bd
000002c0: 8f2c 52be cb39 b3bb 36d1 75be 4bd6 a93d
000002d0: f2cc 523a 3fdf 573d 4761 2dbd b080 96bd
000002e0: 9220 b8bd bb05 afbd 9e3f 5c3d 6497 6a3d
000002f0: 5f92 eabd b4ae 1dbe 340d fb3d 7f07 363d
00000300: 5167 7fbd ab41 f2bd 46e4 01bd d1ae 873c
00000310: af16 c63d 281b 6a3c ba98 3abc 6195 d8bd
00000320: b7ad c0bc 7fbb abbc c387 09bd 1868 cb3d
00000330: f548 d33d ddde 25be 4604 9b3d 45f1 8ebb
00000340: 3849 2bbe 83be c23d f5a3 1b3d e6a9 823d
00000350: 8414 30be 6b4a b1bd dd82 c63d 6348 3dbd
00000360: a647 93bc e841 6ebe 2639 9e3d d6a1 e63d
00000370: 2703 14be acf1 dabd 987e dcbd 0bcd 953d
00000380: 07df 6abc 0d48 f1bc 62f6 b9bc da07 7b3d
00000390: 111b 79bd 6996 8b3d e350 a53d 2b93 1a3e
000003a0: 2860 babd f85f 4abe edb0 14be 14c3 073e
000003b0: 0cac 1fbe d832 773c 18bb 393d 432c e23d
000003c0: 103d 223d 2415 f1bd cc7d bebd 5b90 cabc
000003d0: 6e41 c7bc 77fe 00be 088b 103e e270 d2bd
000003e0: 2479 143e 37fa d13a 7357 e83d 0101 f6bd
000003f0: a1a4 c23d e1bb 023e 9eff 95bd b7c2 8b3e
-0.16701035 0.13034831 0.15597731 0.027668845 0.04196904 -0.067785636 -0.16076814 -0.09228497
0.03729307 -0.010815319 0.13858819 -0.10664866 -0.1331584 0.02134552 -0.19362819 -0.11657323
0.0748794 0.03497529 -0.13938531 -0.12381924 0.041136894 0.14199154 -0.028170234 -0.11729271
-0.111783095 0.14383578 0.038709793 -0.119761854 0.1479686 -0.06767552 -0.059127655 -0.07773474
0.10497287 0.07737342 -0.0070093684 -0.2292622 0.08336744 -0.054495007 0.033996664 -0.1279108
-0.041196123 0.024671383 0.09248807 -0.19891782 -0.063386075 0.08739028 0.0047349543 0.16453226
0.044473864 -0.14530107 -0.0015016231 -0.32312635 -0.2447745 0.094367355 -0.04876856 -0.029777646
0.008880368 0.09997921 -0.090566 0.06403974 -0.06415756 -0.040993802 -0.08593303 0.01842552
0.116023906 -0.14975354 -0.12850931 -0.081521094 -0.14131379 0.032412674 -0.09557404 0.10146998
0.17758262 -0.13060237 0.07466438 -0.20835586 -0.13638103 -0.003905525 0.16141523 0.032116458
-0.104688354 -0.05616204 -0.002952654 -0.13625848 -0.12895392 0.07175598 -0.10003497 -0.010161795
0.13867015 0.117849134 0.1454703 0.11490122 -0.027137402 -0.15091793 -0.039512422 -0.12386197
-0.1417725 0.060702022 -0.15750325 0.0729879 0.040438298 -0.12457141 -0.07778089 -0.083313376
-0.0716056 0.06785678 -0.059033096 0.07715316 0.076392576 0.036491174 0.0941261 -0.09525275
0.03776422 0.08897587 0.06407595 -0.036544375 0.012243936 0.051885374 -0.10973118 -0.07834621
-0.16158496 -0.072210014 0.06772179 0.030226817 -0.030856084 -0.14153534 0.12963845 0.026999142
-0.10026329 -0.023498837 0.09219753 -0.042864382 -0.038941897 0.11294294 0.06116399 0.07545311
0.03414116 0.12187838 -0.04329317 -0.10925789 0.111681804 0.13103765 -0.042779874 -0.068001
0.04172847 0.12934534 -0.05550066 0.11090649 -0.24358022 -0.11491278 0.17567693 0.052738965
0.13426864 0.026520351 -0.11559074 -0.11463977 -0.017352026 -0.17214678 -0.14305256 0.27655563
0.13246891 -0.12137208 0.13698366 0.052051067 0.0022352529 -0.00039104334 0.0008327353 0.09641458
0.10169588 0.07328509 0.0318267 -0.09039229 -0.040897224 -0.0055933115 -0.055020746 -0.079722494
-0.2052481 -0.005469536 -0.24005589 0.08292826 0.00080414035 0.05270314 -0.0423291 -0.07348764
-0.08990587 -0.08546015 0.053771608 0.057273284 -0.11453699 -0.15398675 0.12258378 0.044440743
-0.06235439 -0.118289314 -0.03171184 0.016562851 0.09672295 0.014288701 -0.011388952 -0.10575367
-0.023520334 -0.020963429 -0.033576738 0.09931964 0.1031665 -0.16198297 0.075691745 -0.0043622577
-0.1672715 0.095089935 0.03799816 0.06380062 -0.17195326 -0.08656772 0.09692929 -0.04621161
-0.0179785 -0.23267329 0.07725744 0.112613365 -0.14454328 -0.106906265 -0.10766333 0.073144995
-0.0143354 -0.029453302 -0.022700492 0.061286785 -0.06081683 0.06815798 0.080720685 0.15095203
-0.091003716 -0.19763172 -0.14520617 0.1325801 -0.15592974 0.015087806 0.045344442 0.110435985
0.039609015 -0.117716104 -0.093013376 -0.024727037 -0.024323191 -0.1259707 0.14115536 -0.10275437
0.14499336 0.0016020004 0.113448046 -0.1201191 0.09504057 0.12766983 -0.07324146 0.27296993

arr_2 f4 [32]
00000000: 16c2 093e 2a04 193c 3f8c 2c3d 1fed 9a3d
00000010: d555 0ebb 8fe4 1e3d 3c49 fe3d 75c1 29bd
00000020: e58a 473d 63db 9fbd aab8 babb 6d13 203c
00000030: 2c79 18bd c402 76bd 5c6f 66bc 205f 653d
00000040: f328 39bd 80e0 023b f1f5 643d 60ab 95bd
00000050: 63d2 913b 37ff 853c dbfe e2bc 70dd c43d
00000060: 21ae 5fbd a4fc a3bc 0dc6 603d 7f6e 80bd
00000070: 2d05 7b3c 0e52 2b3e 988d 4b39 3faf 04bd
0.13452944 0.009339372 0.042125937 0.075647585 -0.002171864 0.03879219 0.12416312 -0.04144426
0.048716445 -0.078055166 -0.005698283 0.0097702565 -0.037224934 -0.06006123 -0.014064636 0.05599892
-0.045205068 0.0019970238 0.05589861 -0.07308078 0.004450129 0.016357047 -0.027709415 0.09612548
-0.05460942 -0.02001793 0.054876376 -0.062710755 0.015321058 0.1673052 0.00019412336 -0.03239369

arr_3 f4 [3, 3, 32, 64]
00000000: da30 b3bd 0967 223e ddb6 10be b519 f2bd
00000010: fe91 263d 8f83 3fbd 6fb8 87bc 5486 483d
00000020: 6e6b 0bbe e2a7 3e3e 159f 8b3d 64d5 41bd
00000030: f618 9bbd 1c23 c63c b067 3dbe 7d4b aebd
00000040: ac7f abbd a29a e5bc 21be 9ebb 6a36 09bd
00000050: d075 4abd b837 ebbd ef1d d4bc 1929 cb3d
00000060: 242d 94bd 26be 793d 525d a03d 4bc1 953d
00000070: 3c9c d0bd 4c63 4fbd 7ca4 a63c 6863 c6bd
00000080: 9d66 3abd ff0f 383d ead5 efbc 8c00 303e
00000090: 9e50 ec3d 990f 07be cb1b 07bc 3228 983b
000000a0: 9cb6 6abd d3c3 253d f144 95bb 2cf0 d4bd
000000b0: 63be 1b3d af1e f5bc ca4c 12bd da8d c5bb
000000c0: 565c 19be 38de 3ebd eaba 34be 1803 5abd
000000d0: a9fc 49be 3fc2 2e3e 2f66 d7bd 3394 d53d
000000e0: 7fc4 153d bed2 293e 2614 e6bb 6171 7ebd
000000f0: 5c1b 963e e9bf 433e 8e1a 393c fd3d 44bd
00000100: 741f 48be aedb 28bd 70b5 8f3d 154f b2bd
00000110: a395 c33c a0b0 e93b b985 2e3b 6e28 be3d
00000120: 88d9 e33d fa70 7abd 30a6 c4bc d1e2 853c
00000130: 397d 0fbd ba70 053e c41b 353a 655c cd3d
00000140: bb19 4e3d cef7 64bd 93dc c13c c191 8dbd
00000150: f805 4a3c 7dfc e3bd 7424 273e 491b 85bc
00000160: a3ec 623d ac1e b23d 444e a6bc b537 26bd
00000170: be4c 983d f664 8e3d 9ad2 dcbd 6c56 8abd
00000180: fd99 b13c 352a 89bd 4dba b0bd 6be3 b53b
00000190: 1ee4 873c 5e13 ecbd 1b7d 2f3d 4c44 23be
000001a0: 53e6 d63d 1726 b2bd 8939 1c3e 60d7 2e3e
000001b0: b221 dcbd c324 b8bc 272c 1b3d 8043 fa3d
000001c0: 0873 c6bc b075 80be 8dcd c23b 13c5 13bd
000001d0: ef57 23bd eea5 403d c4bf fbbd 8d33 dc3d
000001e0: c663 743d cb7c 99bd e6c6 8d3d 73f2 913c
000001f0: dcba 4cbd 9391 8f3d 0365 eabc fd16 1f3d
00000200: c927 07bb 1a27 b9bd 3777 7bbd 84f2 a83d
00000210: 8ae1 d93d 1466 cfbd adcd 583d 966f e5ba
00000220: c7b9 88bc cffb 913d 6c15 e73c bfa4 513d
00000230: 728e 143e ae90 e7bd f190 283d 9624 a4bd
00000240: e975 80bd 0ac4 663d a3bc 8f3d 2425 d73c
00000250: 360a 033e c40e 053e e852 043e f240 dc3c
00000260: eceb 7e3c aafa db3d 6c57 02be f364 703d
00000270: 804e 1ebb f982 20bc d85f 183d 90a3 adbd
00000280: 38f4 1bbe 1325 ec3d f3be f1bc 3e2e 123d
00000290: 9485 e53d 9837 e5bc 5cd3 03be dbdf 91bd
000002a0: 8aad f1bd d4f8 3e3e 840f 283e de1f bd3c
000002b0: ec23 dbbc 5e65 cd3c 2c90 1abd 17b0 ca3d
000002c0: 4b6a 0e3d 581d 9abd c658 153e 8c65 633d
000002d0: e034 1d3e ff09 c03d d9b7 82bb c96d 323d
000002e0: 4751 113e 090d 63bd b0f2 343d c70c eaba
000002f0: 4dec da3c 2b9b 56bb 15ae 81bd 967a 133d
00000300: 012a 9e3c b04d 943c dd12 1fbe 7edb a1bd
00000310: 2841 7cbd f51b 1fbd 2ef7 733c 0f9e b5bd
00000320: 4219 313d 352e 043e 4e59 e7bc 5e0f 8dbc
00000330: abf0 283a 8353 633c 7991 07be 77c5 57bd
00000340: 4d11 f3bc 6f91 473e 5c17 103e 1de6 77bd
00000350: f6dc f73d f60d a53d 9a90 273d 6831 c6bd
00000360: dd45 033d 2031 253d a3cd b5bd 4d19 d53c
00000370: 8895 7b3d 0827 afbd 2fb2 15bd 4314 b2bd
00000380: 2efc f0bd 7968 c73d ead4 0cbd ec50 9cbb
00000390: b02a 0bbe 9f4b 98bc 0ae9 c73b 2400 0abe
000003a0: 88e1 84bb 3c88 b43d c15f 823c eec2 13bd
000003b0: 409d 0a3c 5bd2 debc 857d 9bbc ec9b 35bd
000003c0: fbf5 203d 9466 6c3d f138 e0bc fef4 b4bd
000003d0: 954c 0c3e 7f8d 08bd def7 3a3b 24e3 b23d
000003e0: 47f9 103e 69f2 9cbd e3c1 8ebd 62de 243d
000003f0: 60a3 7c3d c1ac 21be 1fd3 3d3e 5934 903d
-0.08749552 0.15859617 -0.14132257 -0.118213095 0.040666573 -0.046756323 -0.016567437 0.04895623
-0.136152 0.1861873 0.06817452 -0.047322646 -0.0757312 0.024186663 -0.18496585 -0.08510492
-0.08373961 -0.028027836 -0.0048444425 -0.03349916 -0.04942876 -0.11485237 -0.02589318 0.09919948
-0.072351724 0.060972355 0.078302994 0.07312258 -0.10186049 -0.050631806 0.020342104 -0.09686929
-0.045508016 0.04493713 -0.029276807 0.17187709 0.11538814 -0.13189544 -0.008246372 0.0046434635
-0.057303056 0.040469956 -0.0045553376 -0.10397372 0.038023364 -0.029921858 -0.035717763 -0.006028873
-0.1497663 -0.046598643 -0.17649427 -0.053225607 -0.19725288 0.17066287 -0.10517537 0.104286574
0.036564346 0.16584298 -0.007021445 -0.062119845 0.2931775 0.19116177 0.011297835 -0.04791068
-0.19543248 -0.041225128 0.07017028 -0.0870649 0.023875063 0.007131651 0.0026629998 0.09285055
0.11125475 -0.0611429 -0.024005026 0.016343506 -0.03503153 0.13031283 0.00069087395 0.100273885
0.050317507 -0.055900387 0.023664748 -0.06912566 0.012330525 -0.11132143 0.163225 -0.016248362
0.055401456 0.086972564 -0.020300992 -0.04058047 0.074365124 0.069528505 -0.107823566 -0.06754765
0.021679873 -0.066975035 -0.08629284 0.005550792 0.016588267 -0.115271315 0.04284392 -0.15944022
0.104931496 -0.08698671 0.15256323 0.17074347 -0.10748614 -0.022478467 0.037883904 0.12219906
-0.024224773 -0.25089788 0.0059449137 -0.036076616 -0.039878782 0.047033243 -0.12292436 0.1075202
0.059665464 -0.074945055 0.069227025 0.017815804 -0.04998289 0.07010188 -0.02861262 0.038840283
-0.002062308 -0.09040661 -0.06139299 0.08249381 0.10638721 -0.10126892 0.052930523 -0.0017504569
-0.016690148 0.07128107 0.028208457 0.051182505 0.14507464 -0.11306892 0.041153852 -0.08014791
-0.062724896 0.0563393 0.070184015 0.026262827 0.12796864 0.12993914 0.12922251 0.026886437
0.015559178 0.1074117 -0.12728661 0.058690023 -0.0024155676 -0.009796851 0.03720078 -0.08478463
-0.15229881 0.11530509 -0.029509997 0.03568863 0.11207119 -0.02798061 -0.12873596 -0.07122775
-0.11800678 0.18649608 0.16412169 0.023086485 -0.026750527 0.02507275 -0.03773515 0.09896868
0.034769338 -0.07525128 0.14584646 0.055516765 0.15352201 0.093769066 -0.0039892015 0.04356173
0.14191161 -0.055432353 0.044176757 -0.0017856591 0.026724005 -0.0032746296 -0.06332032 0.03600558
0.019307138 0.01810345 -0.1553454 -0.07903193 -0.061585575 -0.03884502 0.014890475 -0.08868038
0.04323698 0.12908252 -0.028240826 -0.017219242 0.0006444554 0.013874891 -0.13239087 -0.05267855
-0.029671336 0.19489072 0.14071411 -0.060522188 0.12102692 0.080593035 0.040909387 -0.09677392
0.03204905 0.040330052 -0.08877113 0.02601304 0.0614219 -0.085523665 -0.036546882 -0.08695271
-0.117668495 0.097367235 -0.03438274 -0.004770389 -0.13590503 -0.018590746 0.0061007785 -0.13476616
-0.0040552057 0.08815047 0.0159148 -0.03607457 0.008460343 -0.027199915 -0.01898075 -0.04433815
0.039297085 0.057715014 -0.027370902 -0.08835791 0.13701089 -0.033338066 0.0028529088 0.0873473
0.14157592 -0.076634236 -0.06970575 0.040251143 0.061679244 -0.15788557 0.18537568 0.070412345

arr_4 f4 [64]
00000000: 8677 ad39 b5b2 4d3d f52e 74bd 9194 01bc
00000010: 8a14 eabc d5df 80bc 32f4 82bd 1aac e73b
00000020: 5945 35bb 7dad 183d e197 bc3d 2070 6cbc
00000030: 99e3 94bc b457 2f3d f7f0 6b3d a255 05bd
00000040: 57f4 92bc a997 ad3c b8e2 053d 31dc b13c
00000050: 0456 13bd 1e3a a23a 6d98 923c 229c 993b
00000060: 4ec2 a6bc 4e39 1d3d 1b36 143d 16db 873d
00000070: 2690 06bd 8707 81bd ef75 8ebd ead4 37bc
00000080: b364 1e3d 9fc7 b9bc c2a1 03be 4e78 cfbc
00000090: 4d80 c43d 3c93 753b eac8 ab3b 4276 953b
000000a0: ff9c 9abc 1500 d6bd 0f3f e13b 05b7 e3bc
000000b0: e0dd 96bd 925b dbbc b949 d7bc 911e be3c
000000c0: 7432 6f3b a4dd 53bd bc3f a63c 1b3e 0dbe
000000d0: acb8 a93b 10f9 dd3b d031 83bb d623 c13c
000000e0: 4b69 2f3e f17a 77bc d559 bdbd 3780 f3bd
000000f0: 7bba 713c 9518 e9bc e861 3cbd 4ba4 963a
0.00033086183 0.050219256 -0.059615094 -0.007908956 -0.028574247 -0.015731731 -0.06394233 0.0070700767
-0.0027659743 0.037274826 0.09208656 -0.01443103 -0.018174933 0.04280825 0.05760285 -0.03255237
-0.017938776 0.021190481 0.03268692 0.02171144 -0.035970703 0.0012376939 0.017894948 0.004687802
-0.020356324 0.038384728 0.03618441 0.06633584 -0.032852314 -0.06300264 -0.06956088 -0.011220196
0.038670253 -0.022678195 -0.12854674 -0.02532592 0.09594784 0.0037471792 0.0052424567 0.0045612166
-0.01887369 -0.104492344 0.0068739722 -0.027797231 -0.07366538 -0.026777063 -0.02628027 0.023207935
0.0036498578 -0.051725045 0.020294063 -0.13793223 0.0051794853 0.0067740753 -0.004003741 0.023576658
0.1713001 -0.015104995 -0.0924565 -0.118896894 0.014753933 -0.028454104 -0.04599181 0.0011493055

arr_5 f4 [3, 3, 64, 128]
00000000: 6d84 77bd 2319 64be b9df 1dbc 91a3 a13d
00000010: 9b65 afbd 813d 813d dc64 223d 1ce2 923d
00000020: 38c8 0abe 4bad f6bc 14c1 043d ccb6 d1bd
00000030: 1566 10be fd70 fa3d 9bfd 10bd ba81 43be
00000040: e688 b2bc bee0 efbd c240 ebbd 14e9 033e
00000050: 9b01 0dbd fd16 50be 7997 2f3d d60b ad3d
00000060: 746f 4eba 45af db3c 1a17 1e3b 35cd 3a3d
00000070: 8989 adbd 08cd 90bd 4659 babb aa0e b6ba
00000080: 5eea f4bc fa8a 1bbd bc14 43bb 6c25 45bd
00000090: 42bb 1cbe 52ca 1f3d 9ec9 56bc 7373 7cbd
000000a0: fb3f e43c 7aba babb f43d a03d 4e14 1a3d
000000b0: 4baa 4cbd 4cb3 74bc cfd6 45bc 2bdd 453c
000000c0: 3e46 b9bd a88d d73d f6e3 dd3b 0c34 98bd
000000d0: 9254 81bd dae2 883b 1a73 a83d 13a6 42bd
000000e0: 8c87 21bb 6e47 15bd d19b aebc b709 9ebd
000000f0: 8031 e4bc 5693 a9bd cef4 f1bc 3ba1 2f3d
00000100: cea9 90bd a642 05bd b9b8 05bc 0fe6 023d
00000110: 029f 2c3d 816d f63c 5aed 97bc f318 8dbd
00000120: 27d6 333d 45ef 0a3d 2345 41bb 34bf d63d
00000130: c5e9 16bd 0853 6f3d 0834 b1bd 75c1 073e
00000140: f10e 9d3d 6f0f 7d3b 3ac9 97bd 2cb0 00be
00000150: 5afe 2ebd 5acf 85bd de9c 903d b4b4 b13d
00000160: 88f4 8a3d 422d 42bd 6f82 153d 429a 813c
00000170: c167 d83d 96f8 83bd 0af9 b7bc 6948 02be
00000180: cd1a 873d c4b5 6a3d b63a cb3d ec8b ebbc
00000190: 7fab 2a3d 2b2b 72bd c7db 003d c32f 7ebc
000001a0: fd0c 2dbc 4cd2 00bd 180b eabd f6fd 4dbd
000001b0: 3926 8c3d 0278 213e 3b96 0a3d bcc4 4d3d
000001c0: ff84 64bc 05fc 0cbd f9f7 d7bc 5a80 373d
000001d0: a5ad 473d cbe4 37be 682e 3cbc c691 e4bc
000001e0: 1f77 4dbd c41c d5bd c42b 2a3e 8bd0 76bd
000001f0: bcc4 363d 729a eb3d 375f c2bb 7222 bb3d
00000200: d636 fd3c 7f36 0e3b 3a94 873d 84ab 863b
00000210: 4725 b33d 9117 90bc a010 dd3c 0cd4 e7bd
00000220: 8fde 9ebc c533 83bd 9925 803d 676a 973d
00000230: dfa8 aebd 743d a73c 888a e4bc f117 d93d
00000240: 4a21 c5bc 1188 5a3d 00c0 d6bc 2fc4 e4bd
00000250: 8998 ae3d e155 9d3d abe8 55bd b9ab eebd
00000260: 7b22 b6bc 1751 0b3c 8798 0cbe 1731 1cbe
00000270: 0247 cf3d f228 4d3b 3427 76bd 211b a4bd
00000280: 2887 2cbe 39d4 1f3d 9bf5 a03d 8edf d1bd
00000290: 7f54 123d 26e4 d9bd ffb9 8f3d 0793 1f3c
000002a0: 9913 a3bc a0c2 61bd ab40 35bc a055 f43c
000002b0: 7a7d bfbd 9661 953d 3529 4fbd ee28 853d
000002c0: bc5c ae3d 51ba b3bc e68a a83c 56c2 e6bc
000002d0: 6579 2cbd 22bd 313a 9f0a 39bd 975c 80bd
000002e0: 48c1 153d 0516 aabd 685d 0f3d 877e e5bc
000002f0: f29b ef3c b47d 793d d786 fcbd f9cd 7bbd
00000300: 475f 8bbc 51a5 99bd 2fcb 6cbc 04ab 4a3c
00000310: 064f 04be 21d1 583c cd9e cc3d 3a83 8f3d
00000320: b3b9 0ebe 59aa 66bd a219 d5bd be94 aebd
00000330: 3e60 0fbd cb7c aebb b450 043d 921b 3bbc
00000340: 52f0 8f3d 3f98 9d3d fd6a 66bc 9157 bfbc
00000350: f8ca 553d 0490 80bd f2db 42bd f5cb 98bb
00000360: d0a5 8f3d 7727 6cbd 01f1 cf3c 3cb0 453d
00000370: 417f 733d 2a0b 083b 3b9c 143c e0ca 1fbd
00000380: 7b3d c4bb bce4 823d 3f33 2cbd 2864 b53c
00000390: 1722 6b3d 75a3 9fbb 91b7 b9ba ee03 b53d
000003a0: ab98 963c 65f6 adbc f6fc 1f3d 8f75 043c
000003b0: b5d6 18be 3ede 8abc d5e1 e53c 0fc0 f5bc
000003c0: e2f5 ebbd d39a 19bd d354 03bd 14d6 2e3d
000003d0: 0acf 803d c5c1 153d 593d f53a 5594 e33c
000003e0: 5a01 d3bd 6c21 9f3b c8e2 863b 6683 c23c
000003f0: 6c26 d53c db8c 8ebc a8c4 c4bd d6ad 97bd
-0.060429025 -0.22275214 -0.009635859 0.07892526 -0.085643016 0.06310559 0.03964697 0.07172033
-0.1355294 -0.03011193 0.032410696 -0.10239944 -0.14101441 0.12228582 -0.035398107 -0.19092456
-0.021793794 -0.11712788 -0.11486961 0.12881881 -0.03442536 -0.2032127 0.042869065 0.08449523
-0.0007874884 0.026816973 0.0024122656 0.045605857 -0.084734984 -0.070703566 -0.0056869118 -0.0013889868
-0.029896911 -0.037974335 -0.0029766997 -0.04813139 -0.15305808 0.039011307 -0.013109593 -0.06163354
0.02786254 -0.0056984993 0.078243166 0.03761702 -0.04996709 -0.014935326 -0.01207514 0.012076656
-0.09046601 0.10525066 0.00677156 -0.07431802 -0.06314959 0.0041774334 0.08225079 -0.047521662
-0.0024647443 -0.036445074 -0.021314533 -0.07716697 -0.027855635 -0.08280055 -0.029535677 0.04287837
-0.07063638 -0.032534264 -0.008161717 0.031957682 0.04214383 0.030081512 -0.018545795 -0.06889524
0.043905403 0.03391959 -0.0029490672 0.10485688 -0.036844034 0.058428794 -0.08652502 0.13257392
0.076688655 0.0038613935 -0.07411428 -0.12567204 -0.042723037 -0.0653369 0.0706117 0.086770445
0.06784922 -0.047406442 0.036501344 0.015820626 0.105666645 -0.064438984 -0.022457618 -0.12722935
0.06596909 0.05730225 0.099233076 -0.028753243 0.041667458 -0.0591232 0.031459596 -0.015514317
-0.010562179 -0.031450555 -0.11427897 -0.050291024 0.06843228 0.15768436 0.033834677 0.05023645
-0.013947724 -0.034420032 -0.02636336 0.04480014 0.048749585 -0.17958371 -0.0114856735 -0.027901541
-0.05016243 -0.10405877 0.16618258 -0.060257476 0.044621214 0.115040675 -0.0059317607 0.09137429
0.030909937 0.0021699963 0.06620069 0.0041098017 0.087473445 -0.017589362 0.026985466 -0.113197416
-0.019393234 -0.06406359 0.06257171 0.073933415 -0.08528303 0.020415045 -0.027898088 0.106002696
-0.024063725 0.05335242 -0.0262146 -0.111702316 0.085251875 0.07682396 -0.052223843 -0.11653847
-0.022233238 0.00850322 -0.1373006 -0.15253101 0.101209655 0.0031304923 -0.06009598 -0.08012987
-0.16848433 0.03902075 0.078593455 -0.10247718 0.035725113 -0.10639219 0.07017898 0.009739644
-0.019906806 -0.05511725 -0.011062781 0.029825985 -0.09350105 0.07294004 -0.050576407 0.06501947
0.085137814 -0.021939429 0.020574044 -0.028168838 -0.04210796 0.0006780197 -0.045176145 -0.0626766
0.03656128 -0.08304981 0.03500119 -0.028014435 0.029249165 0.060910895 -0.12330406 -0.061475728
-0.017013205 -0.07502235 -0.01445274 0.012369875 -0.1292077 0.013233454 0.09991226 0.07007451
-0.13938026 -0.0563148 -0.1040528 -0.08524464 -0.035003893 -0.005324935 0.032303527 -0.0114201475
0.07028259 0.07695054 -0.014063594 -0.023357185 0.05219552 -0.06277469 -0.047573037 -0.0046629854
0.07014048 -0.057654824 0.025383474 0.048263773 0.05944753 0.0020758607 0.009070451 -0.039011836
-0.0059887744 0.06391284 -0.04204106 0.022142485 0.057405557 -0.0048717805 -0.0014169087 0.0883864
0.018383345 -0.021235654 0.0390596 0.008084669 -0.14925654 -0.016951676 0.028061787 -0.029998807
-0.11521508 -0.037501168 -0.032063317 0.04268463 0.062894896 0.036561746 0.00187103 0.027780691
-0.10302992 0.004856279 0.00411639 0.023744296 0.026019298 -0.01740115 -0.09607822 -0.074062034

arr_6 f4 [128]
00000000: 4a66 ccbd 1130 11bd 1683 83bd 05a8 babd
00000010: bf87 afbc f8d5 1a3b 5e20 59bc 705d 87bc
00000020: 8759 b8bc ba59 d2bc f8b2 16bd db17 c5bc
00000030: 6e5c 9dbd caf5 a8bd c400 ddbc 3fc7 13bd
00000040: 4729 223d 8b8d dabc e268 51bc 4dce 94bc
00000050: 3712 ebbd 2638 14bd 9287 ccbc d56c 83bd
00000060: c9f1 bebc 47c8 82bc 95f2 b3bd 20e6 d6bc
00000070: ebbe 87bd 4da0 85bd 9bdb 14bd f27c c7bd
00000080: 1983 8fbd 23e1 56bd c4f3 e03c 2b1c 99bd
00000090: 0fd9 6ebc e901 8fbc f4c0 8abc d6cf ffbc
000000a0: 7c96 1dbd dc1f 70bc 3294 97bc d138 2a3c
000000b0: 27ae 20bd ae8b 9abc 1178 90bd 3e78 89bd
000000c0: d677 70bd 81be 74bd 0ad4 fbbc f302 82bd
000000d0: 0acc b4bc d786 29bd 8cca eabc 428d 8dbc
000000e0: bf1d 19bc 4f17 a2bc f730 6dbd accc 4ebd
000000f0: 00b5 5cbc 3c52 35bd 51f2 b7bc 3f66 3dbd
00000100: 832e 06bd 5ad2 d5bc f8c3 0ebc cf68 2fbd
00000110: fb6f 11bd 9955 31bc 60de c43b adaf 1dbd
00000120: 7c97 4bbd 323d 9fbc 193e 11bd f623 c4bd
00000130: 08d2 a4bc 1750 64bd 08b9 a8bd 5ef4 c5bd
00000140: 5fcf 88bd 16fb 8fbd faa6 4cbd c291 55bd
00000150: f8f1 b1bd f863 babb 6a0e 80bd cae7 d9bb
00000160: ca4f 54bd 6b06 51bd d5c6 30bc 151f 13bd
00000170: 0232 19bd 7963 23bd 9a94 d2bc c512 98bd
00000180: e02a a8bd f349 c1bb e304 2abd 55df d8bd
00000190: 6f56 a9bd 313a 6fbc 191c 86bd 572a fbbc
000001a0: dc8e 04bd bf4e 8fbc 0ea9 6abd e6f8 a5bc
000001b0: 96c0 6abd 942d 683b 8ddd 45bd 29d1 98bc
000001c0: dd92 38bd ab87 8abd f84a 80bc 4f30 80bd
000001d0: 1cfc 95bd b3dc 90bc a721 25bd 9b77 f0bc
000001e0: 7153 1ebd c197 223c aeda 2ebd 59cc 50bd
000001f0: 1b67 debb b974 2bbd f4c1 b8bc aaf2 88bd
-0.099804476 -0.03544623 -0.06421487 -0.091140784 -0.021427033 0.002362607 -0.013252346 -0.016524047
-0.022503627 -0.02567755 -0.03679177 -0.024059227 -0.07683645 -0.082500055 -0.026977904 -0.036078688
0.039590146 -0.026678821 -0.012781354 -0.018164778 -0.114780836 -0.03618636 -0.024966989 -0.064172424
-0.023308652 -0.01596464 -0.08786503 -0.026232779 -0.066282116 -0.065247156 -0.036342245 -0.09740628
-0.07007427 -0.0524608 0.027459987 -0.07476076 -0.014578118 -0.017456966 -0.01693771 -0.031227034
-0.03847359 -0.014656033 -0.018503282 0.010389523 -0.039228585 -0.018865433 -0.07054151 -0.067123875
-0.058708034 -0.05975199 -0.030740757 -0.06348219 -0.02206995 -0.04138836 -0.028661035 -0.017279271
-0.009345471 -0.019786505 -0.057908025 -0.05048816 -0.013470888 -0.044267878 -0.022454413 -0.046240088
-0.0327592 -0.02610128 -0.008713715 -0.042824563 -0.035507184 -0.010823631 0.0060079545 -0.038497616
-0.049705014 -0.01943836 -0.03545961 -0.095771715 -0.020119682 -0.055740442 -0.08238417 -0.0966575
-0.06680178 -0.07030313 -0.04996393 -0.05214096 -0.0868873 -0.0056881867 -0.06252749 -0.006649946
-0.051833905 -0.05103151 -0.010789593 -0.035918314 -0.037401207 -0.039889786 -0.025705624 -0.07425455
-0.08211303 -0.005898708 -0.041508567 -0.10589472 -0.08268439 -0.014601276 -0.06548328 -0.030659838
-0.032362804 -0.017493604 -0.05729013 -0.020260286 -0.05731257 0.0035427557 -0.04830699 -0.018654423
-0.045061935 -0.06764158 -0.015660748 -0.06259214 -0.07323477 -0.017683363 -0.040315297 -0.029353907
-0.038653795 0.009923876 -0.042689018 -0.05097613 -0.0067871935 -0.041859362 -0.022553422 -0.066869095

arr_7 f4 [3200, 10]
00000000: 1ba4 e73a 6f6e 9cbe fbfd a1be 23db 7bbe
00000010: cab5 74be c566 7bbe 80b5 3fbd 247e 80be
00000020: 0a95 b8be d128 6cbe 263d 40be 0934 43be
00000030: 0f4a 12be 6c2b 05bd 24d8 cdbe 6726 bdbe
00000040: 1516 babd c4c6 90be 1799 70bd c2ff bfbe
00000050: f0ae 64be 2810 04bf 1faa 1ebf 1bf9 a3be
00000060: db04 ebbe 9eb2 1dbf f219 633e 95ca 14bf
00000070: 9b32 233e 8090 4cbf c854 04be d75e 31be
00000080: 8e90 9ebd 833d 31be de09 f5bc fe99 3cbe
00000090: 5b75 90be 484b 13be 73ab 963d 9fe2 b1bd
000000a0: 5827 39be 16e4 87be 4e60 07bf ccdd c4be
000000b0: 11ef a6be 7b75 cebe 5740 4ebe 5a1e acbe
000000c0: 002d f6bc 46ac 8ebe 2198 47be 94f2 55be
000000d0: 1040 d0be a195 f6bd 7dcb fdbe 223e 0cbe
000000e0: 017b 0dbe 71e7 0abe 85ba 953d 4740 81bd
000000f0: af1c 703b 9641 8ebe 9774 cdbe 28cf 22be
00000100: 9901 66be e2ab e1be 30a7 14be b071 f3be
00000110: 209b 6b3d a0e8 abbe ab7a 1abe de93 a8be
00000120: efa7 43bc 4f71 48be 6035 7dbc 8e60 f0be
00000130: 0f02 62bd 1534 04bf e762 4a3c f165 acbe
00000140: 3c01 e9bd f06a 35bd 9f9e d6be a141 143d
00000150: d4c7 3cbe 02bf 34be 754c 9fbd 457f 82be
00000160: f674 fdbd 0703 5fbe 07f3 c8bc 2435 aabd
00000170: 37cc 85bc 0d3b a4bd 101e 27bd 5f1b f6bd
00000180: 3a94 923c e153 cdbc 7aee a3bb dc55 b8bd
00000190: 297f 5b3d 4568 2bbe 03e2 dfbd 3751 74bd
000001a0: 57e6 7c3d 98db f8be e254 39be 2029 1fbf
000001b0: 5c9b 3cbe ffe4 edbe 1ef4 633e 8e56 a3bd
000001c0: 1b5e e9bd c2e2 27bd 21b0 9bbd 3a31 adbe
000001d0: b6a2 8bbe 6173 71be acd4 98bd da89 f6be
000001e0: f287 10be b48a b4be 9b56 08bf c09c 56bd
000001f0: 59ad b5be a55f fcbe 1da9 3f3d c4ed afbe
00000200: d326 2c3e 5750 01bf 9353 513e e700 edbe
00000210: de88 16bf 0f25 03bf dd89 49be e37d 23bf
00000220: 0aad 80be 3309 47bf e19d 69bd f678 46bf
00000230: 1a11 fdbd fc35 30bd 33e8 e7bd 3ec8 cfbe
00000240: b8c9 fdbe 4b3a e1be 9a80 0abd 1a60 c4be
00000250: d448 ecbc 30b2 0fbf 9838 e13c 0b2b 15be
00000260: 8949 0ebf d08e 35be b89b 13bf b781 ddbe
00000270: 74b3 4bbe e222 99be 9d37 073d aee9 0cbf
00000280: a553 8f3d d83b f3bd cb97 53be d61f 83bd
00000290: 651f fdbc ba15 c2be dcd4 b5bb 6a32 4bbf
000002a0: 4d85 613c c192 88be 6e14 ab3d c317 c5be
000002b0: 90dc 883c f453 47bc 51ac db3c aea4 81bf
000002c0: 5755 c2bd f055 9ebf fc12 423d ec7b 91bf
000002d0: c5e8 06bd c16d e0bd 0d35 d13c 4d17 abbe
000002e0: 6124 80bd e3fe adbe a0b3 98bd ca6f a5be
000002f0: 28f2 56bd 3ea8 ebbe e8de 59be 6a60 b6be
00000300: 4ca4 edbd 98df c13d f4e6 273e 1cbc 8fbe
00000310: c7e1 a6be fe2a 12bf a954 e4bd 96ad e9be
00000320: c424 3ebe 15da 5abe aee3 373d 7eb9 26be
00000330: aca5 b53d 6250 0bbf 7a3f 08be 1aaf 24bf
00000340: 1e36 013d a956 57be 5b6b a83d 3d61 cebc
00000350: d994 153d 536b 53be 3a7b 1a3d 680a e7bd
00000360: b246 3bbd 29d0 86bd f186 11be 5134 56be
00000370: 2a3e 8b3d b502 d3bc 41a1 c53d c0fc 1dbe
00000380: e97e 2abd 499a 08bf 9856 f0bd 17a1 dfbe
00000390: 5acb e1bd 6bce f6be 46cd 9ebe 887d 6dbe
000003a0: 086e 80be 8713 673e 6619 ac3d b6fb e2be
000003b0: e23c 86be ee82 27bf 7d06 92bd 045a c2be
000003c0: ef29 193c 54c4 d53b 7c55 d4bb 86c7 013d
000003d0: 0f81 25bc 4a12 97be 23ef 073d 12d4 48be
000003e0: 6798 453d 4796 66be d1fb fbbc 07bb 67bd
000003f0: aeba 52bc e650 3b3d b72e 953c 493a 92bd
0.0017672809 -0.30553004 -0.31639084 -0.24595313 -0.23897472 -0.24550922 -0.04680395 -0.25096238
-0.36051208 -0.23062445 -0.18773326 -0.19062819 -0.14286064 -0.032512113 -0.40203965 -0.3694336
-0.09086243 -0.28276646 -0.058739748 -0.37499815 -0.22332358 -0.5158715 -0.61978334 -0.3202599
-0.45902142 -0.61600673 0.22177866 -0.58121616 0.15937273 -0.7990799 -0.12922966 -0.17321335
-0.07742415 -0.17308621 -0.029911932 -0.18418118 -0.28214535 -0.14384186 0.0735692 -0.08685803
-0.18081415 -0.26541203 -0.52881324 -0.38450468 -0.32604268 -0.40324005 -0.20141731 -0.33616906
-0.030050755 -0.2786581 -0.19491626 -0.20893317 -0.40673876 -0.12040258 -0.49569312 -0.13695577
-0.13816454 -0.1356485 0.073109664 -0.06311088 0.003663819 -0.27784413 -0.40128013 -0.15899336
-0.22461547 -0.4407645 -0.14516902 -0.47547674 0.057520986 -0.33575916 -0.15085857 -0.32925314
-0.011941894 -0.19574474 -0.01545462 -0.46948665 -0.055177744 -0.5164197 0.012352682 -0.33671525
-0.113771886 -0.044291437 -0.41917893 0.0361954 -0.18435603 -0.17650989 -0.07778255 -0.25487724
-0.12375824 -0.21778499 -0.024529947 -0.08310917 -0.016332729 -0.080190755 -0.040800154 -0.12016939
0.017892946 -0.02506441 -0.005002794 -0.090007514 0.053588066 -0.16738994 -0.1093178 -0.059647765
0.061743107 -0.48605037 -0.18098786 -0.62172127 -0.1841864 -0.46463773 0.22261092 -0.07975493
-0.11394902 -0.040987737 -0.07601953 -0.3382662 -0.27272576 -0.2357917 -0.07462439 -0.48152047
-0.14114359 -0.35262072 -0.5325715 -0.052395582 -0.35483816 -0.4929172 0.04679214 -0.34361088
0.16811685 -0.50513214 0.20442037 -0.4628975 -0.5880259 -0.5122842 -0.19681497 -0.6386396
-0.25132018 -0.7774841 -0.05703533 -0.7752832 -0.123567775 -0.043020234 -0.11323585 -0.4058246
-0.49567962 -0.43989787 -0.03381405 -0.3835457 -0.02884332 -0.5613127 0.027492806 -0.14567201
-0.55580956 -0.1773026 -0.5765948 -0.43263027 -0.19892675 -0.29909426 0.03301202 -0.55044067
0.06998376 -0.11876649 -0.20663373 -0.064025566 -0.03089876 -0.379072 -0.0055490565 -0.793738
0.013764692 -0.26674464 0.08353506 -0.3849469 0.016706735 -0.012166012 0.026815565 -1.0128381
-0.094889335 -1.2369976 0.047381386 -1.1365943 -0.03293683 -0.10958434 0.025537992 -0.33416215
-0.06256939 -0.33983526 -0.07456136 -0.3231185 -0.052477032 -0.46026796 -0.21276438 -0.35620433
-0.11603603 0.09466475 0.16396695 -0.28073204 -0.3259413 -0.5709685 -0.1114896 -0.45640248
-0.18568712 -0.21372254 0.044894867 -0.16281697 0.0886949 -0.5441953 -0.13305464 -0.64329684
0.03154575 -0.21029152 0.082236014 -0.025192851 0.036518905 -0.2064641 0.037715174 -0.11281282
-0.045721717 -0.06582672 -0.14211632 -0.20918395 0.06798966 -0.025758127 0.09649897 -0.15428448
-0.041624937 -0.5336042 -0.117352664 -0.4367759 -0.11025114 -0.4820436 -0.31015986 -0.23192418
-0.25083947 0.22566043 0.08403282 -0.44332665 -0.26218325 -0.6543416 -0.07130144 -0.379593
0.009348377 0.0065236483 -0.006479917 0.03168442 -0.010101571 -0.2950614 0.033187043 -0.19612148
0.048241045 -0.22518264 -0.030759724 -0.056574848 -0.012861891 0.045731448 0.018210752 -0.07140023

arr_8 f4 [10]
00000000: cae4 8dbd 09d2 873e fe62 91bc 2802 0ebc
00000010: 5c3f 6cbc 60b8 a139 e3ea c93b a996 d73c
00000020: 28e1 813e c5b7 aabc
-0.06928404 0.26527432 -0.017747398 -0.008667506 -0.014419403 0.00030845683 0.006162034 0.026316958
0.25367093 -0.020839581
