Exercises/fashion-mnist/params/fashion-mnist_params_dropout_old.npz (npz, 556725 bytes, 9 tensors)

arr_0 f4 [34048]
000000 e5 06 6c 3f fd 50 61 3f 09 bc 8f 3f 8b f2 8c 3f
       0.9219802 0.88014203 1.1229259 1.1011518
000010 bf bf 84 3f 53 95 8f 3f 8f 7b 6d 3f a3 ab 96 3f
       1.0371016 1.1217445 0.9276666 1.1771129
000020 23 e4 64 3f 34 67 80 3f f1 71 84 3f d8 d6 85 3f
       0.8941061 1.0031495 1.0347272 1.045619
000030 35 0e 5f 3f d4 4d 72 3f e8 36 75 3f fd eb 73 3f
       0.87131053 0.94650006 0.95786905 0.95281965
000040 ab 5c 8f 3f e2 15 8d 3f 43 2b 85 3f d3 8c 7c 3f
       1.1200155 1.1022303 1.0403827 0.9865238
000050 b2 56 87 3f 53 44 84 3f 90 dd 64 3f 3c ce 7e 3f
       1.0573332 1.0333351 0.8940058 0.9953344
000060 73 4b 6a 3f 80 68 89 3f 0d a7 52 3f 2d 17 62 3f
       0.91521376 1.0735016 0.8228615 0.88316613
000070 83 04 8f 3f b1 68 6f 3f aa 07 85 3f 48 d4 83 3f
       1.1173252 0.9351912 1.0392964 1.0299158
000080 67 e4 5c 3f 5c 08 98 3f 2e c1 85 3f 28 dd 82 3f
       0.86286014 1.1877551 1.0449579 1.0223742
000090 8d 93 88 3f 11 a4 58 3f 8b 54 82 3f 05 44 75 3f
       1.0670029 0.84625345 1.018205 0.95806915
0000a0 81 99 81 3f 09 af 72 3f e9 ae 8f 3f b6 a0 5e 3f
       1.0124971 0.9479833 1.1225253 0.86963975
0000b0 f4 23 8b 3f 10 7e 84 3f 29 4b 87 3f bc e5 8a 3f
       1.0870347 1.0350971 1.0569812 1.0851359
0000c0 9f 89 54 3f 16 64 7f 3f dc 1d 80 3f 8c 73 7e 3f
       0.83022493 0.99762094 1.0009112 0.9939506
0000d0 a7 16 7d 3f 09 50 6a 3f 6b 79 8b 3f 50 c9 86 3f
       0.9886269 0.91528374 1.0896429 1.0530186
0000e0 26 e7 86 3f fd a6 85 3f 02 55 7b 3f c2 74 78 3f
       1.0539291 1.0441586 0.98176587 0.9705316
0000f0 73 01 63 3f c0 e7 77 3f c8 04 5d 3f 53 fb 8e 3f
       0.88674086 0.96838 0.8633542 1.1170448
000100 7d ab 7e 3f e0 4e 82 3f 4f 51 78 3f 9c 9a 7f 3f
       0.9948042 1.0180321 0.9699907 0.9984529
000110 fe df 8c 3f fa d7 81 3f 05 5c 7e 3f 68 8a 69 3f
       1.1005857 1.0144036 0.9935916 0.91226816
000120 a5 f6 86 3f 48 3f 80 3f b3 b5 87 3f fc aa 51 3f
       1.054402 1.0019312 1.0602325 0.81901526
000130 bb 51 86 3f 61 ae 7c 3f 86 39 59 3f 07 c2 8b 3f
       1.0493692 0.9870358 0.848534 1.0918587
000140 5b 87 8c 3f 50 12 6f 3f cc da 82 3f fd d2 87 3f
       1.0978807 0.9338732 1.0223022 1.0611264
000150 a9 24 70 3f cd 36 84 3f 80 a7 77 3f bf a8 8d 3f
       0.9380594 1.0329224 0.9673996 1.1067122
000160 f5 3e 84 3f 7b 7e 62 3f c4 77 44 3f c5 c4 73 3f
       1.0331713 0.88474244 0.7674525 0.9522212
000170 9b 6a 6c 3f 28 fc 91 3f 05 ae 7a 3f ae 31 76 3f
       0.9235017 1.1405077 0.9792178 0.96169555
000180 47 90 87 3f e4 16 9a 3f e0 e3 73 3f 5e 89 78 3f
       1.0590905 1.2038236 0.95269585 0.97084606
000190 d7 15 89 3f a7 d1 88 3f a2 79 6d 3f c1 73 83 3f
       1.070979 1.0688981 0.9276372 1.02697
0001a0 ab 6f 8c 3f 77 1d 48 3f 9d a2 5c 3f de b9 5a 3f
       1.0971578 0.7816996 0.8618563 0.8543986
0001b0 92 f1 70 3f 72 8a 80 3f a6 0f 71 3f fe 36 75 3f
       0.9411861 1.004225 0.941645 0.95787036
0001c0 6a cd 78 3f c7 8f 72 3f c7 85 87 3f 6b 22 8a 3f
       0.97188437 0.94750637 1.0587701 1.0791754
0001d0 ac 74 6a 3f 1e 97 85 3f 39 47 88 3f 0f 00 90 3f
       0.9158428 1.0436742 1.0646735 1.1250018
0001e0 51 0a 85 3f 26 11 88 3f ce 57 8d 3f 5a d7 62 3f
       1.0393773 1.0630233 1.1042421 0.8860985
0001f0 cd 71 7e 3f f2 ae 6a 3f 00 57 82 3f e3 a2 81 3f
       0.99392396 0.91673195 1.01828 1.0127834
000200 e3 69 87 3f a6 1d 88 3f 05 12 67 3f 7f 43 76 3f
       1.0579189 1.0634048 0.9026187 0.9619674
000210 84 03 85 3f 1d 0c 90 3f 2d d7 5b 3f f9 e9 71 3f
       1.0391698 1.1253697 0.8587521 0.9449764
000220 3f cc 6c 3f a9 5e 8a 3f 8d 8f 82 3f 5f aa 83 3f
       0.92499155 1.0810138 1.0200058 1.0286368
000230 26 62 7a 3f 08 a9 83 3f 95 a6 84 3f 4c e4 89 3f
       0.9780601 1.0285959 1.0363337 1.0772796
000240 84 2c 96 3f d8 ab 84 3f a9 45 7b 3f c0 ad 6d 3f
       1.1732335 1.0364943 0.9815317 0.92843246
000250 f0 06 64 3f 0c 80 86 3f fd 91 8e 3f e7 15 64 3f
       0.89073086 1.0507827 1.1138302 0.8909592
000260 75 93 8b 3f f9 71 66 3f 9d 99 8b 3f 66 a4 46 3f
       1.0904375 0.9001766 1.0906254 0.775946
000270 f0 1d 74 3f 8f 99 49 3f c3 0c 8b 3f f8 5a 64 3f
       0.9535818 0.78749937 1.086327 0.8920131
000280 ec a9 74 3f a8 b0 5d 3f 8c d8 54 3f 7a c4 7b 3f
       0.9557178 0.8659768 0.83142924 0.98346674
000290 b5 9e 83 3f 91 82 82 3f 08 4d 34 3f 2c 7b 6a 3f
       1.0282809 1.0196096 0.7043004 0.91594195
0002a0 0a 37 6f 3f 74 71 4c 3f 60 8c 7e 3f 4c 48 55 3f
       0.9344336 0.79860616 0.99432945 0.8331344
0002b0 52 85 5f 3f 5d 80 88 3f 01 8c 74 3f 26 9c 85 3f
       0.87312806 1.0664173 0.9552613 1.0438278
0002c0 da 8e 86 3f 21 08 61 3f 0c 7c 66 3f 4c f7 72 3f
       1.0512345 0.8790303 0.9003303 0.94908595
0002d0 c4 51 68 3f 5c 98 5a 3f e5 4a 85 3f b2 9b 41 3f
       0.90749764 0.8538873 1.0413481 0.756282
0002e0 a8 78 6e 3f fc f2 4f 3f bd ca 62 3f 6b 16 73 3f
       0.93152857 0.8123014 0.88590604 0.9495608
0002f0 1d dc 61 3f 23 dd 46 3f 68 20 83 3f 61 61 79 3f
       0.8822649 0.7768118 1.0244265 0.97414213
000300 00 55 8c 3f a3 f2 8e 3f 9b 54 8f 3f 0b 26 56 3f
       1.096344 1.1167797 1.1197695 0.836518
000310 07 3d 85 3f 73 16 84 3f 55 bf 72 3f dc 12 6d 3f
       1.0409249 1.0319351 0.948232 0.926069
000320 f6 44 71 3f ca 33 7a 3f 7e f7 81 3f 15 0b 87 3f
       0.9424585 0.97735274 1.0153654 1.0550257
000330 bc 91 78 3f c7 c6 88 3f 3e 7a 65 3f f7 78 84 3f
       0.97097373 1.0685662 0.8963965 1.0349416
000340 25 7d 7c 3f 44 e2 80 3f 04 57 7a 3f 91 73 76 3f
       0.98628455 1.0069051 0.97789025 0.9627009
000350 8b d4 73 3f 03 fa 75 3f 1e 24 8a 3f 19 e8 6a 3f
       0.9524619 0.9608461 1.0792272 0.917604
000360 d8 51 75 3f 07 2b 81 3f 2b ad 66 3f 49 7b 82 3f
       0.9582801 1.0091256 0.90107983 1.0193874
000370 82 ce 70 3f 25 2a 5a 3f b1 2d 42 3f 0f 6c 7e 3f
       0.94065106 0.8522056 0.7585097 0.99383634
000380 e5 1c 93 3f 79 ec 8b 3f 3c ea 8a 3f c4 bc 69 3f
       1.1493193 1.0931541 1.0852733 0.9130366
000390 b5 d1 61 3f ed 5c 91 3f ae 91 54 3f 2c 3d 5f 3f
       0.8821061 1.1356484 0.8303479 0.87202716
0003a0 51 45 37 3f 9f f0 43 3f a2 82 87 3f 11 98 8f 3f
       0.71590143 0.76539034 1.0586741 1.1218282
0003b0 90 54 57 3f ae 13 92 3f 77 7a 83 3f ed 52 8d 3f
       0.8411341 1.1412256 1.0271748 1.1040932
0003c0 22 49 81 3f 90 fa 86 3f 94 04 87 3f 37 f5 7f 3f
       1.0100443 1.0545216 1.0548272 0.99983543
0003d0 a9 6e 73 3f a3 2d 8a 3f ff fb 8a 3f 0c 0f 4b 3f
       0.9509073 1.0795177 1.0858153 0.79319835
0003e0 e9 c7 83 3f 2b f8 7e 3f 05 80 69 3f 6a 69 94 3f
       1.0295383 0.99597424 0.9121097 1.159467
0003f0 b7 93 84 3f 26 51 94 3f 84 2f 0f 3f 05 23 89 3f
       1.0357579 1.1587265 0.5593188 1.0713812

arr_1 f4 [3, 3, 1, 32]
000000 7b 7a c2 3c 80 4e 29 be c4 27 7c be 8c 84 cd bd
       0.023740044 -0.16533852 -0.24624544 -0.10035047
000010 94 8a 99 bd 4c 12 9a be 99 e5 8b bd a4 23 02 3e
       -0.07497135 -0.30092084 -0.06830902 0.12708908
000020 8e 25 b9 bd c4 a5 45 ba ec 47 ec 3d 1b 0a e9 b9
       -0.09040366 -0.00075396546 0.115371555 -0.00044448752
000030 a8 1e 06 be 0a 73 f1 3d 78 24 9b 3d f5 f3 de bd
       -0.13097632 0.1178952 0.07575315 -0.10886375
000040 9b 3a b8 3d 16 92 70 3d c8 b7 36 be ab e4 77 bc
       0.08995553 0.05873307 -0.17843544 -0.015130202
000050 d5 71 a9 be d1 2e 50 3c f0 d4 df 3d cb fa f3 bc
       -0.3309466 0.012706474 0.109292865 -0.029782673
000060 da 2d 05 bd 10 3c b1 bd 8d 3b a5 3d 0a f9 9d bc
       -0.03251443 -0.08654034 0.08067999 -0.01928379
000070 07 1e d5 3d 50 4c 1b be 45 56 96 bd b4 81 f3 3d
       0.10406118 -0.1516583 -0.07340673 0.11889973
000080 b0 25 ad bd 6f 2a 5d 3d 2e bf 9f be 7f e4 43 3e
       -0.08454454 0.053995546 -0.31200546 0.19130133
000090 e4 93 f6 bd 4e f7 7a 3d 07 2a 9e 3d 1e 85 90 bd
       -0.12039927 0.061271004 0.0772286 -0.0705664
0000a0 83 95 e3 bc 24 cf ac bd be eb 4f bc fe 61 37 b8
       -0.027781254 -0.084379464 -0.012690483 -4.3721862e-05
0000b0 f5 f6 a2 bc d7 37 f1 bb c5 1f 68 bd ab 5f 13 3e
       -0.019893149 -0.007361393 -0.056670923 0.14391963
0000c0 b8 a9 91 3c 32 6c b5 3c 27 8d aa bd ac 67 f1 3c
       0.017781124 0.022146318 -0.08327704 0.02946838
0000d0 1e b7 69 be 23 ba 87 3d d7 6c a5 bd 37 5f 56 3d
       -0.2282376 0.066273 -0.080774 0.052336898
0000e0 f0 3d 09 3d df 90 80 be 07 21 9d 3d 13 ba 92 3c
       0.033506334 -0.25110528 0.07672315 0.017910993
0000f0 aa de 7c 3d 8f a9 9b be 44 da f5 bd 81 e5 3b 3e
       0.061735786 -0.304028 -0.120045215 0.18349268
000100 d4 5e a4 bd 03 16 f4 3d 5e 1e 08 be 2a db cf bd
       -0.080258995 0.11918261 -0.13292834 -0.10149224
000110 cb 78 99 3d c4 43 8c 3d c2 9c 7c bd 78 24 b0 bd
       0.074937426 0.06848863 -0.061672933 -0.08600706
000120 83 ef 82 bd 05 b4 75 bd 2c 10 09 be 56 a7 01 3b
       -0.063933395 -0.059986133 -0.13385075 0.0019783578
000130 c2 d4 11 3e 7a dd d3 bd 27 39 a2 bd 44 7f 1d b9
       0.14241317 -0.10344978 -0.07921057 -0.00015020097
000140 30 54 e5 bd bd cc 2b bd be e0 07 3e 5e 3f a9 bd
       -0.11197698 -0.0419433 0.13269326 -0.082640395
000150 87 db 69 bc 41 c1 cf bc 23 52 15 bd 34 e8 27 be
       -0.014273531 -0.025360705 -0.036455285 -0.16397172
000160 34 02 17 3d 21 e7 f4 bd 7a 2d 7b bd ac 44 83 bd
       0.036867335 -0.11958147 -0.061322667 -0.064095825
000170 37 ae d1 bd 8f b3 36 be 79 f7 fb bd c9 b9 60 3d
       -0.10238307 -0.17841934 -0.12303061 0.05486468
000180 8e 4d d2 3d 5e 14 18 3c 24 df 48 3d 05 99 a5 3c
       0.10268699 0.0092822 0.04904093 0.020214567
000190 9c 03 05 3e 09 05 f5 3c 6d f9 84 3d d7 87 bb 3d
       0.12989658 0.029909628 0.06492887 0.09156769
0001a0 f7 d6 9c 3c 03 e9 21 3d 73 e3 2e 3e e0 77 95 3d
       0.019145472 0.039528858 0.17078952 0.07298255
0001b0 36 59 8e 3d bf 06 48 3c e8 45 2a be 71 2b ec 3d
       0.069506094 0.01220864 -0.1662823 0.11531723
0001c0 e2 d1 d0 bb 28 ac 96 3d 4e b4 b9 bd 25 df 5b bd
       -0.006372676 0.07357055 -0.090675935 -0.053679604
0001d0 48 1f dd 3d 10 1c b0 bd 6a 63 d0 bc 07 05 bf 3d
       0.10796982 -0.085991025 -0.02543803 0.09327131
0001e0 cb d0 f7 3b 6e cd b3 3d f9 78 95 3c c8 2c 0c bd
       0.007562732 0.08779417 0.01824616 -0.034222394
0001f0 46 6f 03 be dc df b3 bd 81 33 e6 3c 4f 5a 14 bc
       -0.12835416 -0.08782932 0.02810073 -0.009054734
000200 8d 2f 06 3e fb 38 e9 3d c7 d7 9f 3d 3c 7c 1d bd
       0.13104077 0.11387821 0.07804828 -0.038448557
000210 9f 57 74 bd 1c b1 04 3e 0b 36 e1 3b 3c 64 09 be
       -0.059653874 0.12958187 0.0068728975 -0.13417143
000220 38 5c 81 3d 97 55 9c bd ad f3 08 be 58 7a b8 bd
       0.063164175 -0.076335125 -0.13374205 -0.0900771
000230 9b 5a 2e be 9d 78 07 3e a8 4a 4c 3d bc d2 23 3d
       -0.1702675 0.13229604 0.049875885 0.039995894
000240 66 61 74 3d aa 74 dd bc 61 38 12 3e 18 a1 15 3e
       0.0596632 -0.027033169 0.1427932 0.14612234
000250 85 9d a8 bd 5c 2a 0a be 97 44 aa 3d 11 f4 91 bd
       -0.082331695 -0.13492721 0.08313864 -0.0712663
000260 b3 f1 96 3d 6d 38 1a bc b5 d1 a6 ba e2 fa 5e bd
       0.07370319 -0.009412867 -0.0012727292 -0.05443848
000270 c1 c2 72 be 6e 07 b6 3d 7a 46 e7 3d c0 92 7f 3c
       -0.23707105 0.08888136 0.11292739 0.015598953
000280 5e f1 b7 3c 30 1a c1 bd d1 50 8a bc 56 64 9f 3d
       0.02245396 -0.09428823 -0.01688424 0.077828094
000290 41 e3 86 3c 70 b2 ac bd 97 66 a1 bd f0 a9 b7 3d
       0.016465785 -0.08432472 -0.078808956 0.0896796
0002a0 a2 31 a2 3d ff 1d d6 bd 72 9f 13 3d 93 49 30 be
       0.07919623 -0.1045494 0.03604073 -0.17215566
0002b0 14 c3 f6 3d 56 57 af be 20 13 9d 3d 0c 13 e1 bc
       0.12048927 -0.3424632 0.076696634 -0.027474903
0002c0 1b f3 f7 bd 59 55 a6 bd f2 36 ce 3c 65 14 81 3d
       -0.121069156 -0.081217475 0.025172684 0.06302718
0002d0 2b 0a d2 3d c6 18 3a be 53 eb cf 3d f6 48 0a 3d
       0.10255846 -0.18173513 0.101523064 0.033760987
0002e0 5d 8f 3a 3d 36 92 13 bd aa 68 35 3d 5b 23 26 be
       0.045546878 -0.03602811 0.04428927 -0.16224425
0002f0 87 a6 1a bd 89 63 25 be 95 95 44 3e 82 30 c2 bd
       -0.03775647 -0.16151251 0.19197686 -0.094819084
000300 26 8d 0f 3e d0 cb fd bd 2d 10 80 3d 02 2d e0 3d
       0.14018688 -0.1239239 0.06253085 0.109460846
000310 8f 2f 2b 3e 83 85 38 3d 1c c4 c4 bd a3 65 bf 3d
       0.16717361 0.0450492 -0.096077174 0.093455575
000320 3b e3 63 bd 81 e1 d1 3c 23 09 13 3d d3 f6 c4 3d
       -0.055636626 0.025620224 0.035897385 0.096173905
000330 8a 06 44 3d e7 cb a7 bd ee 80 72 3d 6c ba 8d bd
       0.0478578 -0.08193188 0.05920499 -0.06920323
000340 48 bb 55 3e fb 6e b9 3d 91 a4 f5 3d cd a4 bc bd
       0.20872223 0.09054371 0.11994279 -0.09211121
000350 de e0 0b 3c 01 5a 1f 3e 5b 14 14 be 1b 3a 97 bc
       0.008537499 0.15561678 -0.1446089 -0.018460324
000360 28 79 24 be 3f e8 35 bd 36 27 9f bd fb 6f 65 bd
       -0.16061842 -0.04441094 -0.07771151 -0.056014996
000370 36 a5 9f 3c 30 02 90 3d 49 02 0c be c1 38 36 be
       0.019487958 0.07031667 -0.13672747 -0.17795087
000380 2e 1d f3 bd 05 90 32 bc d4 fc d6 bc 4e 6a 29 be
       -0.118708 -0.010898595 -0.026243605 -0.16544458
000390 da 7b 19 be 8d 72 8e be e2 f3 39 be f1 82 9f bd
       -0.14988652 -0.2782177 -0.1815944 -0.07788647
0003a0 2b 96 89 3d 50 3a 84 3d 8f 9c 08 be 2f 30 19 be
       0.067180954 0.06456435 -0.13340972 -0.14959787
0003b0 ff 5d 51 bd ee 3a 16 3b 7f e4 37 bd 05 05 e4 bd
       -0.051115032 0.0022923308 -0.044895645 -0.1113377
0003c0 96 45 13 be e2 41 33 be 18 f8 03 be c9 9d cf 3d
       -0.14382014 -0.17505601 -0.12887609 0.10137517
0003d0 50 24 05 3e 02 0e ca 3d f8 52 9c bd 03 2f 3a be
       0.13002133 0.09865953 -0.076330125 -0.18181996
0003e0 2f 56 1c 3e bf 2f 0b be 37 78 fc bd 49 aa bf 3d
       0.15267251 -0.13592432 -0.12327617 0.09358651
0003f0 a4 16 1b be 3e 0e d9 3d 6d 70 b1 bd 57 44 2b be
       -0.15145355 0.105984196 -0.08664022 -0.16725288

arr_2 f4 [32]
000000 85 38 14 3e 37 97 fc bd 4f c6 68 bd cf 4a 57 3d
       0.14474685 -0.123335294 -0.056829747 0.052561577
000010 ee 68 f7 3c 35 2b 06 3e de 97 07 be 70 28 e5 bd
       0.030201402 0.1310242 -0.13241526 -0.111893535
000020 85 2e 2d bd d4 29 97 bd 62 7f e1 3c d2 bb 8f bd
       -0.042280693 -0.07381025 0.027526561 -0.07018246
000030 96 54 a0 3c 87 23 2b bd 3f a7 b6 3d 8e b9 c7 3d
       0.019571584 -0.04178193 0.089186184 0.097521886
000040 87 6b ce 3d 61 28 eb 3d 2a fe d1 bd 90 63 86 3d
       0.10079103 0.11482311 -0.10253556 0.06561959
000050 59 97 9b 3c f2 06 43 bd 9d 95 68 3d ea 9d 5e 3d
       0.018993067 -0.047614045 0.056783307 0.054349817
000060 b9 92 0d be 39 0b 93 3c 83 28 a3 bd 23 cf fc bc
       -0.13825502 0.017949687 -0.07966711 -0.03086049
000070 4f b9 32 bd 57 97 ca bd fd 3f 04 bc 1b 43 f5 bd
       -0.043633755 -0.09892147 -0.008071897 -0.1197569

arr_3 f4 [3, 3, 32, 64]
000000 20 bb 38 38 09 0d 0d 3e 31 a4 72 bd c4 e5 55 3d
       4.4043292e-05 0.13774504 -0.059238616 0.052221075
000010 39 5a 54 bd 26 67 c8 3b e2 08 2a 3e 10 8d 2b bc
       -0.051843856 0.006115812 0.16604951 -0.010470644
000020 de b8 86 3d 82 9b 03 bd 61 c4 c7 3a b2 98 e0 bc
       0.06578229 -0.032130726 0.0015241021 -0.02741656
000030 de a0 d0 bd a1 b6 d3 3b 9c 72 ab bd 1b f3 e1 bd
       -0.10186933 0.00646098 -0.083714694 -0.11032697
000040 39 85 0c 3d 43 7a 8b 3d 68 3a 0c bd 1b f5 d1 bc
       0.03430674 0.06810429 -0.034235388 -0.02562957
000050 7e 93 58 3c e0 c0 61 3c 75 5d 20 be 40 69 ca bd
       0.013218759 0.013778895 -0.15660651 -0.09883356
000060 6a 8f 02 3d b9 73 21 be e9 a7 0a 3d 67 39 52 3d
       0.03187505 -0.15766801 0.033851538 0.051324274
000070 a9 fa b6 3c b0 73 d3 bb c8 30 bb 3d 49 77 50 be
       0.022336321 -0.006453 0.09140164 -0.20358004
000080 43 71 cd bd 0d 08 34 3d df d8 97 bb 19 97 0d 3c
       -0.100313686 0.04395299 -0.0046340073 0.0086419815
000090 74 5b 97 3c 0a 0b 0f 3c 86 49 1c bd f4 e0 5e bd
       0.018476225 0.008730659 -0.038156055 -0.05441375
0000a0 4c 63 b5 3d 17 6e 0a be 56 69 b1 3a cb 42 3a bc
       0.0885683 -0.13518558 0.0013535421 -0.011368464
0000b0 1a 82 21 bd 60 c0 8c bd 6f 8c 24 3d 08 c7 f9 3c
       -0.039430715 -0.0687263 0.04017299 0.030490413
0000c0 d1 1a 06 3e 8a 96 f8 3c 21 e0 80 bd 65 54 dd 3d
       0.13096167 0.03034522 -0.06292749 0.108071126
0000d0 84 78 1f bd b8 a5 d4 3b 57 14 11 be 74 1c ec bd
       -0.038933292 0.006489482 -0.14167915 -0.115288645
0000e0 bf 6b 1d be ed 40 30 bd e4 4f 22 3c 6f 1d 88 bd
       -0.15373133 -0.043030668 0.009906743 -0.06646239
0000f0 c2 6c bb bd e3 54 23 3b 7a 0d 3d 3d 71 fb e6 3b
       -0.09151603 0.0024922423 0.04615543 0.007049017
000100 75 c0 e7 3c 95 dd 7b bc 57 87 ac bd 9e 85 7d bb
       0.028290013 -0.0153726535 -0.084242515 -0.0038684378
000110 0e 0b 5a 3d 9d e7 a2 be 59 b5 82 bd de e7 b3 3d
       0.0532332 -0.31817332 -0.063822456 0.087844595
000120 21 a3 b8 bd a4 c5 e2 bd b5 e9 64 bc 65 bd f4 bd
       -0.09015489 -0.11072853 -0.013971736 -0.11950187
000130 b2 14 d5 bd 96 25 58 be a3 bd 3e bd 92 17 86 3d
       -0.10404338 -0.21108088 -0.04656757 0.065474644
000140 d9 56 ad bc 34 28 5e 3d 99 fa 56 bc 83 3c ae 3d
       -0.021159576 0.05423756 -0.013121271 0.085076354
000150 73 7e 59 bd 64 0e bb bd 70 a7 56 3b 6a c6 58 bd
       -0.053099107 -0.09133604 0.003275361 -0.052923597
000160 3c c1 e1 3d fd 9e ae bc a2 8f 43 be d4 81 7a bd
       0.11023185 -0.021316046 -0.1909776 -0.06115897
000170 7f 80 a4 3d 1f b2 76 3c 44 17 73 bd 01 74 41 3b
       0.08032321 0.015057116 -0.05934836 0.0029518607
000180 36 9c 1e be 0b 08 c5 bd fc a5 91 3d 28 f4 2e bd
       -0.15489277 -0.09620675 0.07111737 -0.042713314
000190 fb 86 06 be 46 52 37 3d 59 1b 0d 3b 5b f5 2b be
       -0.13137428 0.044756196 0.0021531193 -0.16792814
0001a0 5b cd d7 bd be 7b 50 3d e7 82 5a bd ba a2 1f be
       -0.10537215 0.05089926 -0.053347494 -0.15589419
0001b0 cd 26 aa 3d 39 9a 0d bd 6a 7d 91 3d 45 c3 1f 3c
       0.08308182 -0.034570906 0.07103999 0.009751146
0001c0 bb 0b 9e 3d 10 a0 81 39 52 19 a2 bd 10 59 fe bc
       0.07717081 0.00024724053 -0.07914986 -0.031048328
0001d0 f6 e6 69 bc c8 c9 ad bd 3c 4a 9f 3d 19 42 5e bd
       -0.014276257 -0.08485752 0.07777831 -0.054262254
0001e0 b3 be c4 bd e0 f3 6e 3b 43 f7 66 bd 29 50 e7 3c
       -0.096066855 0.0036461279 -0.05638815 0.028236466
0001f0 13 c9 52 3c 31 a6 07 3d 52 1b 32 bc b9 17 b2 3d
       0.012865323 0.033117477 -0.0108707715 0.08695931
000200 1c f0 ed 3d 62 dc d9 3b 28 55 aa 3d a9 8d c6 3d
       0.11618063 0.006648586 0.083170235 0.09694988
000210 10 db ad bd 53 f8 b6 bb 9a 2b f3 bc be e9 e7 3d
       -0.084890485 -0.005583802 -0.029683877 0.1132388
000220 54 fc f8 bd 38 32 1b 3e 52 6f 63 bd e0 59 2a 3d
       -0.12157503 0.15155876 -0.055526085 0.041589618
000230 ff 2b c7 3d 05 e4 48 3d f5 dc 8a 3d 05 33 65 3d
       0.097251885 0.04904558 0.067804255 0.05595686
000240 94 a7 18 3e 98 98 bb bd 9e f2 8f be e2 0f 20 3e
       0.14907676 -0.09159964 -0.2811479 0.15631059
000250 67 5d 8d 3d 63 d1 45 3c 29 b0 6b 3c bc d1 70 bd
       0.06902581 0.012073847 0.014385262 -0.05879377
000260 9e 5f 27 be 52 0a 19 3e c5 cd c4 3d 12 97 b3 3d
       -0.16345069 0.14945343 0.0960956 0.08769049
000270 3f 01 01 3d 17 a7 a8 be 20 08 05 bc 56 8e c0 bb
       0.03149533 -0.3293998 -0.008119613 -0.0058763428
000280 ea 76 fc 3c db b9 fa bb c9 c8 71 bd 07 5d 7a 3e
       0.030818421 -0.00765155 -0.059029374 0.2444955
000290 48 d1 9e bd 27 b9 71 3c 22 9f 48 3d ae f1 85 3d
       -0.07754761 0.014753616 0.048979886 0.06540237
0002a0 c4 f0 1d 3e f0 23 0b bc 42 72 3d 3d 25 70 fa 3d
       0.15423876 -0.008492455 0.046251543 0.12228421
0002b0 a6 04 43 3d 14 c7 8c 39 dd 21 fd bc 8c a8 8c 3d
       0.047611855 0.00026851206 -0.030899936 0.06868085
0002c0 4c 14 17 bd 5d fa e2 bd d4 4c c6 bd 01 df 99 3e
       -0.03688459 -0.11082909 -0.096826226 0.3005295
0002d0 50 1e 1d bd 2e 6b 41 3d eb d9 11 bd 48 b7 c4 bd
       -0.038358986 0.047221355 -0.035608213 -0.096052706
0002e0 50 fa b8 39 f4 f5 1f be 83 2a 3b 3e 9d 49 57 3d
       0.00035281712 -0.15621167 0.18277936 0.052560437
0002f0 b1 be 37 3c b0 b0 37 bd 38 b8 47 bc 4f 0a b7 bc
       0.011214898 -0.044846237 -0.012189917 -0.022343783
000300 d1 75 78 bd 82 b1 41 be ab d9 60 bd d0 ff 1f be
       -0.060659233 -0.1891537 -0.054895084 -0.15624928
000310 42 59 d5 3d 35 21 28 be 4e 0c 54 3c 7d f5 bb bb
       0.10417415 -0.16418917 0.012942387 -0.0057360516
000320 72 ae f5 3d 65 0d e9 3d 48 bb 9b 3c d7 95 75 3c
       0.119961634 0.11379508 0.019010201 0.014989338
000330 9c af 67 bd 91 43 fb bd 48 1a 19 be 8a 51 42 3e
       -0.05656396 -0.12268747 -0.14951432 0.18976417
000340 ae 9f b0 bd 5c 0e a4 3d e6 15 51 be e5 b0 bf 3d
       -0.086242065 0.08010551 -0.2041851 0.09359912
000350 9a c3 2d bd d9 dc b3 bd 53 12 2c be 64 e2 85 3d
       -0.04242287 -0.08782358 -0.16803865 0.06537321
000360 56 ba 3b 3d 2c b3 06 bd 12 85 59 3d 41 1b 02 3e
       0.045832 -0.032885715 0.05310542 0.12705709
000370 cb c9 cb 3d bb fc b6 bd 24 f1 69 3c b2 c1 ae 3d
       0.09950598 -0.08934923 0.014278684 0.08533038
000380 4b 26 62 3d ac 45 e9 3c cb 91 de 3c 55 11 22 3e
       0.0552123 0.028475605 0.027169129 0.15826924
000390 ce f2 ff 3c 3d fc 48 3d ba ea 0c 3c 79 ee 28 bd
       0.031243708 0.04906868 0.008600885 -0.04124305
0003a0 84 8f a5 3d ea c5 37 3e f6 6b 5c 3d ba 57 82 bd
       0.08084014 0.17946592 0.053813897 -0.06364389
0003b0 10 2e f6 bd d6 00 96 bd dc e9 0c be a0 c0 04 bd
       -0.120205045 -0.07324378 -0.13761085 -0.032410264
0003c0 35 cd 5c 3e 15 0a a1 3d 2c 2a 69 3d 12 b8 0a 3d
       0.21562655 0.07863251 0.056924984 0.03386695
0003d0 ec 3a 45 3e 69 d9 a7 3c bb 28 1c 3d d3 37 f4 bc
       0.19260758 0.020489411 0.03812478 -0.029811775
0003e0 21 ac a6 3d b4 b5 e1 3b 91 fb 1d be 13 61 cc bc
       0.081383 0.006888116 -0.15427996 -0.024948632
0003f0 40 00 aa 3c 0a 18 f8 bb 29 36 d2 bd e3 11 a3 bd
       0.020752072 -0.007571225 -0.102642365 -0.07962396

arr_4 f4 [64]
000000 05 ae 1e bd 3b 02 b5 bd 11 70 6a bd d0 93 c9 3d
       -0.038740177 -0.08838316 -0.05723578 0.09842646
000010 78 52 14 bc e0 de 3c bb 8a 57 f0 3d 9d e1 95 3d
       -0.009052865 -0.0028819367 0.11735447 0.07318423
000020 f8 ad 9a bd 84 86 96 bb 97 7f aa 3d af 05 11 bd
       -0.07552713 -0.004593672 0.08325117 -0.03540581
000030 c6 cb 39 3d a9 c3 ee 3c a6 79 a5 bd ca 2e 0a 3d
       0.04536035 0.029146032 -0.08079843 0.033736028
000040 9c 5c a3 bd 82 80 6b bb d5 b9 e7 3d 6e ad 70 3c
       -0.07976648 -0.003593475 0.113147415 0.014689786
000050 0f c1 31 3c 81 cd eb 3c a3 e9 9e bd d7 f6 a6 3d
       0.010849251 0.028784515 -0.077594064 0.0815255
000060 7b 9b 1f 3e 6d 40 b9 bd d7 65 a7 bd ce e7 c4 bd
       0.15586655 -0.09045491 -0.08173721 -0.09614526
000070 6a 28 3b bb e0 cd f1 ba 07 cf 26 bd 3b 80 05 bd
       -0.0028558024 -0.0018448196 -0.04072478 -0.032592993
000080 ad 88 c0 3d 79 f2 31 3d 54 9d e3 3d f7 26 68 bd
       0.09401069 0.04344413 0.11113992 -0.056677785
000090 2e c5 54 3b 6b 71 87 3d b1 b1 54 bd 61 c4 f5 bb
       0.003246616 0.0661343 -0.051927272 -0.007500217
0000a0 d4 f6 98 3c 50 7c a1 3c c1 4b 26 be 57 db fb 3d
       0.018672384 0.019712597 -0.16239835 0.12297695
0000b0 56 f2 5c bd 8c 7a 3a bc 4b 90 0a 3e 12 19 d9 bd
       -0.053942047 -0.0113817565 0.13531606 -0.10600485
0000c0 8c e5 74 3e f4 d5 6f bd b3 2a 3a bc 20 ea ea ba
       0.2391569 -0.05855365 -0.011362719 -0.0017922558
0000d0 56 dc 0f 3e da be 1d bd d1 fc 08 3d a1 01 81 3c
       0.14048895 -0.03851209 0.03344423 0.015747847
0000e0 a4 16 85 bc 53 ba f6 3d d8 a7 bd 3d 9f b5 0f 3e
       -0.016246147 0.12047257 0.09260529 0.14034127
0000f0 23 08 3b bd df 25 8f bd 17 ae 1c bd 4b 95 b0 bd
       -0.045662057 -0.06989645 -0.038251963 -0.086222254

arr_5 f4 [3, 3, 64, 128]
000000 c2 30 ae 3d ba 00 b5 3d 20 7e af 3d f5 79 28 3d
       0.085053936 0.08838029 0.08568978 0.041131932
000010 01 d9 43 be 90 41 98 bd 59 d5 ef 3d 2b be 72 bd
       -0.19125749 -0.0743438 0.11710615 -0.05926339
000020 f0 0c 08 be b5 73 c3 bb 03 f4 01 be 61 7f fe bc
       -0.13286185 -0.005964721 -0.1269074 -0.031066598
000030 48 0e d0 3d 06 05 17 3d 1f b8 54 be cd 79 f5 3d
       0.10158974 0.036870025 -0.20773362 0.11986122
000040 ae 6e 3a 3e 7e 82 78 3d fd 02 8c 3e 70 5c 51 bb
       0.18206283 0.060671322 0.2734603 -0.0031945966
000050 a0 b0 06 be d6 9b 54 3e a3 90 4f 3d de 53 ab 3c
       -0.13153315 0.20762572 0.050675046 0.020914014
000060 35 93 c6 3d 9f fe 39 bb 8e 5f 12 3e 52 ad 43 3c
       0.09696046 -0.0028380526 0.14294264 0.011943178
000070 8d 26 41 3d 83 c5 2d bc 4d c3 fe 3c 78 8f a2 bd
       0.047155906 -0.0106061725 0.031098986 -0.07937521
000080 e8 fc 29 3e 98 8a c0 3d 24 0e 68 3d 2c 1b e9 3d
       0.16600382 0.09401435 0.05665411 0.11382136
000090 b1 1c 4e 3d 61 96 c4 3d 64 76 a3 be 0c 2e 1c 3e
       0.05032033 0.09598995 -0.31926262 0.1525194
0000a0 a6 ab 81 3d 2c 0c 7c 3e 15 41 64 bd 02 2d 4e be
       0.063315675 0.24614018 -0.05572613 -0.20134357
0000b0 f7 12 15 be 40 7d 66 bd 4e 81 45 bd a4 c4 16 be
       -0.14558016 -0.05627179 -0.048219018 -0.1472345
0000c0 68 05 e9 3b bd 92 17 3e 6a 84 fa 3d 32 3d 5f 3d
       0.00711124 0.1480207 0.12232287 0.05450172
0000d0 0e e5 2f 3e 85 4e 0e bd b3 ec e1 bd 43 f9 e3 3c
       0.17177221 -0.03474285 -0.11031475 0.027828818
0000e0 72 5d 41 3c 17 bd c3 3d 98 a0 13 3e 55 1d 48 3e
       0.011802064 0.095575504 0.1441673 0.1954244
0000f0 a9 1b a8 bd a5 aa 45 bd 82 63 92 3d ff e8 78 3d
       -0.08208401 -0.048258442 0.07147886 0.060769077
000100 04 92 90 3b 2d 3e 99 3c 45 c9 95 bc 16 a2 0f 3e
       0.0044119377 0.018706406 -0.01828445 0.14026675
000110 a6 0f ab 3d ea ae 03 3e 53 84 bb 3d 1e f6 66 3c
       0.08352594 0.12859693 0.09156098 0.014096765
000120 40 cf b7 3d ee ad 15 bd 1a f2 97 3d 1e 0c f4 bc
       0.08975077 -0.036542825 0.07419224 -0.029790934
000130 52 a7 96 bc 29 62 08 3d 8c ae 67 3e 10 75 8a bd
       -0.018390331 0.033296738 0.22625178 -0.06760609
000140 aa 0a bc 3d 69 27 3a 3e 5a b6 1c 3e 99 e5 d9 bd
       0.091817215 0.18179096 0.15303937 -0.106394954
000150 6e 43 e3 3d 01 e5 e9 3c 96 51 75 3d 20 67 5d 3d
       0.110968456 0.02855158 0.05989226 0.054053426
000160 18 d7 50 bd 2a 31 c2 bd 3d b4 f3 3d d2 3a 3d 3d
       -0.05098638 -0.094820336 0.11899612 0.046198674
000170 a4 da 0d 3d 7d 0f 07 3e bf c0 91 3d 20 86 a5 3d
       0.03463234 0.13189502 0.071168415 0.08082223
000180 a9 58 2d 3d 86 53 0e be 6b 39 e1 bc a6 69 78 3a
       0.04232088 -0.13899049 -0.0274932 0.0009476192
000190 d7 d5 3d bc 3e f6 27 3d 58 6a 62 3d cc 32 b8 bd
       -0.011586628 0.04100632 0.0552772 -0.08994064
0001a0 6c 92 f6 bc ac c8 e9 3d df d4 40 bd 24 cb 0b 3d
       -0.030099116 0.11415228 -0.04707801 0.034129277
0001b0 f3 7c 5f 3e f4 ba 39 3e b2 90 4d bd 7e 0e 11 bc
       0.21825008 0.18137723 -0.05018682 -0.008853553
0001c0 ad 82 f7 ba 95 a3 aa bd f3 b9 94 3c 11 79 c0 bd
       -0.0018883549 -0.08331982 0.018155074 -0.093980916
0001d0 98 00 00 be d2 49 8b 3d f7 5e 23 3e 4e be 6f 3d
       -0.12500226 0.068011895 0.15954195 0.058531098
0001e0 9d 2e 4a 3d 59 d7 28 be dc fe f0 bd 82 71 38 3e
       0.04936086 -0.16488399 -0.117673606 0.1801205
0001f0 29 45 a8 bc 6b c4 c4 3d 72 42 8c 3d 2d f8 bd 3b
       -0.02054079 0.09607776 0.06848611 0.005797407
000200 6d 96 e9 bc 44 a0 76 3d 27 78 31 3d 59 6c 88 3c
       -0.028514111 0.060211435 0.043327477 0.016653227
000210 e3 6d 8d 3c 29 d7 6d bd 5e ef ac 3d ba ff 6a be
       0.017264312 -0.05806652 0.08444093 -0.22949114
000220 27 bc 80 bd 30 c6 59 3c 6c 84 c1 bd 04 bf df 3d
       -0.06285887 0.0132918805 -0.094490856 0.10925105
000230 0f 08 71 3e 52 0b 71 bd 55 ea be bc 3e 61 b4 3c
       0.2353823 -0.058848687 -0.023305098 0.022019025
000240 78 c4 5c 3d 0c 0d bf bc 6d a8 9b bd 15 af 1c bd
       0.053898305 -0.02332165 -0.07600484 -0.03825291
000250 e3 06 5d be f3 25 c7 3d 8b 2b 01 be c3 5c 14 bd
       -0.21584658 0.09724035 -0.12614267 -0.036221277
000260 36 13 1c 3d e1 f5 b9 3d 39 29 3e bd 9c bc 24 3b
       0.03810426 0.09080101 -0.04642603 0.0025136834
000270 e3 30 c9 3d 14 29 57 bd 02 49 4b 3d 15 e4 3b be
       0.098237775 -0.05252941 0.049630173 -0.18348725
000280 46 58 1d 3d 13 c7 e1 bc b2 d3 37 3d f5 e1 ad bd
       0.038414262 -0.027560746 0.044879623 -0.084903635
000290 db 08 c8 3d 65 8d 86 bd 05 2a df bb c7 02 4b 3d
       0.09767314 -0.065699376 -0.006810429 0.049563196
0002a0 8d 1b ae bd 15 6e e9 bb 2b a9 23 3e 64 3b bb bd
       -0.08501349 -0.0071237185 0.15982501 -0.09142187
0002b0 9b 7c 14 3d c9 c2 30 3e 18 fb 22 be ac b8 4a bc
       0.036251646 0.17261805 -0.15916097 -0.012373131
0002c0 eb 97 c6 3d 5c a1 81 3d 4d 52 b8 3c 49 9c 2c 3e
       0.09696945 0.06329605 0.022500182 0.16856493
0002d0 38 5c ce 3d d5 1f 99 3d 08 80 90 bd 37 c6 96 3d
       0.10076183 0.074767746 -0.0705567 0.07362025
0002e0 e5 33 9e 3c c8 2c 1e bd 69 07 e9 3d 03 5a 67 bd
       0.019311855 -0.038616925 0.113783665 -0.056482326
0002f0 c3 d7 da 3d 4f 51 90 bc 87 9e 9b 3d bb 98 08 bd
       0.106856845 -0.017616896 0.07598596 -0.03334878
000300 4d e6 25 3c 85 5e 4a bc 41 14 dc bc c6 50 5e 3d
       0.010125709 -0.012351637 -0.026865127 0.05427625
000310 15 c4 97 3d 72 77 51 bc 85 00 0f bd 8a 19 51 bd
       0.074104466 -0.012784826 -0.034912605 -0.051049747
000320 bd 1b f7 3d fc 98 e1 bd 3c b5 41 be d4 8c 80 3d
       0.120658375 -0.110155076 -0.18916792 0.06276861
000330 86 f0 1f 3c 51 5f a0 bd 66 ad 6d bb 9e 38 0a be
       0.009761935 -0.0783068 -0.0036266684 -0.1349816
000340 b9 b4 d9 3d 24 f3 86 3d 6e df 42 3e 68 bf 46 3b
       0.10630173 0.06589344 0.19030544 0.003032649
000350 ae ca 5a 3d 41 62 23 be a6 13 05 be db b3 be bd
       0.053415947 -0.1595545 -0.12995777 -0.093116485
000360 06 7d a0 bc 37 d4 b2 bd 8d fa 85 bc a3 0f 10 3c
       -0.019590866 -0.08731883 -0.016354823 0.008792791
000370 6d 87 18 bd 7d 08 0e bd d0 07 6f 3d 3a 70 95 bd
       -0.037238527 -0.034676064 0.05835706 -0.07296796
000380 fc a7 72 bd 8a ee 33 bd 92 0b b1 bd 6f e5 df bc
       -0.059242234 -0.04392866 -0.08644785 -0.027331082
000390 22 57 d9 3d 58 7d 27 bd f9 41 ee bd a9 1c eb 3c
       0.106123224 -0.04089102 -0.11633677 0.02870019
0003a0 2f 4a 3a bb 99 ec e6 bc d5 75 19 bd 93 58 d5 3c
       -0.0028425565 -0.02818899 -0.03746589 0.026043212
0003b0 e1 79 c2 3d c4 71 c6 bc b3 82 5c 3d eb 90 5f bc
       0.09495903 -0.02422417 0.053835582 -0.013645391
0003c0 96 01 39 3b f3 6b 93 3d 7c a9 2c bd 99 8c 31 be
       0.0028229705 0.07198324 -0.04215382 -0.1733879
0003d0 ec b4 c7 bd eb 48 77 3c a5 0d a4 bd 34 a7 3c bb
       -0.09751305 0.015093069 -0.08010415 -0.0028786184
0003e0 42 ff 5d bd 14 25 02 3b 21 c9 0e 3d 48 de 2e 3d
       -0.05419851 0.0019858526 0.03485978 0.042692453
0003f0 95 4c 4c bd 57 b5 4d bd cd e7 f2 bb 54 f4 39 3d
       -0.04987772 -0.050221767 -0.0074128867 0.045399025

arr_6 f4 [128]
000000 09 bb 96 bd 3d 56 4b be 88 83 15 be 7f ff 2b be
       -0.07359893 -0.19857116 -0.14600956 -0.16796683
000010 fc 6f a1 bd fb fb 0c be 01 9f 9e bd 6b 73 60 bd
       -0.078826874 -0.13767998 -0.07745171 -0.05479757
000020 ac a7 0a bd be 7d 1a bd f2 56 bc bd 44 b5 ea bd
       -0.03385131 -0.037717573 -0.09196271 -0.11460355
000030 c5 a5 c3 bd 1b 42 30 be 56 35 ed bd f5 44 d8 bd
       -0.095531024 -0.17212717 -0.11582439 -0.105600275
000040 e2 86 8c bd fd 40 7e bd b4 25 6d bd e8 88 0d bd
       -0.06861664 -0.062073696 -0.057897285 -0.034554392
000050 95 17 f5 bd 68 70 23 be d7 b2 27 be f0 bd 09 be
       -0.119673885 -0.15960848 -0.16376816 -0.13451362
000060 e8 19 c9 bd b7 4c 6f be 7f 7e b1 bd 30 8a ec bd
       -0.09819394 -0.23369108 -0.08666705 -0.11549795
000070 66 70 97 bd 0a 7f 15 be c2 bc 30 be 5d c5 ef bd
       -0.07394485 -0.14599243 -0.17259505 -0.11707566
000080 4a 64 40 be 67 e0 8e bd be f2 1f be 65 6e 56 bd
       -0.18788257 -0.06976395 -0.15619943 -0.052351374
000090 bb 7f 2f be 64 2f 2f 3c aa 3d ba 3a 38 32 65 bd
       -0.17138569 0.010692451 0.0014209051 -0.055956095
0000a0 29 cc 9e bd 04 9d a7 bd d2 ad a7 bd 27 06 16 bd
       -0.07753784 -0.08184245 -0.081874505 -0.03662696
0000b0 25 6a 93 bd 99 99 04 be c5 3a eb bd 92 b4 d2 bd
       -0.0719798 -0.12949218 -0.11485819 -0.10288347
0000c0 86 8c 59 bd 5e a4 21 be ce 3a e1 bd 0f 90 55 bd
       -0.05311253 -0.15785357 -0.10997544 -0.052139338
0000d0 e6 43 2e be 16 5b 0a bd 87 a7 30 bd 88 18 08 be
       -0.17018089 -0.033778273 -0.043128517 -0.13290608
0000e0 47 56 b1 bd d5 ca f1 bd bf 45 fc bd 5a fd 16 be
       -0.08659034 -0.11806265 -0.123179905 -0.14745083
0000f0 1b 26 0e be 01 4e 05 be 8b 48 b4 bc a8 5b 18 be
       -0.13881724 -0.13018037 -0.022007247 -0.14878714
000100 d9 7e 19 bd 8c 67 a4 bd 26 8d bf bd f2 8b 33 bd
       -0.037474487 -0.080275625 -0.09353094 -0.043834634
000110 6f b9 de bd 48 b4 07 be 4f 60 70 bd fe eb 73 bd
       -0.108752124 -0.13252366 -0.058685597 -0.05955123
000120 c3 49 97 bd 7f 06 19 be 92 e7 60 be 6e 35 09 be
       -0.07387116 -0.14943884 -0.21963337 -0.13399288
000130 9a 2a 30 bd 10 58 63 bd d0 56 4c be 3c f3 f8 bd
       -0.043009378 -0.055503905 -0.19954991 -0.12155768
000140 f9 62 69 bd 36 bc d0 bd 32 b3 8f 3b bc b6 90 bd
       -0.056979153 -0.101921484 0.0043853754 -0.07066104
000150 b8 4d c3 bd f9 01 27 be d0 91 07 be 82 9c 90 bd
       -0.09536308 -0.16309346 -0.13239217 -0.070611015
000160 11 06 4b bd 60 73 b7 bd d8 d0 24 bd 71 44 0d be
       -0.049566332 -0.08957553 -0.04023823 -0.1379564
000170 0e 3d bd bd 7a b6 bd bd 80 bf ad bd 4e fc 11 be
       -0.09240161 -0.0926332 -0.08483791 -0.14256403
000180 c4 8a 90 bc 3f 62 66 bd b0 0d 40 be aa 19 16 be
       -0.017644294 -0.05624604 -0.18755221 -0.14658228
000190 8d a5 fb bd 88 35 fc bd 4d 5b 13 be f3 92 3b be
       -0.12287436 -0.12314898 -0.14390297 -0.18317775
0001a0 e3 51 52 bd 40 67 dd bd 2b ad 97 bd 47 b7 db bd
       -0.051347625 -0.10810709 -0.07406076 -0.10728317
0001b0 4d eb f4 bd e0 c1 9c bd 26 91 9a bd 22 39 58 bd
       -0.119589426 -0.07654166 -0.07547216 -0.05278886
0001c0 38 d6 e8 bd ae a8 07 be 51 84 11 bd f7 21 ac bd
       -0.11368984 -0.1324794 -0.035526577 -0.08404916
0001d0 ec 9b c6 bd 78 b8 03 be 4f dd e7 bd d6 27 d7 bd
       -0.096977085 -0.12863338 -0.11321508 -0.10505645
0001e0 6d 23 d5 bd 7e 2e 04 be 0e db aa 3c be a6 e1 bd
       -0.104071476 -0.1290836 0.020856407 -0.11018132
0001f0 b3 c9 c3 bc 08 a6 db bd 89 52 2a bd b2 ce c1 bd
       -0.023899889 -0.10725027 -0.041582618 -0.09463252

arr_7 f4 [3200, 10]
000000 75 be 65 be f2 53 30 bb 56 98 2b be 83 39 b2 be
       -0.22435935 -0.0026905504 -0.1675733 -0.34809503
000010 f1 24 fa bd d6 11 0e bf 58 86 21 be 45 e5 9c be
       -0.12214077 -0.55495965 -0.15773904 -0.3064367
000020 74 06 14 bf dc a7 dc be 6f 29 4e be d2 80 3b be
       -0.57822347 -0.43096817 -0.20132993 -0.1831086
000030 3f a1 03 be 8d d4 0d be 3a 69 dc bd cc 5d dc bd
       -0.12854479 -0.13850613 -0.10762258 -0.10760078
000040 76 de 20 be aa 8d 16 be 3b 72 d5 bd c5 d1 37 bd
       -0.15709862 -0.14702478 -0.10422178 -0.044877786
000050 cd 07 2a be 26 a7 d2 be ad c7 47 be 05 51 c9 be
       -0.16604538 -0.4114315 -0.19509764 -0.39319625
000060 7f b5 a2 3d d7 b3 18 bf 24 28 b4 be 3b ca 3f bf
       0.07944774 -0.59649414 -0.35186875 -0.74917954
000070 55 08 90 be d3 cd 11 bf 1c 9b 6d be 0a 05 00 bf
       -0.28131357 -0.5695469 -0.23203701 -0.5000769
000080 5e 25 88 be 7f e4 2c be c9 c9 37 be ed b3 11 bf
       -0.2659101 -0.1688404 -0.17948069 -0.5691517
000090 86 dd 90 be 56 63 f6 be e8 fd 6d be 9b 31 18 bf
       -0.2829401 -0.48122662 -0.23241389 -0.5945069
0000a0 2e 93 5a bd 88 14 9f bf e8 6b a9 3c 3e a4 cb be
       -0.053363018 -1.2428141 0.020681337 -0.39773744
0000b0 8c 40 70 be cb 6a 90 bf 38 22 ce bc 37 42 61 bf
       -0.23462123 -1.1282591 -0.025162801 -0.8799166
0000c0 87 7a f9 be 12 a8 a7 bf a4 5e 4e be 93 0f f1 be
       -0.48726293 -1.3098166 -0.2015329 -0.47082195
0000d0 59 8c 4a be e5 f0 c3 be 3b 61 89 bd 7d 0b e7 be
       -0.19780101 -0.38269725 -0.06707998 -0.45125952
0000e0 41 ad 9c be 6f 7a 88 be 2f 6a 7b 3a 66 6c cc be
       -0.30600932 -0.2665591 0.0009590713 -0.3992645
0000f0 f4 28 dd be 88 8a 2b bf 76 09 bb be 11 6f bf be
       -0.43195307 -0.67008257 -0.36530656 -0.37389424
000100 56 71 3e be e0 8b ef be e5 84 b4 be 83 76 81 be
       -0.18597922 -0.46786404 -0.3525764 -0.2528573
000110 d4 8a 86 3e 3e 0c ff be ff e8 a6 be e8 f8 c5 be
       0.26277792 -0.49814028 -0.32599637 -0.38666463
000120 be 16 4a bf 96 d1 1c be cc b4 e4 be c1 8f 0d bf
       -0.7894095 -0.15314326 -0.44669187 -0.55297476
000130 73 9e 14 be a2 08 1c bf 3a e1 a2 be e5 36 17 bf
       -0.14513569 -0.6095067 -0.3181246 -0.5906814
000140 75 29 54 be c3 75 f0 be 9f 96 ab be 99 94 a5 be
       -0.2071894 -0.46964845 -0.33513352 -0.32339934
000150 0f bf 99 be 74 f3 f0 be 91 fb 44 be ed 74 4c bc
       -0.3002858 -0.4706074 -0.1923659 -0.012479049
000160 9f c9 b5 ba 2d 77 89 be e0 8d 0b 3b 43 9c 8a bd
       -0.0013869292 -0.26848736 0.002129428 -0.06768086
000170 0a bd e2 3b 61 5d e8 bb 2c da 07 bd 65 da b5 bc
       0.006919508 -0.0070912098 -0.03316705 -0.022198865
000180 cc 65 68 3c 03 c6 71 bc 29 20 31 bd 75 4d 06 bd
       0.0141844265 -0.014756682 -0.04324356 -0.032788713
000190 e4 62 e5 3d df a3 19 bf 11 8b 38 bd da 94 c3 be
       0.112005025 -0.6001567 -0.0450545 -0.38199502
0001a0 5f 3e 99 be 99 b9 31 bf d1 3a 9d be 29 b6 28 bf
       -0.29930398 -0.69423825 -0.30708936 -0.65902954
0001b0 02 d9 ad be a1 f8 f9 be f1 d2 57 be 78 4b b2 be
       -0.33954626 -0.488225 -0.21076562 -0.34823203
0001c0 5e 53 04 bf ef 28 a3 be a5 90 ac be 29 60 cf be
       -0.5168971 -0.31867167 -0.33704105 -0.40503052
0001d0 d3 ea 89 be f9 f2 bf be c6 95 19 3e 3f 9e af be
       -0.2693697 -0.3749006 0.1499854 -0.3430042
0001e0 bd 65 9b bc dc be cf be c6 3e b8 3c 83 19 c0 be
       -0.018969411 -0.40575302 0.02249087 -0.37519464
0001f0 04 b6 5e be 68 70 23 bf 6a 3b a5 bd b6 56 dc be
       -0.21749121 -0.63843393 -0.08067973 -0.43034905
000200 fd 01 cb be 35 df e6 be e8 23 4b be 4c 5d b3 be
       -0.39649954 -0.45092168 -0.19837916 -0.35032117
000210 0a da 8c be e9 d5 b0 be 85 33 72 bd a2 e0 36 bf
       -0.275101 -0.345382 -0.059131164 -0.7143651
000220 e2 e1 10 bd f1 66 29 bf 2b e3 2b bd 1c 84 65 bf
       -0.03537167 -0.661727 -0.04196469 -0.8965471
000230 30 2a 3f bd cf 75 ab be f2 5d 25 be 0e 8d eb bd
       -0.046671093 -0.33488318 -0.16149119 -0.115015134
000240 53 c7 cb be 2a 8a b5 be 77 61 c1 be d9 5d b2 be
       -0.3980051 -0.35456973 -0.37769672 -0.34837225
000250 b2 53 b4 bd bb 8d d9 be b9 d5 e1 bd cc 1c 2a bf
       -0.08805026 -0.42490944 -0.110270925 -0.6645019
000260 b3 77 a3 3d a5 fc 28 bf 93 47 ed be 51 21 84 bf
       0.07981815 -0.66010505 -0.4634367 -1.0322667
000270 6f e8 bc bd 84 de 65 bf 3d 7f 03 bf 7b a3 84 bf
       -0.09224021 -0.89792657 -0.51366025 -1.036239
000280 9f fd 52 be e8 01 f3 be 78 ee ee be 2c 8f 21 bf
       -0.20604561 -0.47462392 -0.46666312 -0.6310909
000290 35 5c cf be d4 36 f8 be 64 23 90 be 11 6e 0d bf
       -0.40500036 -0.4847933 -0.28152 -0.55246073
0002a0 5e b6 ad 3e 20 f8 1b bf dd 77 8a bd f2 fe f0 bd
       0.33928198 -0.60925484 -0.06761143 -0.11767377
0002b0 75 39 c4 bd 2e 3f 81 bd 90 c8 ba bd e2 bd f1 bd
       -0.095812716 -0.06310879 -0.091202855 -0.118037954
0002c0 fc 8c 0c 3c aa ef 55 bd df ba 57 be 5f ed 88 bd
       0.008578535 -0.052230515 -0.2106738 -0.066859
0002d0 a6 80 dc 3d 4f 37 4d bf e7 3d 51 be 89 97 38 be
       0.10766725 -0.8016252 -0.2043377 -0.18026556
0002e0 9a ff 01 bf 18 b6 43 bf 55 3e 7a be 43 53 15 bf
       -0.5078064 -0.7644973 -0.2443784 -0.5833017
0002f0 f7 e8 ed be de f3 1e bf da bf 57 be 02 07 6d bd
       -0.464668 -0.6209086 -0.2106928 -0.05786801
000300 09 eb 98 bd b5 cc ef bd fd 21 9c bd 5d d9 35 bf
       -0.074667044 -0.11708967 -0.0762367 -0.71034795
000310 9d cc df bd 38 cf 73 bf 49 70 c0 3d 36 06 13 bf
       -0.10927699 -0.95238066 0.09396417 -0.5743135
000320 c4 5d 88 be a4 f4 5a bf de 0c 3d bf 90 6f cd bd
       -0.26634037 -0.8552954 -0.7384776 -0.100310445
000330 be 8f fa be d9 cd 06 bf 66 fe f0 bd de 9e ff be
       -0.48937792 -0.5265785 -0.11767273 -0.49925894
000340 82 b7 1b bf 7c b3 dd be 44 88 b1 bd 3b 9e 86 be
       -0.60826886 -0.43300998 -0.08668569 -0.26292595
000350 85 45 fa bd 95 5e 85 be d1 f9 b0 bd b8 16 03 bf
       -0.12220291 -0.26048723 -0.08641399 -0.5120654
000360 56 c0 13 be 10 a3 16 bf e7 24 34 be 46 1b 16 bf
       -0.14428839 -0.58842564 -0.17592202 -0.58635366
000370 c8 aa 60 be 8a b7 22 bf 52 b1 23 be 58 2b 87 be
       -0.21940148 -0.6356131 -0.15985611 -0.26400256
000380 f6 22 4b be f0 52 0b bf b3 e6 f2 bd 5f 14 d5 be
       -0.19837555 -0.5442343 -0.11860409 -0.41617104
000390 6f 8b 83 bf c3 c7 c3 be eb 05 a7 bd dd d3 b8 bd
       -1.0276927 -0.38238344 -0.08155426 -0.09024785
0003a0 e0 3d a3 bc 3c 67 b6 3b 2f 45 47 bc 21 2b 98 bf
       -0.019926965 0.0055665057 -0.012162491 -1.1888162
0003b0 77 38 d0 bc af f0 85 bf 87 5c 42 be cd 76 63 bf
       -0.02541755 -1.0464076 -0.18980609 -0.8885315
0003c0 af 9f 0d bf d1 d4 c1 be 0b fb 6a be ba f5 07 3c
       -0.5532178 -0.3785768 -0.22947328 0.008298332
0003d0 18 33 7b be fb 92 3c bf b6 5f df bd 50 b7 c0 bf
       -0.2453121 -0.73661774 -0.10906927 -1.5055943
0003e0 d3 9d b7 bf 82 02 82 bf fb 0b 45 be 60 3f 9e be
       -1.4345039 -1.0157015 -0.19242851 -0.30907726
0003f0 32 35 be be cf 4f e1 bd cf c1 8a be 93 1c 76 be
       -0.3714996 -0.110015504 -0.2710099 -0.24034338

arr_8 f4 [10]
000000 69 8a 00 be 04 a8 ef 3e 10 53 b1 bd a9 50 8a bd
       -0.125528 0.46807873 -0.08658421 -0.06753666
000010 7a 03 a3 bc a2 8f d4 bc 2d d7 d7 3b d5 de e1 bc
       -0.019899119 -0.025947396 0.0065869302 -0.027572075
000020 71 8d f1 3e cb 16 00 be
       0.47178224 -0.12508695
