Exercises/fashion-mnist/params/fashion-mnist_params_dense.npz (npz, 222386 bytes, 9 tensors)

arr_0 f4 [192]
0	0x3f4591e7	0.77175754
1	0x3f61ce92	0.88205826
2	0x3f48a6a9	0.78379303
3	0x3f85af18	1.0444059
4	0x3f55f5ba	0.83578074
5	0x3f435725	0.76304847
6	0x3f3513b9	0.7073322
7	0x3f71a6df	0.9439525
8	0x3f365832	0.71228325
9	0x3f704a17	0.9386305
10	0x3f5486d4	0.8301823
11	0x3f3a6aab	0.7281901
12	0x3f70ac27	0.94012684
13	0x3f31eba8	0.6950021
14	0x3f33e9e9	0.70278794
15	0x3f7e3d76	0.9931253
16	0x3f1e2db0	0.61788464
17	0x3f22c99c	0.6358888
18	0x3f70d862	0.94080174
19	0x3f669fe2	0.9008771
20	0x3f50167b	0.812843
21	0x3f7e84b5	0.99421245
22	0x3f308790	0.6895685
23	0x3f372d8e	0.71553886
24	0x3f4e341e	0.80548275
25	0x3f648384	0.89263177
26	0x3f5d62ec	0.8647907
27	0x3f6793c2	0.90459836
28	0x3f6d8671	0.92783266
29	0x3f460eee	0.7736653
30	0x3f5f1631	0.87143236
31	0x3f4f85f1	0.81063753
32	0x3f669dc9	0.9008451
33	0x3f4d99aa	0.803126
34	0x3f815543	1.0104145
35	0x3f2d0da1	0.6759892
36	0x3f89be35	1.0761172
37	0x3f350510	0.7071085
38	0x3f36073e	0.711048
39	0x3f30bc82	0.6903764
40	0x3f6965a9	0.91170746
41	0x3f5a3771	0.85240847
42	0x3f7b9b5a	0.9828392
43	0x3f380ce6	0.7189468
44	0x3f520f0b	0.82054204
45	0x3f452a8d	0.7701805
46	0x3f2e769c	0.68149734
47	0x3f3eda95	0.7455228
48	0x3f507453	0.81427497
49	0x3f6ebb12	0.93254197
50	0x3f604d1e	0.8761767
51	0x3f4358b4	0.76307225
52	0x3f83650a	1.026521
53	0x3f7363fa	0.9507443
54	0x3f36f36f	0.714652
55	0x3f62bd3c	0.8857
56	0x3f51b8e9	0.81922776
57	0x3f780b11	0.96891886
58	0x3f015f6a	0.50536215
59	0x3f4ad7ca	0.7923552
60	0x3f81ca3a	1.013984
61	0x3f4c8b7a	0.79900324
62	0x3f4cbcac	0.7997539
63	0x3f4e333a	0.80546916
64	0x3f1c9018	0.6115737
65	0x3f2b173c	0.6683233
66	0x3f807b43	1.0037616
67	0x3f349b10	0.70549107
68	0x3f73aa30	0.9518156
69	0x3f82deb3	1.0224212
70	0x3f2e09ca	0.67983687
71	0x3f177f2e	0.59178436
72	0x3f81b10b	1.0132154
73	0x3f6b80cd	0.9199341
74	0x3f520c85	0.82050353
75	0x3f3e34c2	0.7429925
76	0x3f2315d6	0.63705194
77	0x3f435f36	0.76317155
78	0x3f4540b0	0.7705183
79	0x3f2294c4	0.6350825
80	0x3f89f723	1.0778545
81	0x3f415634	0.7552216
82	0x3f40ed68	0.75362253
83	0x3ec9c488	0.39407754
84	0x3f28339a	0.6570374
85	0x3f3f0e4b	0.74631184
86	0x3f42cf7a	0.76097834
87	0x3f28ea25	0.65982276
88	0x3f4eab9b	0.807306
89	0x3f73e3bb	0.95269364
90	0x3f57b05f	0.84253496
91	0x3f39d77f	0.72594446
92	0x3f40b6cb	0.7527892
93	0x3f187e62	0.59567845
94	0x3f8493ed	1.0357643
95	0x3f53772a	0.82603705
96	0x3f3ce2ba	0.7378346
97	0x3f26fcde	0.65229595
98	0x3f6f58d0	0.9349489
99	0x3f1c0cec	0.6095722
100	0x3f82183f	1.0163649
101	0x3f91bbc9	1.1385432
102	0x3f70965a	0.9397942
103	0x3f8840c5	1.0644766
104	0x3f5b4716	0.85655344
105	0x3f43ebdb	0.7653176
106	0x3eff2fcc	0.49841154
107	0x3f1fd809	0.6243902
108	0x3f4d4b80	0.8019333
109	0x3f1cc503	0.61238116
110	0x3f2b11a3	0.66823786
111	0x3f36e386	0.71440923
112	0x3f174eef	0.5910482
113	0x3f103f3a	0.56346476
114	0x3f53c02b	0.827151
115	0x3f360c70	0.7111273
116	0x3f1d37f5	0.6141351
117	0x3efd2490	0.49441957
118	0x3f7f63a9	0.99761444
119	0x3f6e7ea7	0.93162006
120	0x3f256120	0.64601326
121	0x3f19ca08	0.600739
122	0x3f366b9e	0.7125796
123	0x3f5a0e56	0.85178125
124	0x3f53aed1	0.82688624
125	0x3f6c8e89	0.9240499
126	0x3f8831ad	1.064016
127	0x3f73af5d	0.9518946
128	0x3f3a5ed1	0.7280093
129	0x3f976062	1.1826289
130	0x3f40907e	0.7522048
131	0x3f30521f	0.68875307
132	0x3f582659	0.84433514
133	0x3f88f322	1.0699198
134	0x3f491801	0.7855225
135	0x3f70dfd0	0.9409151
136	0x3f82fc0e	1.0233171
137	0x3f4fb336	0.8113283
138	0x3f778c10	0.96698093
139	0x3f6b2219	0.91848904
140	0x3f6d383b	0.92663926
141	0x3f78d43f	0.9719886
142	0x3f98ebfc	1.1947017
143	0x3f8bb4e8	1.0914583
144	0x3f8bd633	1.0924743
145	0x3f480672	0.78134835
146	0x3f83a2b6	1.028403
147	0x3f824e5f	1.0180167
148	0x3f3116f8	0.6917567
149	0x3f95af7d	1.169418
150	0x3f335298	0.70047903
151	0x3f95d091	1.1704274
152	0x3f628d8b	0.8849723
153	0x3f7a7223	0.9783041
154	0x3f47a890	0.7799158
155	0x3f9c8cae	1.2230432
156	0x3f8b76ef	1.0895671
157	0x3f2bb0ec	0.67066836
158	0x3f3efbbd	0.7460287
159	0x3f42d73c	0.7610967
160	0x3f82d160	1.0220146
161	0x3f7f4055	0.9970754
162	0x3f810e0e	1.0082414
163	0x3f86dda5	1.053639
164	0x3f83a6c8	1.0285273
165	0x3f792aa5	0.97330695
166	0x3f783d3c	0.96968436
167	0x3f734e6e	0.9504155
168	0x3f56a7cb	0.8384978
169	0x3f7c3439	0.98517185
170	0x3f78ced2	0.9719058
171	0x3f76ea2a	0.96451056
172	0x3f737540	0.95100784
173	0x3f7512c8	0.9573178
174	0x3f7b7c21	0.9823628
175	0x3f6fef2a	0.9372431
176	0x3f9e1a69	1.235181
177	0x3f7a5d9a	0.97799075
178	0x3fa105d6	1.2579906
179	0x3f454074	0.7705147
180	0x3f972982	1.1809542
181	0x3f8cdcb3	1.1004852
182	0x3f495f13	0.78660697
183	0x3f92d189	1.1470195
184	0x3f4fe64f	0.812108
185	0x3f9a4819	1.2053252
186	0x3f89cd32	1.0765746
187	0x3f608154	0.8769734
188	0x3f9060f8	1.1279593
189	0x3f96e954	1.1789956
190	0x3f82a20a	1.02057
191	0x3f785b30	0.9701414

arr_1 f4 [784, 64]
0	0xbd3dce36	-0.046339236
1	0x3d8f2fbe	0.06991528
2	0xbd87ea8f	-0.066365354
3	0x3c93470d	0.017978216
4	0x3d07e008	0.033172637
5	0x3ce3a015	0.027786294
6	0xbd570c64	-0.05250205
7	0x3db1da55	0.08684222
8	0xbd719f64	-0.058989897
9	0xbd10ab91	-0.03531987
10	0x3d28f8eb	0.04125301
11	0x3d195f63	0.037444483
12	0x3daf4d5e	0.085596785
13	0xbdd50d5e	-0.1040294
14	0xbc563075	-0.0130730765
15	0xbc9940fb	-0.018707743
16	0x3c8afc39	0.016965972
17	0xbce97010	-0.028495818
18	0x3d18f232	0.03734035
19	0xbd26055f	-0.040532466
20	0x3d654892	0.05597741
21	0x3d3137aa	0.043265976
22	0xbd6c2a34	-0.057657436
23	0xbd7f48f3	-0.06232543
24	0x3b866430	0.0041012987
25	0x3d3ab0d2	0.045578785
26	0xbd9703ee	-0.073737964
27	0x3cb7e4ec	0.022448026
28	0xbd944f85	-0.0724173
29	0x3d349c40	0.044094324
30	0x3d888c95	0.06667439
31	0xbd038acd	-0.032114793
32	0x3ccf82c6	0.025330912
33	0xbd417971	-0.047234956
34	0xbd8aa14f	-0.067690484
35	0xbd9b8382	-0.075934425
36	0xbd82efc4	-0.06393388
37	0xba5a53b0	-0.00083285104
38	0x3c8da234	0.017289259
39	0x3d222c30	0.03959292
40	0x3d3d8b1b	0.04627524
41	0xbd0c55ec	-0.03426163
42	0x3d800ced	0.062524654
43	0x3bca21e5	0.0061685913
44	0xbcf38524	-0.029726572
45	0x3b6edb6f	0.003644671
46	0x3d29a75c	0.041419372
47	0x3c903f9c	0.017608456
48	0xbc598c7e	-0.013278125
49	0xbc67f6ce	-0.014157964
50	0x3bdd0569	0.0067450297
51	0xbd43f5ad	-0.047841717
52	0x3beceb90	0.0072302297
53	0xbcec221c	-0.028824858
54	0x3b90862e	0.0044105267
55	0xbd78f73b	-0.060782652
56	0x3d50168a	0.050802745
57	0x3d5c6494	0.053806856
58	0xbd8d97f8	-0.06913751
59	0xbd366d7e	-0.044538014
60	0xbd3a27e8	-0.045448214
61	0xbd0bc22e	-0.03412073
62	0x3ce8d92d	0.02842387
63	0x3d588932	0.052865215
64	0x3d41bf1d	0.0473014
65	0x3d97a206	0.074039504
66	0xbdd44b25	-0.10365895
67	0xbd1dab8f	-0.03849369
68	0x3da17f41	0.078856
69	0x3d5c4501	0.053776745
70	0xbbbb4cbd	-0.005715935
71	0xbd5b8f42	-0.05360342
72	0x3d8719c0	0.06596708
73	0x3d711b25	0.058863778
74	0xbd5a8cb6	-0.05335685
75	0xbb9efaf9	-0.0048516956
76	0x3cf56034	0.0299531
77	0x3db5d8b8	0.088792264
78	0x3c56903f	0.013095914
79	0x3d1250f8	0.03572175
80	0xbd3be9bd	-0.045877207
81	0xbde5be0e	-0.11217891
82	0xbc7994b7	-0.01523321
83	0xbd3bb161	-0.04582346
84	0x3d963d5c	0.07335922
85	0xbd192531	-0.037388984
86	0x3de44744	0.11146405
87	0xbbc14d5c	-0.0058991145
88	0xbd1cf9ac	-0.038324043
89	0x3b8de2fe	0.004330038
90	0x3d334fc5	0.043777246
91	0x3d6cdf37	0.05783006
92	0xbce5f9ba	-0.02807318
93	0x3dea98eb	0.11454948
94	0xbd582b82	-0.052775867
95	0xbbe0b875	-0.0068579265
96	0xbd1f0829	-0.03882614
97	0x3c779ecc	0.015113544
98	0xbd485eb0	-0.048918426
99	0xbda4e3c8	-0.08051258
100	0x3d90a04c	0.07061824
101	0x3d4a045a	0.049320556
102	0x3d483d7f	0.048886772
103	0xbcb758d5	-0.022381226
104	0x3d18cde9	0.037305746
105	0xbd859dd9	-0.06524248
106	0x3d9bb8af	0.07603585
107	0xbc9c7511	-0.01909879
108	0xbd84cec8	-0.06484753
109	0x3dd8789b	0.10569879
110	0x3d89a4a5	0.067208566
111	0x3d34d2d8	0.04414639
112	0x3c00e393	0.007866758
113	0x3d3875dd	0.04503428
114	0xbb6866f1	-0.0035461748
115	0xbcc70b92	-0.02429751
116	0x3d81a37e	0.06330012
117	0xbdffa078	-0.12481779
118	0xbdbdcdc4	-0.09267762
119	0xbc073cb2	-0.008254217
120	0xbd3df48c	-0.046375796
121	0x3d660ca4	0.0561644
122	0x3d15fd99	0.036618803
123	0xbd51241a	-0.05105982
124	0xbd8acaab	-0.06776937
125	0xbd8fd1fd	-0.07022474
126	0x3d410b2d	0.0471298
127	0x3d1f3e92	0.03887803
128	0xbe6071c8	-0.21918404
129	0x3d39a031	0.045318786
130	0xbdfe19b5	-0.12407247
131	0x3d3f7701	0.04674435
132	0xbdaea00d	-0.08526621
133	0x3dfa3d57	0.12218731
134	0x3cd1b9f6	0.025601368
135	0x3a0661f0	0.0005126288
136	0xbd60ae30	-0.05485362
137	0xbd8ae580	-0.06782055
138	0x3cd6ba5d	0.026211912
139	0x3d9f12a9	0.07767231
140	0x3d8d7f6a	0.06909068
141	0x3e949edf	0.2902746
142	0xbce1cdec	-0.027564012
143	0x3d172d68	0.036908537
144	0xbdd158e1	-0.102220304
145	0xbe0b889a	-0.13626328
146	0xbcd2289a	-0.025654126
147	0xbd53621c	-0.051607236
148	0xbda6e5cb	-0.08149298
149	0x3dde7b25	0.10863332
150	0x3e02b016	0.12762484
151	0x3cb3e227	0.021958424
152	0xbd2d2994	-0.04227598
153	0x3d9d0c2c	0.07668337
154	0x3cb8ad74	0.022543646
155	0x3ca34eee	0.019935098
156	0x3d22c7f0	0.039741457
157	0xbd3b4721	-0.04572213
158	0x3d45213f	0.04812741
159	0xbd7c41d0	-0.0615862
160	0x3e71d9c5	0.23618229
161	0x3da272cb	0.07932051
162	0xbb9097c3	-0.0044126227
163	0xbd1d8044	-0.0384524
164	0xbc75d9e3	-0.0150055615
165	0xbc6f8e9b	-0.014621402
166	0x3b940fdd	0.0045184926
167	0x3b92fd54	0.0044857655
168	0xbe956faf	-0.2918677
169	0xbc264be4	-0.01014993
170	0x3c428ae6	0.011873936
171	0x3d9a54b3	0.07535686
172	0xbd305e34	-0.04305859
173	0x3dbf487c	0.09339997
174	0x3b45b980	0.003017038
175	0x3ca6cbb1	0.0203608
176	0x3d4ff678	0.05077216
177	0xbd528c25	-0.051403183
178	0xbd28e975	-0.041238267
179	0xbbe2dd1e	-0.006923332
180	0x3cc4d1af	0.024025766
181	0xbdb1a5d9	-0.08674211
182	0xbc84b119	-0.016197728
183	0xbdbda992	-0.092608586
184	0xbd92ad0f	-0.071619146
185	0xbca9c52d	-0.020723904
186	0x3d7653fe	0.060138695
187	0xbbaa5586	-0.0051981835
188	0xbd3081a0	-0.04309237
189	0x3d88d3f9	0.066810556
190	0xbe031fcc	-0.12805098
191	0xbd97649e	-0.07392238
192	0xbe88b338	-0.26699233
193	0xbd21bbcb	-0.039485734
194	0xbe140ead	-0.14458723
195	0x3badc91b	0.0053035147
196	0xbdb58cd8	-0.088647544
197	0x3e8be405	0.27322403
198	0xbd058076	-0.032593213
199	0xbcd05268	-0.02542992
200	0xbd67f8d8	-0.0566338
201	0xbd4ba083	-0.049713623
202	0x3e1ddf86	0.15417299
203	0x3c9e37e3	0.019313758
204	0x3c262a7c	0.010141965
205	0x3dcd5528	0.10026008
206	0x3bf5c8e5	0.007500755
207	0x3d4902e4	0.049075022
208	0xbe92ec28	-0.28695798
209	0xbe8d31ed	-0.27577153
210	0x3dd408ad	0.10353217
211	0x3d4467d3	0.047950577
212	0xbc9dc384	-0.019258268
213	0x3d1ae56f	0.03781646
214	0x3dd4b6d5	0.10386435
215	0x3dc56b0c	0.09639558
216	0x3ccda12c	0.025101267
217	0xbc06c825	-0.008226429
218	0xbe19f98d	-0.15036602
219	0x3da3a7f9	0.079910226
220	0xbddc261d	-0.10749457
221	0x3df83fc3	0.121215366
222	0xbd747220	-0.05967915
223	0xbcb19dcb	-0.021681687
224	0x3dbc3dee	0.091915
225	0x3d9dbbda	0.077018455
226	0xbda95cea	-0.08269675
227	0x3c37e832	0.011224793
228	0xbdd0e8bc	-0.102006406
229	0xbd5f3a6e	-0.054499082
230	0x3d8adee1	0.06780792
231	0x3d4741dd	0.048646796
232	0xbea214d2	-0.3165651
233	0xbbe3d9d3	-0.006953457
234	0x3d214c45	0.039379377
235	0xbce1109a	-0.027473737
236	0xbd46e2b2	-0.048556037
237	0x3e439a45	0.19101818
238	0x3d9cd582	0.07657911
239	0x3c0080b1	0.007843182
240	0xbd62613c	-0.05526851
241	0xbd89d1ad	-0.067294456
242	0xbd2eeed0	-0.042708218
243	0xbd94b943	-0.07261898
244	0x3da5a75c	0.08088562
245	0xbceeb670	-0.029139727
246	0xbca63937	-0.020290954
247	0xbe859020	-0.2608652
248	0xbe5298de	-0.20566127
249	0x3d20cab4	0.039255813
250	0x3c65e0c8	0.014030643
251	0xbdb89bbb	-0.09014078
252	0xbdb774a4	-0.08957794
253	0x3e44c5e7	0.19216119
254	0xbdb2373b	-0.087019406
255	0x3cca7294	0.024712838

arr_2 f4 [64]
0	0xbe8b8e0a	-0.27256805
1	0x3e3c60fd	0.18396373
2	0xbe7d9bde	-0.2476649
3	0xbe9f8f37	-0.31163952
4	0xbe1f4a70	-0.1555574
5	0x3d8fd8fb	0.070238076
6	0xbe5cd842	-0.21566871
7	0xbd71556d	-0.05891936
8	0x3cc8d1fb	0.024514189
9	0xbe417aa3	-0.18894438
10	0xbd06b4c7	-0.032887246
11	0xbda90eb8	-0.082547605
12	0xbd95ef23	-0.07321002
13	0xbce41b1f	-0.027844964
14	0x3e488029	0.19580139
15	0x3dbbe4c7	0.09174495
16	0x3dbe033a	0.09277959
17	0xbe5feecc	-0.21868438
18	0x3cea0163	0.028565114
19	0x3c95a55e	0.01826733
20	0xbe9df676	-0.30852097
21	0x3e2f2a02	0.17105868
22	0xbe9964d9	-0.29959753
23	0x3e300e05	0.17192848
24	0xbdeb9e45	-0.11504797
25	0xbca91ce2	-0.020643655
26	0xbe60dc55	-0.2195905
27	0x3e64e4e9	0.22352947
28	0x3db7cde3	0.08974817
29	0xbea8c770	-0.3296466
30	0xbe819c3a	-0.25314504
31	0xbe74ab5b	-0.23893492
32	0x3cb5e606	0.02220441
33	0xbb672b2e	-0.003527354
34	0x3c08831b	0.008332039
35	0x3d5e22d1	0.054232422
36	0x3cfc82f4	0.030824162
37	0xbcde0ff8	-0.027107224
38	0xbcf72f95	-0.030174056
39	0xbd499cb4	-0.04922171
40	0xbe23a393	-0.15980367
41	0xbc761719	-0.015020155
42	0xbcec2625	-0.028826782
43	0xbd133c09	-0.035945926
44	0xbd49320a	-0.049119987
45	0xbd2d0e37	-0.042249884
46	0xbc906b75	-0.017629365
47	0xbd807e53	-0.062740944
48	0x3e717589	0.23579992
49	0xbcc4fcae	-0.024046268
50	0x3e84e063	0.25952443
51	0xbe6cf5f4	-0.23140699
52	0x3e3a23ca	0.18177715
53	0x3dcebecc	0.10094985
54	0xbe5a99c1	-0.21347715
55	0x3e173329	0.1476561
56	0xbe40f9ba	-0.18845263
57	0x3e525c42	0.20543006
58	0x3da29912	0.07939352
59	0xbdfbca85	-0.12294487
60	0x3e03496b	0.12820975
61	0x3e3793f7	0.17927538
62	0x3cb31eb9	0.021865236
63	0xbcf95341	-0.030435206

arr_3 f4 [64, 64]
0	0x3eb6dfa8	0.3571751
1	0xbe296c3f	-0.16545199
2	0xbe857271	-0.26063874
3	0x3e07c119	0.13257255
4	0xbe6f98cc	-0.23398131
5	0x3d125b8d	0.03573184
6	0x3d5b6d7d	0.053571213
7	0xbbd233d7	-0.006414871
8	0xbe134d42	-0.1438494
9	0xbd6e2ad6	-0.05814632
10	0xbcb17c57	-0.021665735
11	0xbe1a0321	-0.15040256
12	0x3e810333	0.25197753
13	0xbeaee159	-0.34156302
14	0xbd8da785	-0.069167174
15	0xbdf16d02	-0.1178837
16	0x3d7c33be	0.061572783
17	0xbe128af2	-0.14310816
18	0x3dfd8acc	0.12379989
19	0xbbceb91c	-0.006308688
20	0xbda67fe7	-0.08129864
21	0xbe4d6a69	-0.20060124
22	0x3bb31a64	0.0054657925
23	0xbccdb870	-0.02511236
24	0xbd9e133a	-0.07718511
25	0x3e07042d	0.13185187
26	0xbe74ff38	-0.23925483
27	0xbe139e17	-0.14415775
28	0xbe5a51a9	-0.21320213
29	0xbe63d6bb	-0.22249882
30	0xbe781cd0	-0.24229741
31	0xbeaf286a	-0.3421052
32	0x3e18be14	0.14916259
33	0x3e199775	0.14999183
34	0x3ce17e8d	0.027526164
35	0x3b060936	0.0020452267
36	0xbd875ec6	-0.066098735
37	0xbe73dfd3	-0.23815851
38	0xbdcb54d4	-0.09928289
39	0xbb282908	-0.0025659222
40	0xbeb5f49b	-0.35538182
41	0x3dad6553	0.08466592
42	0xbd83ccf1	-0.06435574
43	0xbc429377	-0.011875979
44	0xbe81fe4d	-0.2538933
45	0x3e03fe8a	0.12890068
46	0xbdd770c7	-0.105195574
47	0xbd152a88	-0.036417514
48	0x3c36a2cb	0.011147211
49	0xbe134f1f	-0.14385651
50	0x3e4f9679	0.20272245
51	0xbea66c04	-0.32504284
52	0xbd3e30d6	-0.046433292
53	0xbe655bb5	-0.22398265
54	0xbe1f37ff	-0.15548705
55	0xbdff79ea	-0.12474425
56	0xbef8e9f8	-0.48616004
57	0xbdd12351	-0.10211814
58	0x3cf9c369	0.030488687
59	0x3dacf8fd	0.08445928
60	0x3e89d66c	0.26921403
61	0xbbe6d990	-0.0070449784
62	0xbd81d297	-0.06338995
63	0xbd71c846	-0.059028886
64	0x3e4212f7	0.18952547
65	0x3d23adcb	0.039960664
66	0xbdc09ff7	-0.09405511
67	0x3d662247	0.056185033
68	0xbd2c29ab	-0.042031925
69	0xbe5aae7b	-0.21355622
70	0xbe308fbc	-0.1724233
71	0xbe69e86c	-0.22842568
72	0xbddff5fe	-0.10935591
73	0xbe0eafd0	-0.13934255
74	0xbc50203a	-0.012702996
75	0x3c31e71c	0.010858323
76	0xbe90286a	-0.28155833
77	0x3e8e178e	0.27752346
78	0x3e8a8b05	0.27059188
79	0xbebcaf2c	-0.36852396
80	0x3cc7ff08	0.0244136
81	0xbd4863cb	-0.048923295
82	0xbe576c3b	-0.2103738
83	0x3c8f430c	0.017488025
84	0xbe481d75	-0.19542487
85	0xbe8f19e5	-0.27949443
86	0xbe357215	-0.177193
87	0xbe9e73b0	-0.30947638
88	0x3de5338c	0.111914724
89	0x3db26517	0.087106876
90	0xbe904963	-0.2818099
91	0x3cae93fc	0.021310799
92	0x3e07b622	0.13253072
93	0xbdc6d400	-0.097084045
94	0xbe60741b	-0.2191929
95	0xbeb633b4	-0.3558632
96	0xbebc36ef	-0.3676066
97	0xbe3c49d0	-0.18387532
98	0x3d8b5195	0.0680267
99	0xbe1e4dd0	-0.1545937
100	0x3e46560f	0.19368766
101	0xbdd5ef23	-0.10446002
102	0x3e851ea7	0.25999948
103	0x3d39a923	0.045327317
104	0xbdccf04c	-0.100067705
105	0xbe404af3	-0.18778591
106	0xbd05ca85	-0.03266384
107	0xbe905ca1	-0.2819567
108	0xbd41663e	-0.047216646
109	0x3dca785c	0.09886238
110	0x3ec50252	0.38478333
111	0x3e1e25a4	0.15444046
112	0xbe9e99c7	-0.30976698
113	0x3ba2dc9a	0.0049701454
114	0xbbcc2ee2	-0.006231175
115	0xbd07a272	-0.033113904
116	0x3f030f69	0.5119539
117	0x3e0a1d0d	0.13487644
118	0x3e5f29d0	0.21793294
119	0x3de6e4a1	0.11274076
120	0xbe0080a3	-0.12549071
121	0xbd9f37cc	-0.07774314
122	0xbe23c282	-0.15992168
123	0x3e8e5108	0.27796197
124	0x3ca81717	0.020518823
125	0xbda5b930	-0.08091962
126	0xbbb47162	-0.0055066803
127	0xbe7504ae	-0.23927566
128	0x3db567bb	0.08857676
129	0xbef4d172	-0.47816044
130	0xbe98e779	-0.298641
131	0x3e8104b2	0.25198895
132	0xbe8e3823	-0.27777204
133	0x3e1f5c22	0.1556249
134	0xbb1986d9	-0.0023426323
135	0x3d6f1f6e	0.058379583
136	0xbe142727	-0.1446806
137	0x3eb98a66	0.36238402
138	0xbe49b8dd	-0.19699426
139	0xbe378196	-0.17920527
140	0x3e23a5ed	0.15981264
141	0xbf10f9c8	-0.56631136
142	0xbe658284	-0.22413069
143	0x3da7e279	0.08197493
144	0x3d2dcf7b	0.042434197
145	0x3e01c7f8	0.12673938
146	0x3e42eccd	0.19035645
147	0xbe5ab522	-0.21358159
148	0xbeb82c5d	-0.35971346
149	0xbe97d13c	-0.2965182
150	0xbe83552c	-0.25650918
151	0x3e5ec91b	0.21756403
152	0xbede240e	-0.43386883
153	0x3e54d66e	0.20784923
154	0xbded666d	-0.11591802
155	0xbe162b0b	-0.14664857
156	0xbf05ddf2	-0.52291787
157	0xbce6de92	-0.028182302
158	0xbd39eb4e	-0.04539042
159	0xbe3f1fdc	-0.18664497
160	0x3ec5665b	0.38554654
161	0x3e929f61	0.2863722
162	0x3e2c3c8e	0.16819975
163	0x3d9f25c7	0.07770877
164	0x3d2d32e1	0.04228485
165	0xbe0483f2	-0.12940958
166	0xbc9f4ca1	-0.01944572
167	0x3dafffa6	0.08593683
168	0xbd078c29	-0.03309265
169	0x3eaa98d1	0.33319715
170	0xbed29c1e	-0.41134733
171	0x3c30fbe4	0.010802243
172	0xbe51fe72	-0.2050722
173	0x3eb5eeaf	0.35533664
174	0x3e857bf4	0.2607113
175	0xbe38e219	-0.18055
176	0xbbf10464	-0.0073552597
177	0x3dddda83	0.108326934
178	0x3e871105	0.26380172
179	0xbeab509d	-0.3345994
180	0xbd3c6237	-0.045992102
181	0xbe48f64a	-0.19625202
182	0xbe87b711	-0.26506856
183	0xbebaac05	-0.36459365
184	0xbe5c0d5c	-0.21489471
185	0x3e985770	0.2975421
186	0x3eb117ca	0.34588462
187	0x3ef2b679	0.4740484
188	0xbce13681	-0.02749181
189	0x3d3165b3	0.04330988
190	0x3d2cdbb3	0.04220171
191	0x3e772d53	0.24138384
192	0x3f1d9f90	0.615716
193	0xbc43b879	-0.011945837
194	0xbe4b0dae	-0.19829437
195	0x3ced8eae	0.028998699
196	0xbe92e152	-0.2868753
197	0xbe657f75	-0.22411902
198	0x3eb1b375	0.34707227
199	0x3e0d9c9c	0.13829273
200	0xbe595ceb	-0.21226852
201	0xbe8b2a2f	-0.2718062
202	0xbd8c6a58	-0.06856221
203	0x3cab3cdd	0.020903045
204	0xbde79ad6	-0.113088295
205	0xbe789122	-0.24274114
206	0xbe4fe877	-0.20303522
207	0x3e47973f	0.1949129
208	0x3d159f88	0.036529094
209	0xbd0c7faf	-0.034301456
210	0xbe5a1903	-0.21298604
211	0x3f1e43dc	0.61822295
212	0x3dc6f00b	0.09713753
213	0x3de462d7	0.11151665
214	0x3e9e037f	0.30862042
215	0x3e62e75e	0.22158572
216	0x3ca5032d	0.020143116
217	0xbe481a3d	-0.19541259
218	0xbe281882	-0.16415599
219	0xbc69f706	-0.014280086
220	0xbdb43b2b	-0.08800348
221	0xbe301843	-0.17196755
222	0xbea83400	-0.32852173
223	0xbe0b8587	-0.13625155
224	0x3d971e30	0.07378805
225	0xbde36218	-0.11102694
226	0xbdf6333a	-0.120214894
227	0x3da67ae7	0.081289105
228	0xbe4d7d1d	-0.20067258
229	0xbe884e3f	-0.26622197
230	0xbe63d607	-0.22249614
231	0xbe102b9a	-0.14079133
232	0xbdbd0393	-0.09229197
233	0xbe8cabd9	-0.2747486
234	0xbd4d4b59	-0.050120685
235	0x3ea8cc20	0.32968235
236	0xbd1a8ebe	-0.037733786
237	0xbe9ea0ca	-0.30982047
238	0xbeefda3c	-0.46846187
239	0x3ef65190	0.48109102
240	0x3e0233a8	0.12715018
241	0xbe345ef7	-0.17614351
242	0xbe2c1d91	-0.16808154
243	0xbe6c053e	-0.23048875
244	0xbe981adb	-0.2970799
245	0xbd119595	-0.035543043
246	0xbe6b1f79	-0.22961225
247	0xbf001327	-0.50029224
248	0xbe731a00	-0.23740387
249	0xbe0ba07a	-0.13635436
250	0xbe868138	-0.2627046
251	0xbe71e5f7	-0.23622881
252	0x3ea3c8ab	0.31989035
253	0xbdf8fa36	-0.12157099
254	0xbea0e8d6	-0.3142764
255	0xbe812f20	-0.25231266

arr_4 f4 [64]
0	0xbec6e151	-0.38843778
1	0xbea9d30e	-0.33168834
2	0x3b7677a2	0.0037607928
3	0xbe96cae3	-0.29451665
4	0xbd455dc3	-0.04818512
5	0x3cb7a57b	0.022417774
6	0xbea3ed78	-0.32017112
7	0xbed10383	-0.40822992
8	0x3c58915e	0.013218252
9	0xbda3fac8	-0.08006817
10	0xbe37d013	-0.17950468
11	0xbe8396b3	-0.25700912
12	0xbeb9d5bb	-0.36295876
13	0xbe7286a6	-0.23684177
14	0xbe6afef6	-0.22948822
15	0xbebad809	-0.36492947
16	0x3d9f7419	0.07785816
17	0xbe7aaa8d	-0.24479122
18	0xbe7c4b20	-0.24638033
19	0xbf1b1f04	-0.605942
20	0xbeaf99cd	-0.34297028
21	0xbe81e391	-0.25368932
22	0xbe74c48a	-0.23903099
23	0xbeae2d3c	-0.34018886
24	0xbe4552fb	-0.19269936
25	0xbd41c524	-0.04730715
26	0xbe213ffc	-0.15747064
27	0xbe8c5212	-0.27406365
28	0xbe7d2697	-0.24721752
29	0xbecf04bb	-0.40433297
30	0x3d128696	0.035772882
31	0xbe322459	-0.17396678
32	0xbe863b95	-0.26217332
33	0xbeb206e3	-0.3477088
34	0xbd853abe	-0.06505345
35	0xbec7e797	-0.39043877
36	0x3c8628cb	0.016376873
37	0x3e0ddf3e	0.13854691
38	0xbd769aec	-0.06020634
39	0x3d840e01	0.064479835
40	0xbe12e324	-0.1434446
41	0xbe705189	-0.23468603
42	0xbf00692b	-0.50160474
43	0xbec05115	-0.3756186
44	0xbe4ad1ea	-0.19806638
45	0xbec67811	-0.38763478
46	0xbea9decb	-0.3317779
47	0xbe923acb	-0.2856048
48	0xbed163a8	-0.40896344
49	0xbedf839f	-0.43655106
50	0xbe31005d	-0.17285295
51	0xbe93e845	-0.28888145
52	0xbec5919c	-0.38587654
53	0xbf016e72	-0.5055915
54	0xbb1c7874	-0.0023875507
55	0xbd8c0c91	-0.06838334
56	0xbeb53f21	-0.35399726
57	0xbecc6d0f	-0.39926955
58	0xbe932990	-0.28742647
59	0xbe17c7d7	-0.14822327
60	0xbe314675	-0.17312033
61	0xbd9b8b27	-0.075949006
62	0x3d831ae3	0.064016126
63	0xbd450cfd	-0.04810809

arr_5 f4 [64, 64]
0	0x3da58518	0.08082026
1	0x3d079be3	0.03310765
2	0xbc802ed4	-0.01564733
3	0xbdb2f12e	-0.087374076
4	0xbda4ceb2	-0.080472365
5	0x3d03f5eb	0.032216948
6	0xbc6ec208	-0.014572628
7	0xbd18f967	-0.037347224
8	0xbc0d5e38	-0.0086284205
9	0x3d8fb6ec	0.070173115
10	0xbcbc127a	-0.022958029
11	0x3e2365b5	0.15956767
12	0xbcd111bc	-0.025521152
13	0x3e6344f6	0.22194275
14	0x3dbef4d3	0.0932404
15	0xbab7d942	-0.001402654
16	0xbca29a94	-0.0198491
17	0x3aadc537	0.0013257627
18	0xbde3b896	-0.11119191
19	0xbd042168	-0.03225842
20	0xbc7b3645	-0.015332763
21	0x3dafc82c	0.08583102
22	0x3d1cd128	0.038285404
23	0x3d0da70c	0.034583136
24	0x3db9ff84	0.09081939
25	0x3dba8007	0.091064505
26	0xbde20a31	-0.110371
27	0xbd9223f9	-0.071357675
28	0x3cabe36e	0.02098247
29	0x3c6aea85	0.01433814
30	0x3ce166d4	0.027514853
31	0xbda1ecb9	-0.079064794
32	0xbd6fdebc	-0.058562025
33	0x3d57e0ed	0.05270474
34	0x3d4b20fa	0.049591996
35	0xbd907e7e	-0.070553765
36	0xbda73587	-0.081645064
37	0x3d969d57	0.07354229
38	0x3ce09f81	0.027419807
39	0xbd2ecc63	-0.042675387
40	0x3c2fe7e6	0.010736441
41	0xbdbd72fe	-0.09250449
42	0xba9e0f50	-0.0012059007
43	0x3d3c88cf	0.04602891
44	0xbd1feae1	-0.039042357
45	0x3b1b5c82	0.0023706262
46	0x3d434a81	0.047678474
47	0xbd7a760e	-0.061147742
48	0x3e4c61b1	0.19959141
49	0xbdb58fbf	-0.08865308
50	0x3d37d508	0.044880897
51	0x3d325c32	0.043544956
52	0xbf079bd7	-0.5297217
53	0xbdc45cd3	-0.09588017
54	0x3e569d68	0.20958483
55	0xbe837a5e	-0.25679296
56	0x3d8d58f4	0.06901732
57	0xbe95f09a	-0.29285127
58	0x3e67dab9	0.2264203
59	0x3e88d314	0.2672354
60	0xbcd3603b	-0.025802722
61	0xbe15df20	-0.14635897
62	0xbda59d45	-0.080866374
63	0xba16aad9	-0.0005747504
64	0xbd2a1af2	-0.041529603
65	0x3d0ed818	0.03487405
66	0xbdb96a59	-0.09053487
67	0x3e1ea9e9	0.15494503
68	0x3b2db8f7	0.0026507953
69	0xbe06d836	-0.13168415
70	0x3d89d04b	0.06729182
71	0x3d94c99f	0.07265019
72	0xbcbe433f	-0.023225425
73	0xbdf0d731	-0.117597945
74	0x3d907d4e	0.0705515
75	0xbe72c7ef	-0.23709081
76	0xbcbae2a4	-0.022813149
77	0x3d6052be	0.05476641
78	0xbde023a7	-0.109443
79	0xbd3b44e2	-0.04571999
80	0x3ded36bd	0.11582706
81	0xbd17029f	-0.036867734
82	0x3deaf4d4	0.114724785
83	0x3dc39010	0.09548962
84	0xbca4fec8	-0.02014102
85	0x3e25bdd8	0.16185701
86	0x3da4f980	0.08055401
87	0xbd652ef4	-0.05595298
88	0x3e39b0e2	0.18133882
89	0x3da19e51	0.078915246
90	0xbe1b81e7	-0.15186273
91	0x3e5e2407	0.21693431
92	0x3e0c485d	0.1369948
93	0x3db5049a	0.08838768
94	0xbd87d00d	-0.066314794
95	0xbe1b6aa8	-0.15177405
96	0x3d13eab4	0.036112502
97	0xbd545276	-0.051836453
98	0x3dcd4ab8	0.10024017
99	0xbe3c2e2b	-0.18376987
100	0x3e644143	0.2229052
101	0xbe11ec7c	-0.14250368
102	0x3b2a0f48	0.002594905
103	0x3d0b3fc2	0.03399635
104	0xbcf26d90	-0.02959326
105	0x3dc6bd36	0.09704058
106	0x3d2e41b0	0.042543113
107	0xbe2d18be	-0.1690397
108	0x3dde4732	0.10853423
109	0xbdb0a738	-0.086256444
110	0x3c989501	0.018625738
111	0x3e0cbec9	0.13744654
112	0xbd0fcdeb	-0.035108488
113	0x3dcbc119	0.0994894
114	0xbc2c0fce	-0.010501815
115	0xbcfe9ce1	-0.031080665
116	0x3df47557	0.11936443
117	0xbbf8cb6b	-0.0075926087
118	0x3bd82172	0.006595784
119	0xbe8a24bc	-0.2698115
120	0x3b6daaaf	0.0036265065
121	0xbc3f5e0e	-0.011680139
122	0x3ddad57e	0.10685252
123	0xbcab901a	-0.020942736
124	0xbd8c7313	-0.06857886
125	0xbcd5dc36	-0.026105981
126	0xbdfdeaf2	-0.12398328
127	0xbe997e7e	-0.29979318
128	0xbd61e843	-0.055153143
129	0xbc8bbf1d	-0.017058903
130	0x3e876f9c	0.2645234
131	0x3e6fc274	0.23414022
132	0x3e301ad1	0.1719773
133	0xbc587829	-0.013212242
134	0xbd030f15	-0.031996805
135	0xbc027a40	-0.007963717
136	0xbe4c2d7f	-0.1993923
137	0xbe6d5ff8	-0.2318114
138	0xbda96988	-0.082720816
139	0x3bf890a0	0.0075856
140	0xbc16acce	-0.009196473
141	0xbeb94edd	-0.3619298
142	0xbe255389	-0.16145147
143	0xbc2ade41	-0.010428966
144	0xbc1b7ff4	-0.009490956
145	0x3c3e395e	0.011610357
146	0x3e78f569	0.24312367
147	0x3e89cc67	0.2691376
148	0xbd561379	-0.052264664
149	0x3cd172ff	0.02556753
150	0x3d24bfb9	0.040221903
151	0xbc4f122c	-0.01263861
152	0xbbd0f805	-0.0063772225
153	0xbcaff530	-0.02147922
154	0xbd8054f6	-0.06266205
155	0xbbe74131	-0.007057332
156	0x3d9b5c73	0.07585993
157	0x3db302e4	0.08740786
158	0xbd76d9f6	-0.060266457
159	0xbe994aae	-0.2993979
160	0xbd89bf69	-0.06725962
161	0x3cdc4a29	0.026890831
162	0x3dc83c23	0.09777095
163	0xbd1542c6	-0.036440633
164	0x3ecec266	0.4038269
165	0x3bd04fbc	0.0063571613
166	0x3d3296f2	0.043600984
167	0x3d81b3ed	0.06333146
168	0x3b82d270	0.0039923713
169	0x3f09dbc0	0.53850937
170	0x3d6670c7	0.056259897
171	0x3ca71631	0.020396324
172	0x3bda30fd	0.006658672
173	0x3dad224a	0.08453806
174	0xbea727c6	-0.32647532
175	0xbe6be751	-0.23037459
176	0x3d9be0f3	0.07611265
177	0xbe59fb2a	-0.21287218
178	0x3e1df01f	0.1542363
179	0x3d8dbdf8	0.06920999
180	0x3e93ec7b	0.28891358
181	0x3e1891a2	0.14899305
182	0xbecd965c	-0.40153778
183	0x3c8d1f5d	0.01722687
184	0x3de95da2	0.11394812
185	0xbc9fe06a	-0.019516189
186	0xbeb2b4ce	-0.34903568
187	0xbed2e067	-0.4118683
188	0x3dede674	0.11616221
189	0x3d934923	0.07191684
190	0x3e40d24a	0.18830219
191	0xbd6bc073	-0.05755658
192	0xbe17e5b1	-0.14833714
193	0x3e3c7025	0.18402155
194	0x3e0e6af4	0.13907987
195	0xbb424704	-0.002964438
196	0x3dff8329	0.12476189
197	0xbcc53829	-0.02407463
198	0x3e2a846f	0.16652082
199	0x3d545449	0.051838193
200	0xbe183681	-0.14864542
201	0x3e4f46f0	0.20241904
202	0xbcbf0687	-0.023318542
203	0x3e335288	0.17511952
204	0xbea31f0a	-0.31859618
205	0x3ebe7f95	0.37206712
206	0x3c98c3d7	0.018648071
207	0x3cd631ed	0.026146853
208	0xbd2ead5e	-0.042645805
209	0xbea2f919	-0.3183067
210	0x3d6d8aff	0.057993885
211	0xbd73caef	-0.059519704
212	0xbe0fbedd	-0.14037652
213	0xbd95c283	-0.07312491
214	0xbdc305aa	-0.09522565
215	0x3d9f0a02	0.07765581
216	0x3d40fabc	0.04711412
217	0x3e8b8d56	0.27256268
218	0xbd0583a6	-0.032596253
219	0xbd8681b5	-0.065677084
220	0x3d81411a	0.06311245
221	0x3e13364b	0.1437618
222	0x3d4724c4	0.048619047
223	0x3d7285d4	0.05920966
224	0xbd95126c	-0.07278904
225	0x3c1a54f3	0.009419668
226	0x3e2f30b5	0.17108424
227	0x3e2206d0	0.15822911
228	0x3e121c6a	0.14268652
229	0x3cdd9e3c	0.027052991
230	0xbcc6085d	-0.02417391
231	0xbd8e3a24	-0.06944683
232	0xbded4953	-0.11586251
233	0x3ce42949	0.027851718
234	0x3b2a9a9a	0.002603209
235	0x3dc9e721	0.098585375
236	0x3e95c9a4	0.29255402
237	0x3db8db21	0.090261705
238	0xbdaad8a5	-0.08342103
239	0xbd105427	-0.035236504
240	0x3d2a0fb5	0.041518886
241	0xbd4d4137	-0.05011102
242	0xbe84398e	-0.2582516
243	0xbeb35820	-0.35028172
244	0xbec92276	-0.39284104
245	0x3dcb6569	0.09931452
246	0x3e1abbf0	0.15110755
247	0xbec34cf2	-0.38144642
248	0x3d28524f	0.04109412
249	0xbea299de	-0.31758016
250	0x3e956415	0.2917792
251	0x3dea77ef	0.11448657
252	0x3d843b7f	0.064566605
253	0xbed39332	-0.4132324
254	0xbdd040eb	-0.10168632
255	0x3dc16492	0.094430104

arr_6 f4 [64]
0	0xbe69b736	-0.22823796
1	0xbdf18ae1	-0.11794067
2	0xbe5d6612	-0.21620968
3	0x3d35def1	0.044402067
4	0xbe2829ff	-0.1642227
5	0xbe72a40f	-0.23695396
6	0xbe95d936	-0.2926728
7	0xbd658ecc	-0.056044385
8	0xbe935041	-0.28772166
9	0xbd7b5b9a	-0.061366655
10	0xbe2de6aa	-0.16982523
11	0xbe8b2b73	-0.27181587
12	0xbd753950	-0.05986911
13	0xbe9c2937	-0.30500194
14	0xbe982cee	-0.2972178
15	0xbbe144c7	-0.006874654
16	0xbec3a5c7	-0.38212416
17	0xbeba6d57	-0.36411545
18	0xbd727ce4	-0.059201136
19	0xbdcb02cc	-0.09912643
20	0xbe3fa68f	-0.18715881
21	0xbbbd9392	-0.005785414
22	0xbe9ef108	-0.31043267
23	0xbe91a5af	-0.2844672
24	0xbe47301f	-0.1945195
25	0xbddbe51e	-0.1073706
26	0xbe0a7493	-0.13521032
27	0xbdc362a3	-0.09540298
28	0xbd93cf10	-0.072172284
29	0xbe67c48d	-0.22633572
30	0xbe03a6d1	-0.12856604
31	0xbe41e816	-0.1893619
32	0xbdcb0ef7	-0.09914964
33	0xbe499b0c	-0.19688052
34	0x3c2aa76a	0.010415891
35	0xbea5e526	-0.3240139
36	0x3d9be599	0.07612152
37	0xbe95f671	-0.29289582
38	0xbe93f207	-0.2889559
39	0xbe9e881f	-0.30963227
40	0xbdb4d3ad	-0.088294365
41	0xbe17209c	-0.14758533
42	0xbc8c936e	-0.017160144
43	0xbe8fe6db	-0.28105816
44	0xbe37c4cd	-0.17946167
45	0xbe6b56d4	-0.22982341
46	0xbea313aa	-0.3185094
47	0xbe824b48	-0.2544806
48	0xbe3e2e97	-0.1857246
49	0xbd8a264e	-0.06745587
50	0xbdfd9ae7	-0.12383061
51	0xbe729dcd	-0.23693009
52	0x3cd94d6b	0.026526174
53	0xbd49bcd7	-0.049252357
54	0xbe921a03	-0.2853547
55	0xbdea163c	-0.11430022
56	0xbe391c57	-0.18077217
57	0xbcfe9944	-0.031078942
58	0xbefd4275	-0.49464765
59	0xbe54a1ed	-0.20764895
60	0x3c6515f7	0.013982288
61	0xbe4dd3c2	-0.2010031
62	0xbe4d0ea6	-0.20025119
63	0xbe4732aa	-0.1945292

arr_7 f4 [64, 10]
0	0x3e0ee9b0	0.13956332
1	0xbe4634f8	-0.19356143
2	0xbe976384	-0.29568112
3	0x3d73942c	0.05946748
4	0xbefd01ad	-0.4941534
5	0x3cf72e02	0.030173305
6	0x3de17639	0.11008877
7	0xbf299f66	-0.6625885
8	0xbd83ed7c	-0.06441781
9	0xbf0892d0	-0.5334902
10	0xbf3d17b8	-0.73864317
11	0xbf884047	-1.0644616
12	0xbd0aa025	-0.033844132
13	0xbf63f3f3	-0.8904411
14	0xbc9401f8	-0.018067345
15	0x3dd91ce0	0.106012106
16	0xbeb7fc89	-0.35934857
17	0x3d9caa56	0.076496765
18	0xbf2622de	-0.64896953
19	0x3dd6f315	0.10495583
20	0x3dc72f01	0.09725762
21	0xbe37a73d	-0.1793489
22	0xbdc77aab	-0.09740194
23	0x3dc42482	0.09577276
24	0x3d8aa067	0.067688756
25	0xbf996bb2	-1.1985991
26	0x3de2accc	0.11068115
27	0xbf9d9719	-1.2311736
28	0xbde44a6c	-0.11147007
29	0xbff30daa	-1.8988545
30	0xbc8147da	-0.015781332
31	0xbe1e6c97	-0.15471111
32	0x3e19681c	0.14981121
33	0xbe17626c	-0.14783639
34	0x3e21ac8e	0.1578848
35	0xbf5e6846	-0.8687786
36	0x3e1045ad	0.14089079
37	0xbf863efa	-1.0487969
38	0x3d8e47c9	0.06947286
39	0xbfa20eec	-1.2660804
40	0x3dd39554	0.103312165
41	0x3e1b887d	0.15188785
42	0x3e2368bd	0.15957923
43	0x3e18f675	0.14937766
44	0xbd14f6bb	-0.036368113
45	0xbf03fa28	-0.51553583
46	0x3d6685ef	0.056280073
47	0xbe83cacd	-0.25740662
48	0xbe824ae4	-0.25447762
49	0xbee41ca8	-0.44553113
50	0x3dbf8bf3	0.09352865
51	0x3cd5dceb	0.026106318
52	0xbee4b6a2	-0.44670588
53	0x3d9c18a9	0.07621891
54	0xbebf4228	-0.3735516
55	0xbe93c2ef	-0.2885966
56	0x3d642df8	0.0557079
57	0xbf2b77d7	-0.66979736
58	0xbf243abb	-0.64152116
59	0xbea94461	-0.3305998
60	0x3d3d3a6a	0.046198286
61	0xbf066a26	-0.5250572
62	0x3dd1ab51	0.10237754
63	0xbf1f7ca1	-0.62299544
64	0xbeef7f8d	-0.46777
65	0xbe2bddc4	-0.16783816
66	0xbe67bdac	-0.22630948
67	0x3e067c4a	0.1313335
68	0xbf296ffb	-0.66186494
69	0x3df4ab90	0.119467854
70	0xbe8b0823	-0.27154645
71	0xbf8df0b6	-1.1089084
72	0xbce7e842	-0.028308991
73	0xbee77440	-0.4520588
74	0x3d8f36ca	0.06992872
75	0x3d09b699	0.033621404
76	0x3dc00c3d	0.09377334
77	0x3cf734b6	0.030176502
78	0x3de360d2	0.111024514
79	0xbdb12484	-0.08649543
80	0x3d5156c8	0.05110815
81	0x3e546c56	0.20744452
82	0xbf14f9c7	-0.5819363
83	0xbf06c2ae	-0.5264081
84	0xbecd615c	-0.40113342
85	0x3db81f53	0.089903496
86	0xbdc2faa0	-0.09520459
87	0xbdbb3f3b	-0.0914292
88	0x3db5a9d0	0.0887028
89	0xbeef05bf	-0.4668407
90	0xbef4db78	-0.4782369
91	0xbf2677c9	-0.6502653
92	0xbee6e1d7	-0.45094177
93	0xbf18d884	-0.59705377
94	0xbe34f2c8	-0.17670739
95	0xbdde5914	-0.10856834
96	0xbedac50b	-0.42728457
97	0x3d831113	0.06399741
98	0x3daf18a3	0.08549621
99	0x3da592a0	0.08084607
100	0xbf0cc5e7	-0.54989475
101	0x3e20855e	0.15675876
102	0xbdc2d6ea	-0.09513648
103	0xbef56ff6	-0.47936982
104	0xbdac6ec1	-0.08419562
105	0xbef10ccc	-0.47080076
106	0xbea2ecb3	-0.31821212
107	0xbe74ba34	-0.23899156
108	0xbf050406	-0.51959264
109	0xbf234aea	-0.63786185
110	0xbe2a2c55	-0.16618474
111	0xc007afeb	-2.1201122
112	0xbf0b8802	-0.54504406
113	0xbf746912	-0.95472825
114	0xbeb6dac9	-0.35713795
115	0xbeecd2ed	-0.46254674
116	0xbd8a2f04	-0.06747249
117	0xbdf776f0	-0.120832324
118	0xbe6457da	-0.22299138
119	0xbea4cb59	-0.32186392
120	0xbee3654d	-0.44413224
121	0x3dc445e0	0.0958364
122	0xbea061f9	-0.31324747
123	0xbe3cf634	-0.18453294
124	0xbe0fed81	-0.14055444
125	0xbea9b5b8	-0.33146453
126	0xbee7c294	-0.4526564
127	0xbf3dc7b7	-0.74132866
128	0xbf3a09d6	-0.7267126
129	0xbef2421f	-0.4731607
130	0xbef9cd97	-0.48789665
131	0x3d784bb0	0.060619056
132	0xbf5364ba	-0.8257557
133	0xbf068487	-0.5254597
134	0xbf79d2d2	-0.9758731
135	0x3e3d3a6d	0.18479319
136	0xbf2fab8b	-0.6862113
137	0x3e6b1ac0	0.22959423
138	0x3db24cf1	0.08706082
139	0x3e5dfb14	0.2167781
140	0x3e6aef18	0.2294277
141	0xbff5f5a8	-1.9215593
142	0xbf573c57	-0.84076446
143	0xbf712a9b	-0.94205636
144	0xc004f9da	-2.0777497
145	0xbebe321b	-0.37147602
146	0xbdbdc088	-0.09265238
147	0xbea30c1b	-0.31845173
148	0xbfb61ddd	-1.4227864
149	0x3dbc9762	0.092085615
150	0xbde957dd	-0.11393712
151	0xbee4099c	-0.4453858
152	0xbe00f832	-0.12594679
153	0x3d084468	0.033268362
154	0x3d5689c4	0.052377477
155	0xbf3f44fb	-0.7471463
156	0x3db50bf2	0.08840169
157	0xbf0b24c8	-0.54353
158	0xbee15350	-0.44008875
159	0xbfb02ac8	-1.3763056
160	0xbea8b959	-0.3295391
161	0xbe4cf7c5	-0.20016392
162	0xbf1d9dca	-0.6156889
163	0xbd8cefa8	-0.06881648
164	0xbf1e1b73	-0.61760634
165	0x3dbb18cd	0.0913559
166	0xbef9ba8c	-0.48775136
167	0x3d50db47	0.05099037
168	0x3d287592	0.04112775
169	0xbe84864e	-0.25883716
170	0x3df0d2a0	0.117589235
171	0xbf249c1b	-0.643007
172	0xbf19bc0e	-0.60052574
173	0xbd75170d	-0.059836436
174	0xbf311b6a	-0.69182456
175	0x3e8e5c15	0.27804628
176	0x3d48570c	0.04891114
177	0xbf431e70	-0.7621832
178	0xbf289ea1	-0.6586705
179	0xbf63f924	-0.89052033
180	0xbec4f6b3	-0.38469467
181	0xbe784994	-0.24246818
182	0x3dcd699a	0.100299075
183	0xbecb5d60	-0.39719677
184	0x3d9f7fae	0.07788025
185	0xbd870306	-0.065923735
186	0x3dce7794	0.100814015
187	0x3daa3dd4	0.08312574
188	0xbee3280c	-0.4436649
189	0x3dc80464	0.097664624
190	0x3d69ad9b	0.05705033
191	0xbe72cc7d	-0.23710819
192	0x3d3536e2	0.044241793
193	0x3c89cf30	0.016822428
194	0x3d93c836	0.072159216
195	0xbeabf935	-0.33588567
196	0x3d9f0902	0.0776539
197	0xbf3534b8	-0.7078357
198	0x3d831ecf	0.06402361
199	0xbf6a92da	-0.9163033
200	0x3d399e5c	0.04531704
201	0xbbcae852	-0.0061922455
202	0x3d977be2	0.07396676
203	0xbe44f258	-0.19233072
204	0xbe8b11cc	-0.27162015
205	0xbf0ae742	-0.5425912
206	0x3d3c1af1	0.04592413
207	0xbf25cb52	-0.6476337
208	0x3d9f75d4	0.07786146
209	0xbeb53314	-0.35390532
210	0xbea522aa	-0.3225301
211	0xbf7d68a8	-0.9898782
212	0xbd8d0ff3	-0.06887808
213	0xbf02d8b6	-0.51111925
214	0xba683a48	-0.0008858782
215	0xbda489b6	-0.08034079
216	0xbb9ebc11	-0.0048441966
217	0xbea27cdf	-0.31735894
218	0x3ce4fad3	0.027951634
219	0xbdfb46c9	-0.122693606
220	0xbf309957	-0.6898398
221	0xbf8831bb	-1.0640177
222	0xbea3aa69	-0.3196595
223	0xbe7fbb57	-0.24973808
224	0xbc413d93	-0.011794466
225	0x3e6ff21d	0.23432203
226	0x3ae98d74	0.0017818646
227	0x3e5c730f	0.21528266
228	0xbefd3c38	-0.49460006
229	0xbe765b63	-0.24058299
230	0x3d8c97ce	0.06864892
231	0xbf566e34	-0.83761907
232	0xbeb1475b	-0.34624752
233	0xbee35e5f	-0.44407937
234	0xbed01256	-0.4063899
235	0x3ddb1d5c	0.10698959
236	0xbd136322	-0.035983212
237	0xbe1e3b0d	-0.15452214
238	0x3dc356af	0.09538018
239	0x3dda6b8a	0.10665043
240	0xbdbf9f3c	-0.093565434
241	0xbf94d8a7	-1.1628617
242	0xbe14275b	-0.14468138
243	0xbf6537af	-0.8953809
244	0xbf0c895a	-0.5489708
245	0x3e09f9b9	0.13474168
246	0xbeb80650	-0.35942316
247	0xbe661d2d	-0.22472067
248	0xbf2b8418	-0.66998434
249	0x3e257eec	0.16161698
250	0xbe6c92a8	-0.2310282
251	0xbf18e375	-0.5972207
252	0xbf188676	-0.5958017
253	0xbea1ba84	-0.31587613
254	0xbea7ed70	-0.32798338
255	0xbde3544c	-0.11100063

arr_8 f4 [10]
0	0xbe22069f	-0.15822838
1	0xbecc14dd	-0.39859667
2	0x3e7c553e	0.24641892
3	0xbcbdaacf	-0.023152737
4	0x3e3fe3f9	0.18739308
5	0xbe813bf2	-0.25241047
6	0x3c889683	0.016673332
7	0xbe5d201d	-0.21594281
8	0x3cb5e065	0.022201726
9	0x3dd105e8	0.10206205
