Exercises/fashion-mnist/params/fashion-mnist_params_dropout.npz (npz, 556789 bytes, 9 tensors)

arr_0 f4 [34048]
00000000: 665d 843f f02c 753f 5fec 633f 6413 893f
00000010: 13dc 673f 8003 823f 1b7a 7b3f c904 833f
00000020: 7743 823f 14e2 643f 6b7f 8b3f 5b4e 6d3f
00000030: ffd2 5b3f 3317 723f 8a5a 5d3f 5a49 713f
00000040: dd0d 753f ee21 813f e2d3 6e3f c089 773f
00000050: 58aa 603f cdfc 653f d95a 6d3f 8719 873f
00000060: ffc1 6f3f 60b4 6c3f d070 7d3f 4a3b 7d3f
00000070: 9c5c 833f 14b6 803f b511 843f f926 8e3f
00000080: 04f4 8e3f cf5e 803f ba10 823f f3f6 783f
00000090: 98ab 883f 4bfc 8a3f f1a9 6c3f 6f5d 783f
000000a0: 5ee9 903f 8d18 803f 7f0d 8b3f 3b77 6b3f
000000b0: 2f15 593f 5419 843f 8571 893f 510a 853f
000000c0: d351 5d3f 7d55 5b3f 2ceb 8a3f 80c7 8c3f
000000d0: 0a68 763f 98ca 673f f209 833f 428b 833f
000000e0: 462e 853f a157 723f 1723 563f 89e1 5c3f
000000f0: dba8 653f 7f02 853f 9598 493f 98d7 413f
00000100: 0cf9 6e3f e8f8 753f a249 803f 3cef 943f
00000110: d659 7d3f df85 7f3f 8888 7d3f 1063 883f
00000120: 01c3 7f3f 4c60 7c3f 09ba 823f 875a 823f
00000130: 5d42 533f 8af6 723f 6b87 753f 8051 6f3f
00000140: ca60 923f 933d 7f3f 7ac9 753f de88 853f
00000150: af2f 743f fedd 873f 9003 863f 044f 8b3f
00000160: 239c 723f 02d4 873f 2ae3 7f3f a218 933f
00000170: f872 8c3f 9e38 783f fe91 853f 8d17 8e3f
00000180: 8b4a 713f d6d9 543f 98fb 683f 28fa 823f
00000190: 0b7e 8a3f 961e 5c3f 0685 8c3f 3c56 5d3f
000001a0: 889e 843f ea03 863f d595 5a3f 2439 8d3f
000001b0: 597b 6f3f 21bb 473f 25c8 833f 8918 853f
000001c0: 5a7d 883f 3359 6a3f 64f2 8f3f 866c 5d3f
000001d0: 8510 823f 48da 803f 252f 7e3f 5cf0 753f
000001e0: 8e13 803f a784 823f 1152 8b3f 935b 773f
000001f0: dca1 8d3f ed79 833f dfd4 803f ff7e 7e3f
00000200: 8b88 873f cd3d 6d3f 86ca 833f e652 823f
00000210: 2ac3 8c3f 885f 7e3f c8a1 863f 2f1f 673f
00000220: 4da5 893f 125c 823f 1ca1 843f 8ecc 7d3f
00000230: ea99 923f 91f9 673f 1c7b 633f 62b6 8c3f
00000240: 4369 a23f e33b 813f 0cd2 8c3f e20b 1f3f
00000250: 8c58 823f af8b 833f 0fed 893f d14c 883f
00000260: e8f4 883f 073d 703f a6b2 863f dc2e 883f
00000270: 5728 813f 711a 423f 7a82 883f b3a1 7e3f
00000280: 335f 843f 92e5 8c3f 5206 843f 9b2c 7b3f
00000290: 5ee7 893f 28ab 923f b1ee 783f f529 7d3f
000002a0: 658e 873f 0e64 8a3f b7f0 7e3f 1ee3 653f
000002b0: 908e 873f f928 903f c8d2 813f 7ce8 8e3f
000002c0: 32eb 4f3f 2f42 7d3f d625 913f 0678 763f
000002d0: 6b76 6d3f c18e 7f3f 8959 8e3f c280 563f
000002e0: 720b 563f a98e 883f a9ef 823f d5c6 773f
000002f0: ce7b 8d3f f1b7 513f 36fb 823f 430d 763f
00000300: b7c6 7b3f e150 8a3f 88c3 873f f65f 943f
00000310: 7ce9 913f c08f 7b3f c972 7a3f de09 623f
00000320: 8c26 6d3f 63cf 603f f8c1 583f 78fe 8a3f
00000330: 1f27 a63f d649 543f 4533 753f c488 8e3f
00000340: 99c1 5d3f 3987 6b3f 9495 943f 1672 733f
00000350: ab71 6e3f 68cc 793f 402f 943f f850 833f
00000360: c596 763f 358f 5f3f 99ba 8d3f 6d5f 7a3f
00000370: 0bef 853f a649 6a3f 7068 593f d6db 813f
00000380: d3f1 853f b4f8 773f f54c 833f 480f 863f
00000390: e375 8b3f 0476 6f3f 9cc5 783f 6c0a 913f
000003a0: 409f 3a3f acec 763f e7d1 773f 06f3 893f
000003b0: 8daf 8c3f 4f21 523f ea28 833f b02c 813f
000003c0: 35d6 863f 9dff 663f 5416 813f 5d67 853f
000003d0: 18f3 8f3f cfaa 673f 343b 853f 9fee 873f
000003e0: acc9 913f f05d 8b3f 94be 833f 7b3c 493f
000003f0: ef41 713f d082 473f ef7f 723f 08ba 463f
1.0341003 0.95771694 0.8903255 1.0709043 0.9057018 1.0157318 0.98233193 1.0235835
1.0176839 0.8940747 1.089826 0.92697686 0.8586883 0.9456665 0.86466277 0.9425255
0.9572428 1.008848 0.9329206 0.96694565 0.87759924 0.8983887 0.9271675 1.0554665
0.9365539 0.9246273 0.99000263 0.9891859 1.0262637 1.0055566 1.0317904 1.1105644
1.1168218 1.0028933 1.0161355 0.97251815 1.0677366 1.0858244 0.9244681 0.9701757
1.1321218 1.0007492 1.0863494 0.91978806 0.8479795 1.032023 1.0737768 1.0393773
0.8645298 0.8567732 1.0853019 1.0998383 0.962525 0.9054351 1.023741 1.0276873
1.0404747 0.9466496 0.8364729 0.8628164 0.8971078 1.0391387 0.78748447 0.75719595
0.93348765 0.96082926 1.0022471 1.1635509 0.98965204 0.99813646 0.99036455 1.0655231
0.9990693 0.9858444 1.0213023 1.0183877 0.8252314 0.9490744 0.95909756 0.93483734
1.1435788 0.9970333 0.96010554 1.0432394 0.9538526 1.0614622 1.0469837 1.0883489
0.94769496 1.0611575 0.99956 1.1491892 1.0972586 0.9696139 1.0435178 1.1100937
0.9425437 0.8314489 0.910089 1.0232592 1.0819715 0.8598417 1.0978096 0.8645971
1.036088 1.0469944 0.85384876 1.1033063 0.9354759 0.7801991 1.0295454 1.0398113
1.0663254 0.9154236 1.1245847 0.8649372 1.0161291 1.0066614 0.99290687 0.96069884
1.0005968 1.0196732 1.088442 0.96624106 1.106502 1.0271584 1.0064963 0.9941253
1.0588545 0.92672426 1.029618 1.0181549 1.0997059 0.9936452 1.0518122 0.9028196
1.0753571 1.0184348 1.0361667 0.9914025 1.1453221 0.90615183 0.88859725 1.0993159
1.2688373 1.0096401 1.1001601 0.62127507 1.0183272 1.0277003 1.077547 1.0648443
1.069974 0.9384312 1.0523269 1.06393 1.0090436 0.75821596 1.0664818 0.99465483
1.0341552 1.1007559 1.0314429 0.9811494 1.0773733 1.1458483 0.97239214 0.98892146
1.059033 1.0811784 0.9958605 0.8979968 1.0590382 1.1262504 1.014245 1.1164699
0.81218255 0.98929113 1.1339672 0.9627689 0.92758816 0.998272 1.1121074 0.8379022
0.83611214 1.0668536 1.0229388 0.9678777 1.1053407 0.819213 1.0232913 0.96113986
0.9835009 1.0805932 1.0606546 1.1591785 1.1399379 0.9826622 0.978314 0.88296306
0.9263694 0.87816447 0.8467097 1.0858908 1.2980689 0.82925165 0.95781356 1.1135488
0.8662353 0.9200321 1.1608148 0.95095956 0.93142194 0.97577524 1.157692 1.0259085
0.96323806 0.8732789 1.107257 0.9780186 1.0463575 0.9151863 0.84924984 1.0145214
1.0464424 0.96863866 1.025786 1.0473413 1.0895351 0.9353945 0.9717653 1.1331306
0.72899246 0.9645488 0.9680466 1.077729 1.0991074 0.82082075 1.0246861 1.0091763
1.0534121 0.90233785 1.0084939 1.0422169 1.1246061 0.9049501 1.0408692 1.0619696
1.138967 1.0888042 1.0292535 0.7860791 0.9424123 0.7793398 0.9472646 0.7762761

arr_1 f4 [3, 3, 1, 32]
00000000: 705c 52bd 22dc a03d e636 423d 2929 933d
00000010: b6c7 e7bc 456e 8fbd 2a9d 043e 576d 89bd
00000020: b1a7 97bb 721a d6bd c76f 90bd 8281 c33d
00000030: d70e bf3d 081a 163c a046 d5bd fcb3 0ebe
00000040: 3196 77bd 9683 eb3c 1039 10be 09b4 273d
00000050: d5ac 59be 11e3 1cbd 1361 073d 57e4 3dbd
00000060: 873d 1b3e 71e0 6c3d 378a 9cbc fc65 a3bd
00000070: 808e 3e3c e6f4 94bc 214b 0b3e 2fd7 683d
00000080: 01dc 92bd ca0c 44be 86dd b23d 1392 8e3d
00000090: 8c20 2fbe da79 10be 8781 be3c e0a2 14bd
000000a0: 506e 8e3c a115 8f3d 4baa 15be 9ecb b0bd
000000b0: 6282 643d 8c5d dbbc 3737 e93d a9ee 6b3d
000000c0: 768d 133e db27 e53d d48b 01be 8a6d 88be
000000d0: e750 843c 4905 ebbd f57f a7bc 2a05 2e3d
000000e0: 4aa3 95bd d269 353e ed56 dc3d 9682 a7bd
000000f0: 94e4 6dbe dc2b 3cbc 5ce7 0f3e 9920 453e
00000100: 0953 2e3d a7a7 eabd cabf 05be a791 9fbe
00000110: c2c5 e3be 2a82 ec3d 54ae 663d 5f34 763d
00000120: 5746 b0bc df38 61bc 8727 a73d 61eb e13b
00000130: 8ba9 5abe 8732 9b3c 127b 8e3d 5265 8ebd
00000140: 6d26 0e3e eda7 223e 11e7 0e3d 69a2 2bbe
00000150: cfa2 243c e1f1 693d 7830 5a3d bfbd ccbd
00000160: 1d81 a1bd f3a4 05be b090 053e bcfa 853d
00000170: 2721 73be e3e1 03bb 84c9 49bc b32f e03d
00000180: 7ad4 e03c c454 feb9 b47c 93bc 8de3 8cbc
00000190: 6f0f 1f3e da55 953d d1dc 75bd ead7 a6bd
000001a0: 0213 513e 5b2b 6b3d 6920 193e b553 0a3e
000001b0: 00e9 033e bb39 d23b d884 ec3c fedc 103e
000001c0: 7765 28bd 6180 e0bb c906 9dbc 3381 5cbd
000001d0: 5b12 d33d 0495 f83d e05c 39bc eeb0 3bbe
000001e0: bc9a 1c3e eb85 e63d fd29 b0bd 1407 213e
000001f0: a159 8ebd 5bea babd 9ea4 c13c fb92 613b
00000200: b895 06be db5e e3bc 3a3e 023e 2c59 5fbc
00000210: 8246 ebbd dc6e 863b a812 19bd b66d 8bbc
00000220: 898b 19bd af2d 483d d6a0 8d3c be3e 0d3e
00000230: 73b8 333c e03d 76bd c8ff d6bd c94d cdbd
00000240: cf5b c63d ba84 a0bd 34b6 363e 75bb da3d
00000250: 9106 23bd c1b2 b1bc c65f 25be 5422 8b3d
00000260: 83fd 2cbe 471d 403d 5493 c73b 7214 33bd
00000270: 4424 32be 8fa6 963d 03d2 18be a8ca 013d
00000280: d842 653d 56b3 fdbd feb0 9bbe 442f 4ebe
00000290: 06ea 9ebc d197 24bd b80f 473d 441d e4bc
000002a0: 982f e4bd a9f5 a3bd 99d3 96bd e038 07be
000002b0: 0f95 40be 74e0 25bd 9f55 a43d 3df4 13be
000002c0: 6dd8 d6bd 024d 02bd 02ee aabd 5b33 c43c
000002d0: 6415 86bd f18f d53d 13ee 60be 7df6 b03d
000002e0: 8b32 f63c 2698 3f3b 378a 8bbd 4ae7 ca3c
000002f0: e5cf 13be 0e92 d4bd 7c78 263e c371 aebd
00000300: 3ae1 84bd 8866 c43c e84d 873c b43e 6f3d
00000310: 6c52 083e 9928 133d a0ca dabb 6bc2 04be
00000320: ad1e 233e 4501 8fbc 7a33 903d 60d5 2cbb
00000330: 2ca5 b63d b29e d7bc 446e 5ebe 17d2 cdbc
00000340: c2b5 a5bd 1911 2cbd f80b 02ba 2088 50bd
00000350: 21c3 36bd fbb2 9f3d 9a9e ac3d 61ab 913d
00000360: 0417 ebbb 0444 c9bd 8555 353d 4e34 d73d
00000370: ed22 95bd 8fb1 02be 5564 3ebc a7f8 d9bd
00000380: 48d7 923d 18a0 133e 275f 6abd e04e 09bd
00000390: bd58 c73c 3050 51bd 8736 bbbd 7b97 1a3e
000003a0: 8b6f 64bd b685 913d 4a81 00be b44a bf3c
000003b0: 3959 363d a7ec b3bd 3577 3abd 6d77 163d
000003c0: dfd2 d6bd 0284 d8bc 6994 2cbc f52b 963d
000003d0: b0a5 53bd a561 a5bd 3802 22be 89f4 873d
000003e0: e253 533c 7f5b a9bd 22a4 7a3c e78a 1abe
000003f0: 3d99 a1be ecba ab3d 75f7 adbd 111e 44be
-0.051357687 0.07854487 0.047415636 0.07185585 -0.028293472 -0.07003454 0.12950578 -0.06710308
-0.0046281447 -0.10454263 -0.0705257 0.09546186 0.09329002 0.00916148 -0.10413861 -0.13935846
-0.060445968 0.028749269 -0.14084268 0.04094318 -0.21257336 -0.038302485 0.03305156 -0.04636034
0.1516019 0.05783123 -0.019108875 -0.07978436 0.011630654 -0.018183183 0.13602878 0.05684584
-0.07170869 -0.19145504 0.087336585 0.06961455 -0.1710226 -0.14108983 0.023255123 -0.036288142
0.017386585 0.06986547 -0.14615743 -0.08632587 0.055788405 -0.026778005 0.113874845 0.05760065
0.14409432 0.111892425 -0.12650996 -0.26646072 0.016151858 -0.114756174 -0.020446757 0.042485394
-0.073065355 0.17716148 0.10758767 -0.08179204 -0.23231727 -0.011485066 0.140531 0.19250716
0.042559657 -0.114577584 -0.13061443 -0.3116581 -0.44486815 0.11548264 0.056318596 0.06010854
-0.021517916 -0.013746469 0.08161836 0.0068945144 -0.21353738 0.018944992 0.069570675 -0.06952919
0.13881846 0.15884371 0.03488833 -0.16761173 0.010048582 0.05711544 0.05326888 -0.09997129
-0.078859545 -0.13051204 0.13043475 0.065419644 -0.23743115 -0.0020123653 -0.0123161115 0.10946598
0.027445067 -0.0004850981 -0.018003799 -0.017198348 0.15533231 0.072917655 -0.06002504 -0.08146651
0.20417407 0.057414394 0.1495377 0.13508494 0.12881851 0.0064155734 0.028871939 0.14146802
-0.04111239 -0.0068512415 -0.019168274 -0.05383415 0.103062354 0.121377975 -0.011313647 -0.18329212
0.15293401 0.112560116 -0.08601759 0.15725356 -0.06950689 -0.09126731 0.023638066 0.0034419883
-0.1314305 -0.027755192 0.1271905 -0.0136321 -0.11488058 0.004102571 -0.037371308 -0.017020088
-0.037486587 0.048871692 0.017288607 0.13793465 0.010969269 -0.060117602 -0.10498005 -0.10024602
0.0968548 -0.078378156 0.17842942 0.10680286 -0.039801184 -0.021691682 -0.16149816 0.06793657
-0.16893582 0.04690292 0.006090561 -0.04372067 -0.17396647 0.07355987 -0.14923863 0.03168741
0.05597195 -0.12387721 -0.30408472 -0.20135218 -0.0193987 -0.040183846 0.048598975 -0.027845986
-0.1114189 -0.0800584 -0.07364578 -0.1320529 -0.18806861 -0.04049726 0.080241434 -0.14448638
-0.10490499 -0.03181172 -0.08346178 0.02395027 -0.06547049 0.10427845 -0.21965818 0.08640764
0.030053398 0.0029234975 -0.06813472 0.02476849 -0.14434774 -0.1037942 0.16256899 -0.08517792
-0.06488271 0.023974672 0.01651664 0.058409408 0.13312691 0.03592739 -0.006676987 -0.1296479
0.1592967 -0.01745666 0.070410684 -0.0026372299 0.08918223 -0.026320789 -0.2172175 -0.025124593
-0.08091308 -0.042008493 -0.000496089 -0.05091107 -0.044619683 0.0779781 0.08428688 0.07112766
-0.0071743745 -0.09827426 0.04427101 0.10508023 -0.07282052 -0.12763046 -0.011620601 -0.1064313
0.07169968 0.1441654 -0.05721965 -0.033522487 0.024334306 -0.051101863 -0.0914126 0.15096848
-0.05577044 0.071055815 -0.1254932 0.02335105 0.044518683 -0.08785372 -0.04552384 0.036734987
-0.10489439 -0.026430134 -0.010533431 0.07332603 -0.051671684 -0.08075265 -0.15821159 0.06638438
0.012898417 -0.082694046 0.015297921 -0.1509205 -0.31562224 0.08385262 -0.08494464 -0.19152094

arr_2 f4 [32]
00000000: c48e cebc 602a 973d 5c75 4fbd e696 8dbd
00000010: 9eb3 15bc 039b e3bb bf5b 97bd 1734 183d
00000020: 1e7c 1f3c 80c7 bebc f04f 6e3a 531b 1dbd
00000030: b35e dabd f733 c5bc 2a35 09be c816 c63c
00000040: 8edb 77bd 6223 293c 230c adbd d620 87bd
00000050: 894d 0c3d 7867 b73d bc36 86bd 1c5d 13bd
00000060: 0fd3 35bd 14cf 67bd f441 d63b 9f16 413d
00000070: a101 653e eb5f 39bd 87b0 833d 97f0 993c
-0.02521456 0.07381129 -0.050649032 -0.06913547 -0.009137062 -0.006945969 -0.07390546 0.03715905
0.009734182 -0.023288488 0.0009090891 -0.038356137 -0.10662594 -0.02407263 -0.13399187 0.024180785
-0.060512118 0.010323377 -0.084495805 -0.0659806 0.03425363 0.08955282 -0.065534085 -0.035977468
-0.044390734 -0.05659397 0.006538624 0.047140714 0.22363903 -0.04525749 0.06430154 0.01879148

arr_3 f4 [3, 3, 32, 64]
00000000: 4e90 a43d 8034 b1bc 744b 19bd 2888 54bd
00000010: 6896 c93c 663e 5fbd aebf f1bd fd84 01be
00000020: c5b2 453d dc0f 413d 0bc2 1fbb a6e4 a43d
00000030: 8342 913b 0569 99bd e9b8 ac3d f9dd cc3d
00000040: 8640 883c 632d 08bd bc92 5dbe a082 5dbd
00000050: 1f07 42bd 6cc4 d8bd 5b76 52bc 085a 193c
00000060: f25c a83d 416e 373e 0c06 c5bc 80c3 bb38
00000070: 00c4 40bd 6347 0e3d 29a0 65bd 64b5 2e3d
00000080: d317 3e3d 88d4 813d df68 85bd a506 573d
00000090: 3112 833e 786a b33d 3040 af3c c7d1 11bd
000000a0: d471 ad3d cbe8 c43d 6d00 7ebd bebc b3bc
000000b0: d35d 9c3b ee97 68be 0049 8a3d cada 0abe
000000c0: 7b05 2d3e c417 08be a350 90bd 0872 6bbd
000000d0: 1ffb cfbd a68c 6b3d bc08 ae3b 78f7 f13c
000000e0: 355b 843d 6727 04bd da4c 2abd 00a2 f9bd
000000f0: efcd 56bc d420 a13d acfa 2a3d a8aa c83b
00000100: c297 88bd a41c 7bbd 41bf 64bc bfd9 bebd
00000110: e62a 8fbc bb8a 06be 93bd b2bc 1728 843e
00000120: 326b f5bd 841d 353d 18ec c23c fce4 a9be
00000130: f208 ea3d 502c acbd a1eb 30bd 6ee8 f8bd
00000140: bc9b 31be d5ab 7b3d c37d 96bc 97c4 933b
00000150: ef37 bf3d f03c d1bd ccfa 1b3d b7f8 19be
00000160: bbc1 19be 5777 8bbd e62b 5d3d dc2d f93b
00000170: f4b9 87bd 6430 2bbd f609 ef3d 7427 3cbc
00000180: b554 bebd 75a2 afbd 76e0 32be 40ee 663c
00000190: 9fa6 46bd 551c 773d 921a babd c84b 5bbd
000001a0: ed00 ec3c 68aa 37be 5ed2 b5bc ab58 643d
000001b0: a11d 013e e051 82be 990b e5bd 664b 313d
000001c0: 0cd0 a4bd 1840 e13d 183a 14be ddd2 803c
000001d0: d050 0b3e c9c4 c3bd 8a16 af3d d4d7 69bd
000001e0: 8ee6 b73d 09d4 a93d 30f4 d53b ede9 eb3d
000001f0: 9a37 0c3d 3b6a a7be 5b6c 35bd 77ac 603e
00000200: 33d7 15be bd2c 963d 07a9 2a3e 2cf8 5ebe
00000210: 8c13 92bc c3fa ec3d 9194 993d 2160 05bd
00000220: 5e1b ec3d d659 cabc 6bc9 93be 5296 023e
00000230: f9fa 483d e91b 053e 3613 0bbe 48d6 3fbd
00000240: c1b2 5abe b790 993c 86ac 903d 16b2 1c3c
00000250: 07b1 a53d 051e 803d d7f6 13be 6c60 63bc
00000260: 4443 043d 961f f4bc 95aa d4bd bb58 81bd
00000270: 7532 bcbd 0a92 fe3d 7858 50bd c7e3 173d
00000280: b6b4 8cbe 5271 993d cf15 0dbe fa45 cabc
00000290: c547 92bd f6e9 7dbb 89a1 173d 409a 0abe
000002a0: adc5 1fbd a48c 83bd c9db 9d3b 20c8 903d
000002b0: e030 3e3e 41af 923e c448 f13c 034e f93b
000002c0: 1a7a f0bc c319 083e 5f78 d6bd 9225 f0bb
000002d0: 2c87 163e 0096 bd3d b99c 9e3d 5403 0c3e
000002e0: 62de 313d 5ee7 083d 96db 7f3d 6f09 823d
000002f0: 6411 40bc cd80 d9bd 0a3f b0bd 1dc7 cf3d
00000300: 8cec 3ebd 2524 06be 2dd2 963d 5bca 96bd
00000310: 0262 703d 6827 69bd 9f80 8c3d b5fa f33d
00000320: b1f6 803d 2e99 383d 2173 23bd 1e44 16be
00000330: a366 4bbe 8aa8 f6bd d8cf 5dbd e5d5 b3bd
00000340: 92b2 2abb e949 9c3d 0190 b13c 427d 423d
00000350: ff03 e93b eb57 213c 5395 10be ae90 b8bd
00000360: d2a2 353d 94aa d0bd 6af8 0fbe 370f a9bd
00000370: a3a4 04bd 26d3 103d 9559 53bd 0b63 0abd
00000380: 543d e8bd 6f81 673e 45bc 9cbc 534b dfbd
00000390: 3a3e bdbd c016 4c3d 184e 7cbd 40f0 7bbe
000003a0: 27d7 1e3d 468c 8cbd 0b61 fbb9 e780 a73d
000003b0: aa81 703d e807 35bd f77f cebd 8eea 19bd
000003c0: 3bbb 7abd 0ef4 3d3e 203e efbc fc69 5cbd
000003d0: feb5 f43d b12c 8ebd aca3 fc3d 424f 79bd
000003e0: 4448 79bd 84b9 a33d bb53 a53d 141b 30be
000003f0: b3ff 79bd 44d5 8bbd c5f9 5f3d b404 b63d
0.080353364 -0.02163148 -0.037425473 -0.05188766 0.024607852 -0.054502867 -0.11804138 -0.12648387
0.04826619 0.047134265 -0.0024377133 0.08051424 0.0044329776 -0.07490734 0.08433706 0.100032754
0.01663233 -0.03324641 -0.21638006 -0.05407965 -0.047370072 -0.105843395 -0.012845601 0.009359844
0.08220853 0.17913152 -0.024050735 8.9532696e-05 -0.04706192 0.03473605 -0.056060944 0.042653456
0.04640944 0.06339365 -0.06514143 0.05249657 0.25599816 0.08760542 0.021392912 -0.03560045
0.084689766 0.09614714 -0.062012125 -0.021940585 0.004771927 -0.22714207 0.06752205 -0.13560024
0.16896622 -0.13290316 -0.0704663 -0.057481796 -0.101553194 0.05750718 0.0053111 0.029536948
0.06462709 -0.03226414 -0.041577198 -0.12189102 -0.013110622 0.078675896 0.041742966 0.0061238594
-0.066695705 -0.06130661 -0.013961614 -0.093188755 -0.01747651 -0.13138859 -0.021818912 0.25811836
-0.119833365 0.0442176 0.023794219 -0.33182514 0.114274874 -0.084068894 -0.043193463 -0.121537074
-0.17344564 0.06144317 -0.018370515 0.0045095193 0.0933684 -0.10216701 0.038080975 -0.15036283
-0.15015309 -0.06809872 0.053996943 0.007604344 -0.066272646 -0.041794196 0.11671822 -0.011484016
-0.092935 -0.08575908 -0.17468438 0.014094889 -0.048498746 0.060329754 -0.09087099 -0.053539068
0.028809035 -0.17936099 -0.022195037 0.055748623 0.12608959 -0.2545309 -0.11183853 0.043284796
-0.08047494 0.10998553 -0.14475286 0.015725547 0.13605046 -0.09559018 0.08549221 -0.057090595
0.08979522 0.082923956 0.0065293536 0.11519227 0.034232713 -0.32698235 -0.04429279 0.2194079
-0.14632873 0.07332752 0.16666041 -0.21774358 -0.017831586 0.115712665 0.0749904 -0.03256238
0.115286574 -0.02470104 -0.28864607 0.12752655 0.04906747 0.12998928 -0.13581547 -0.046835214
-0.21357252 0.018745763 0.07064156 0.009563943 0.08090406 0.06255726 -0.1444963 -0.013877969
0.032290712 -0.029800218 -0.103840984 -0.06315752 -0.091893114 0.124301985 -0.05086562 0.03708246
-0.27481622 0.07492317 -0.1377785 -0.02469157 -0.07142595 -0.0038744188 0.037019286 -0.13535404
-0.039006878 -0.064233094 0.00481746 0.07069421 0.18573332 0.28649333 0.029453643 0.0076081767
-0.029355098 0.13291077 -0.10472178 -0.0073286975 0.14700001 0.09257126 0.07744736 0.13673145
0.04342497 0.033423774 0.062465273 0.063494556 -0.011722896 -0.1062027 -0.08605774 0.101454
-0.046612307 -0.13099726 0.073643066 -0.07362815 0.058687218 -0.056922346 0.0686047 0.11913053
0.06297053 0.04506796 -0.039904717 -0.14674422 -0.19863372 -0.12043865 -0.054153293 -0.087810315
-0.0026046378 0.07631285 0.021675112 0.047482736 0.007111072 0.009847621 -0.14119463 -0.090119705
0.04434473 -0.10188785 -0.14059606 -0.08254855 -0.032383572 0.035357617 -0.051599104 -0.03378586
-0.113398224 0.22607969 -0.019132743 -0.10903039 -0.092403844 0.049826384 -0.061597914 -0.24603367
0.038779404 -0.068626925 -0.00047946753 0.08178883 0.058717407 -0.044196993 -0.10083001 -0.037577204
-0.061213713 0.1855013 -0.029204428 -0.053812012 0.11948775 -0.06942118 0.123359054 -0.0608666
-0.060859933 0.07994369 0.08072611 -0.1719783 -0.06103487 -0.068277866 0.05468156 0.08887616

arr_4 f4 [64]
00000000: 4b9e 4bbe 69e8 1fbd 5b02 353e 0a5b 2f3e
00000010: 0976 853d 2d34 013b c88a c2bc db4c 81bc
00000020: bb0e 8bbd 7557 c5bc 6766 cebd 45b2 f63c
00000030: 564e c13d 67e3 673d 04b4 213e 39f8 26bd
00000040: ff46 a7bc 5efb a7ba 9c53 5d3d 654b 04bc
00000050: 2190 9d3d 0cfc eebd 0b3b f23d 6422 2a3d
00000060: 5035 4d3d 879b 0abe 7f20 35bc 3629 b03c
00000070: d28f c33d bfb6 d4bd 11d7 f5bc e18c 89bd
00000080: 8ce9 af3d d9ec debc 0974 913d 8f2e 19bd
00000090: 69ae 953e ff63 893c 4089 aabc 2cc9 863d
000000a0: 4ef7 a9bd 26fe cebc 2056 a03d ea6d 5c3c
000000b0: 4ccd 1b3d 87ed 96bd b280 833b 2170 27bd
000000c0: f218 54bc 413f bf3c ee3f 563e 08de 463d
000000d0: 09b5 afbb 3196 5e3d 7026 7ebd d853 09be
000000e0: 0e60 1d3e 2012 f5bd 52eb 023c 1cf1 153e
000000f0: 0114 a13c bb74 81bc e0e0 acbd c104 ab3d
-0.19884603 -0.039040003 0.1767668 0.17124572 0.06516654 0.0019714937 -0.023747817 -0.015783718
-0.06789919 -0.024089554 -0.100781254 0.030114302 0.094387695 0.056613352 0.15791327 -0.040764067
-0.020419596 -0.0012816002 0.054034814 -0.008074616 0.07693506 -0.11669168 0.11827668 0.041536704
0.05009967 -0.13535891 -0.011055111 0.021504026 0.09548916 -0.103864186 -0.030009778 -0.06716324
0.085894674 -0.027212547 0.0710221 -0.037397917 0.29234627 0.016771315 -0.020817399 0.06581339
-0.08299123 -0.025267672 0.07828927 0.01345394 0.038037583 -0.073695235 0.0040131444 -0.04087842
-0.012945401 0.023345592 0.20922825 0.04855159 -0.0053621572 0.054342452 -0.062048376 -0.1341089
0.15368673 -0.11966348 0.007990675 0.14642757 0.019662859 -0.015802732 -0.08441329 0.08350516

arr_5 f4 [3, 3, 64, 128]
00000000: ba9f ccbd 45a1 143e 8520 1c3b 00a2 fd3d
00000010: 895f 993d e1e1 d83c 558c dabd 8d01 3fbd
00000020: 1ca9 863d 0b69 8dbd d3bb 053b 78f0 093e
00000030: 8638 a53d e800 493d 62b9 0b3d b27b db3c
00000040: 9ba0 703e 3290 f43a 3109 e73c bbf4 4fbd
00000050: bfc2 7dbc 31d1 6c3d 214d 783a b10a bebd
00000060: a709 1d3e cb8f 043e ad0b ffbc b38d 8f3d
00000070: 0522 ed3d 8a6e 41bc 1e5c aa3d fb22 9e3d
00000080: e91b e4bb cc2e 0b3d 91b3 873d dfa1 093d
00000090: e281 0d3e 65d4 88bd 3f7c a93d 10c8 233e
000000a0: 3155 493e 7f69 163e 812f b93d 2944 3a3e
000000b0: 3060 e33b db5d 1a3c 57ef 0c3e 353f 693d
000000c0: 1ca9 693d 3ce1 1ebe 2d66 57bc 597a fd3d
000000d0: f863 743e 2994 5dba 9a2b 8e3d 140f 07bd
000000e0: 15a6 0f3d b82a 283e fa76 96bd 445f 533e
000000f0: 99cb 0ebe b5c8 3f3d 9403 9cbd dfa5 b93d
00000100: d487 7c3d ae97 e73c 35b5 fa3c bb8a 863d
00000110: a782 08bd 13ac 38bd 201d 73bc 6498 723d
00000120: 3195 1bbd 10e8 b8bc e34c c33d 603d 593d
00000130: 46fe e63d c585 483e e681 3fbc 6695 263e
00000140: dc19 9cbd 3240 263c f670 273d 7c29 36bd
00000150: a14b 853c fe49 2dbd c5d6 e93d 71b0 2abc
00000160: 5f5e c0bd 0174 0e3e a90e f23d 3dab a4bc
00000170: a9f3 7cbd 7122 533d 5391 223e 068e 333e
00000180: cafe 493d 801c a43d 93cb 313e 0729 9a3b
00000190: 6e59 81bc c54f c13d ea29 dc3c 95de 8cbd
000001a0: 6bda 81bc a3f9 3c3e bf25 2bbc d983 503d
000001b0: 0b93 e03b b6e3 f6bd e11b 89bd d433 6e3a
000001c0: 00cb d7bd 40e2 47bd a9e8 383e c138 a1bc
000001d0: 8196 223d 952d e0bb 34eb 043d 82fe 70bd
000001e0: de77 fcbd e8d7 bdbd 9df2 a23d 97f3 063e
000001f0: e168 b43d 2001 353d 1aad fb3c 5bb1 4d3e
00000200: 2391 90bc 4acc f83d b47d f93b a006 803d
00000210: 22a1 16bd 3d8f 44bb da95 6abb 217a f93c
00000220: 86e8 12bd b7cf bcbc d030 9cbd 649a 8bbc
00000230: 6401 9a3d 7e0b 80bd 190e f03c 5a20 b8bd
00000240: f1f2 ce3d 2bec 99bd 34d8 6e3d e03b babc
00000250: b262 d9bd d48d 0d3d af0a d4bd cec2 c4bd
00000260: ef1c 893d 9010 503a 3b93 58bb 2cd7 0abc
00000270: c8e4 cc3d bd31 bd3d a3c0 2f3d 4846 5ebd
00000280: 96b0 3d3c 236f ae3d 09a7 283d 8648 3a3d
00000290: 6caf 3e3d 6b29 1b3b 7af9 8abd a911 08bc
000002a0: 9a1f 483d df78 b33c b2b8 1d3e 39cc 06bd
000002b0: b9d9 b9bd 8b6e 6bbd 5f8b f83d f032 4e3e
000002c0: 56cb 893b 01ce 3c3c 4bf8 d8bd dc80 a83d
000002d0: 5b7a cb3d 2a26 843c 316c 0cbd 14a4 07be
000002e0: 9f16 973d 63a4 633d a8ff 27bd b8d7 99bc
000002f0: 55ba bfbd 295f 4f3c 3301 a0bd c19c be3d
00000300: 761f 6b3d 1320 25bc 33b5 01be 6cf8 473d
00000310: 617b 823c 9746 a8bd e262 e0bc 4c0e e2bd
00000320: 3b07 8e3d dccd edbd 036f 113d 0064 0bbd
00000330: 46dc 513c 002c 603d 1b77 043e 62b6 a53d
00000340: fe82 783d dd60 31bc 3794 a73b 8fb9 1dbe
00000350: 4a32 c23c 1868 98bc 2b71 e83c 43f8 27bd
00000360: 3874 36bc 25fe e8bc 1626 c9bd 88f2 38be
00000370: 5bbb d9bd 722a 243c 591c d13d 0e4c 363d
00000380: daed 8bbd ad19 0cbe 6bfc 43bb 60d4 98bd
00000390: f314 c43c d749 70bd 307b a6bc 1633 8ebd
000003a0: a9b1 4cbd 80a6 6dbc 0e2b 043d f7c8 08bd
000003b0: e1a6 b8bc 4439 35bc b7f7 1bbe 4d72 acbc
000003c0: 0dd2 0cbd 41b5 04be 33a7 0b3d ef36 5abc
000003d0: 95a4 60bd d403 06be 1626 4a3d 2118 21bd
000003e0: db43 a3bd 714e bebc 4037 cb3d 1f8d e83c
000003f0: 3e60 0abc 57f8 983c 6e9b 6fbd 213f 14bd
-0.09991403 0.14514644 0.0023823094 0.12384415 0.07488925 0.026474895 -0.106712975 -0.04663234
0.06575224 -0.06904801 0.0020406141 0.13470638 0.080674216 0.04907313 0.03411234 0.026792381
0.23498766 0.0018658696 0.028202625 -0.050770503 -0.015488326 0.057816688 0.00094719423 -0.09279383
0.15335713 0.12945478 -0.031133497 0.07009449 0.11578754 -0.01180614 0.08318351 0.07721516
-0.006961335 0.033980176 0.066260464 0.033601638 0.13819078 -0.06681136 0.08275651 0.15994287
0.19661404 0.14688681 0.09042264 0.18190064 0.0069389567 0.009421791 0.13763176 0.056945045
0.05704604 -0.15515608 -0.013146919 0.123768516 0.2386626 -0.00084525585 0.0694191 -0.032973364
0.035070498 0.16422546 -0.07346912 0.2064181 -0.13944854 0.04682227 -0.0761787 0.090648405
0.061652973 0.028270569 0.030603984 0.065694295 -0.033327725 -0.045085978 -0.014838487 0.059227362
-0.037984077 -0.022571594 0.09536149 0.053037047 0.112789676 0.19582279 -0.011688685 0.16267928
-0.0762212 0.010147141 0.040879212 -0.044473156 0.016271414 -0.042306893 0.11417917 -0.0104180435
-0.09393 0.1391144 0.118192025 -0.020101184 -0.06175581 0.051546518 0.1587575 0.17534646
0.04931525 0.080132484 0.17362814 0.004704598 -0.015789714 0.09439043 0.026875455 -0.06878392
-0.01585122 0.18454604 -0.010446011 0.05090699 0.0068534664 -0.12055151 -0.066947706 0.00090867025
-0.10536766 -0.048799753 0.18057503 -0.019680383 0.039694313 -0.0068413713 0.03245087 -0.058836468
-0.1232755 -0.092696965 0.07956431 0.1317886 0.088090666 0.044190526 0.03072219 0.20087187
-0.017647332 0.1214834 0.007613862 0.062512636 -0.036774762 -0.0029992603 -0.0035794885 0.030453743
-0.035866283 -0.023048265 -0.07626498 -0.017041393 0.075197965 -0.06252192 0.029303597 -0.089905456
0.10104931 -0.075157486 0.058311656 -0.022733629 -0.10614528 0.034559086 -0.103536 -0.096074685
0.06694972 0.00079370383 -0.003304674 -0.008474153 0.10004574 0.092380024 0.042908322 -0.054266244
0.011577746 0.085172914 0.041174922 0.04547932 0.046554014 0.002367581 -0.06785865 -0.008304992
0.048858263 0.021908222 0.15402487 -0.032909606 -0.090747304 -0.05747847 0.12135958 0.20136619
0.0042051477 0.0115237245 -0.10594233 0.08227703 0.09935447 0.01613148 -0.034282867 -0.13246185
0.073773615 0.055576693 -0.041015297 -0.01877962 -0.09361712 0.012656965 -0.07812729 0.09307242
0.05740305 -0.010078448 -0.12666778 0.048820898 0.015927972 -0.08216589 -0.027390901 -0.11037883
0.06934973 -0.1161153 0.03550626 -0.034030914 0.012808865 0.05472946 0.1293606 0.080914274
0.0606718 -0.010826317 0.005114104 -0.15402816 0.02370562 -0.018604323 0.028374275 -0.041008245
-0.011136107 -0.028441498 -0.098217174 -0.18061268 -0.10631438 0.010019885 0.10210485 0.044506125
-0.06832476 -0.1368167 -0.0029905092 -0.07462382 0.02393577 -0.05866417 -0.020322412 -0.069433376
-0.049974117 -0.014505029 0.032267623 -0.03339478 -0.022540512 -0.0110610165 -0.15231214 -0.021050597
-0.034380008 -0.12959768 0.034095 -0.013318761 -0.054844458 -0.13087398 0.049352728 -0.03932965
-0.07971927 -0.023230763 0.099226475 0.028387604 -0.0084457975 0.018673105 -0.05849784 -0.036193017

arr_6 f4 [128]
00000000: b7a2 1d3c b827 32be a20c 61be 4946 29be
00000010: 9168 5dbd 3c37 babd c50a 0f3d 0121 fbbc
00000020: ac5e fbbd 27d6 c2bd f12e 27be 880d 75bd
00000030: f55e 01bd f4a9 95bd ce7c 58bd ab27 a0bd
00000040: db0f c5bd d81e e7bd d182 61bd 6e32 15bd
00000050: 49cd 34bd 26d0 2abe 4fd5 e8bd 4afa 04be
00000060: 666d 10be 72d2 e9bd 7ddd 91bd 2340 0bbe
00000070: e76b 1cbe 8e6d fdbd 4a9e e5bd 6df2 23be
00000080: 88bb 2fbe cb1d 04be 961b 34be 6b28 67be
00000090: 26e0 e0bd d295 45bd ba11 16be 439b 8dbd
000000a0: 7b1b 8fbd bd7d eabd e3a7 aabd a2d0 80bd
000000b0: d70b 43be abf5 e9bd 768d d6bc 78b7 d6bd
000000c0: 381a 92bd 0586 bdbd c872 8fbd 64d0 31be
000000d0: 99d0 f3bd 8e56 903b f615 00be b04f d6bd
000000e0: f87c 10be 8cb2 8cbd 9bd5 e6bd da22 fbbd
000000f0: 49c2 b9bd 882d f0bd 37e0 90bd b954 80bd
00000100: f3d8 76bd 399a 51bd ca10 d8bd 4951 7bbe
00000110: 53d1 8cbd a6fe 1abd 1d8f 9dbc 23b5 a3bd
00000120: c3d7 1fbe c172 89bd 048f 0ebe d7d8 90bd
00000130: 5e3f 07be 8286 fdbd c9d9 b7bd 19aa 8abd
00000140: 09c7 c8bd b85e d6bd 59b8 18be 9f8f 0ebe
00000150: bfa9 e6bd 719e 933c 22f3 19be 148e b8bd
00000160: c70a 32be 9e5d 40be 4473 40be f1ac 45bd
00000170: 6fc9 f4bd 3971 65be cb36 81bd 8764 97bd
00000180: c6a1 0bbd 745b f5bd be25 e5bd facc 9abd
00000190: a7a4 1cbe 0e3c 90bd 0f9d 0dbd a68b 0dbe
000001a0: c0e1 81bd 896d 52be 22f2 ecbd 5d2c 33be
000001b0: c145 013d 71bd e3bd 5eac 4dbc 9161 13bd
000001c0: f923 35bd 7ea9 aabd c272 a8bd 616b 1bbe
000001d0: d2fd c4bd e1d1 49bd 40d6 dbbd f469 02bd
000001e0: e62a bbbd 31ce 1dbe e026 cabc 0909 11be
000001f0: 3249 04be 70d0 77bd 443b 8cbd 318d c1bd
0.009621314 -0.17397964 -0.21977475 -0.16530718 -0.0540548 -0.09092566 0.03492238 -0.030655386
-0.122739166 -0.095135026 -0.163265 -0.059827358 -0.0315847 -0.073078066 -0.052853398 -0.07820066
-0.09622165 -0.1128518 -0.055056397 -0.036425047 -0.044141088 -0.16680965 -0.113688104 -0.12986103
-0.14104232 -0.114170924 -0.07122324 -0.13598685 -0.15275536 -0.123744115 -0.11211832 -0.16010447
-0.17161381 -0.1290199 -0.17588648 -0.22574012 -0.10980253 -0.048238583 -0.146552 -0.069143794
-0.06987663 -0.11449764 -0.08332803 -0.062897936 -0.19047485 -0.114238106 -0.0261905 -0.10484213
-0.07133907 -0.09254078 -0.07004315 -0.17364651 -0.11905021 0.0044048494 -0.12508377 -0.10464418
-0.14110172 -0.068699926 -0.11271211 -0.12262507 -0.0907026 -0.117274344 -0.070740156 -0.062661596
-0.060265493 -0.05117247 -0.10550077 -0.24542727 -0.06875863 -0.037840508 -0.01923328 -0.079935335
-0.1560965 -0.06711341 -0.13921744 -0.07072609 -0.13207766 -0.12379171 -0.08977086 -0.06770725
-0.09803588 -0.10467285 -0.14914073 -0.13921975 -0.11262845 0.018019887 -0.15034154 -0.09011474
-0.17386924 -0.18785712 -0.1879397 -0.048260633 -0.11952483 -0.22406472 -0.06309279 -0.07392221
-0.034089826 -0.11980334 -0.111888394 -0.075586274 -0.15297185 -0.070427045 -0.03457361 -0.13822803
-0.063418865 -0.20549597 -0.11569621 -0.17497392 0.031560663 -0.111201175 -0.012553303 -0.03598172
-0.04422376 -0.08333109 -0.08225013 -0.1517768 -0.09618725 -0.04927242 -0.10734224 -0.031839326
-0.091390416 -0.15410687 -0.02467674 -0.14163603 -0.12918547 -0.060501516 -0.068472415 -0.09450758

arr_7 f4 [3200, 10]
00000000: d170 fcbd d693 bcbe 2112 09bf 2f85 9cbe
00000010: 8be8 3dbf 392e 6fbe b764 40bd 3714 6fbd
00000020: 2298 c3bd 8b1c babd 31bb aa3d b0da 20bf
00000030: a5a3 6bbd bcf1 7fbf a9d2 a9be c644 63bf
00000040: 6ed6 2bbe 85c6 54bf 8f72 44be d46b 68bf
00000050: 4c38 34be c273 99be 95c0 c6be b86d 04be
00000060: 422c 5ebe 9b40 9cbe e76c d7be 88da a8be
00000070: 1e16 ed3d 67fe 8dbe f57e b1bd 266e 00bf
00000080: ac11 90be 5ab9 99bd 9d90 3dbe 21e2 0bbf
00000090: e3bf 9ebe a2ba fbbe f2ff adbd ec26 b7be
000000a0: 07f0 b7bd 5c52 47bf 7dfc 75bf 9494 bdbe
000000b0: b452 45bf 2ae4 39bf 96d0 063e d6c1 bebe
000000c0: 1cf9 9dbf 3da7 02bf 3482 073c 867c 25bf
000000d0: 3c44 16be aa01 ebbe 7fe7 d5bd d9b7 1dbf
000000e0: 5ffc 3abe 16da e1be f722 f2be 4476 14bf
000000f0: 51ae 86bd c826 4abe 4e15 3fbf 8900 d9be
00000100: 87f9 e1be c93a 03bf 0896 973c 3f02 16bf
00000110: 3a17 7abe 91db dabe 18dd b0bd 1e59 b4bd
00000120: 08b8 b1bc d21f ffba e42c 8bbb 8e72 6abf
00000130: 6bf1 93bd 14d9 a9bf c066 f8bc 557d 25bf
00000140: d2a6 973d 9928 4cbf 7414 13be ed9d 39bf
00000150: 3f1a 3dbf 70c6 89bf 8c40 683b 2b47 36bf
00000160: 6826 b6be 6bdc 86bf d4b1 4dbe 46c8 8fbe
00000170: 1f70 05be ddb3 0abe 68c2 253c 8d0a 52bf
00000180: 1141 b8be be11 8cbf 47ee 28be 5642 65bf
00000190: be1a debd b1e9 31bf 83dd e9be d79b 46bf
000001a0: f34f f9be 8d44 3bbf 530d e2bd f83e 3fbf
000001b0: e6be e73d 2b66 8ebf 0a1f cfbe f6be 9bbe
000001c0: 1665 aabd 18a5 bfbd a222 99bd 6ef8 41bf
000001d0: acf2 72bd 3095 a1bf 2a25 11bf a294 48bf
000001e0: b957 4dbd 1409 dcbe 5cd7 7cbf bc1e c2be
000001f0: 21ee 39bf 2ac6 43bf 7336 5f3d 1e38 1ebf
00000200: de0e aebf 67c9 26bf 6ed6 b1be 3a75 f3be
00000210: 8995 47bf b695 f3bc 92ac 4abf 4b4a 2abe
00000220: 5a0d 84be 7bc4 d3bd 66dd 0a3e 75d4 ecbd
00000230: dfd7 513c 6e88 edbe fdb9 45bf d12c 5dbe
00000240: a910 03be 135e 1abf ce9d d0be a34f e9be
00000250: 4517 443d 16b2 1ebf 0202 9ebe cd3e 1cbf
00000260: eb0c 39be 486c 053d b3bd c5be 14cc 35bf
00000270: e803 ff3c 3897 50bf c0a7 c4be fa66 5fbf
00000280: 983d a7be 84f2 e2be 5fa6 37bf 561a b8be
00000290: 7e28 41bf 2af5 b7be 2fd9 e2be 17e4 68be
000002a0: 6fe5 b93e 46b4 8dbe 975b b7bc cf6f 63bf
000002b0: 30ab 0abe e793 2cbf 45e6 323d abe4 69bf
000002c0: 9dcb 55be 5221 3dbf 06af 9fbe fddd 96bf
000002d0: 199b a1be 0fc8 16bf cb2a 8bbe 787d d2be
000002e0: 05c1 2abb 278a 91be 20eb cbbe 73b4 3dbe
000002f0: 370b 68be e13a 75be c8a6 82bc f931 5cbd
00000300: 9bb2 0e3d 62ac 9fbb 0189 283c 2ef9 73bc
00000310: caf9 97bc 4938 013d 588f b9bc f9a8 c0bc
00000320: 19d2 1bbe f6d0 19bd 9bf7 89bd 0ae0 0ebe
00000330: 9ad3 f5bd fc10 6fbf 9692 d8bd 4274 2fbf
00000340: ba9e 20bd 503f 59bf c95e eebe aecd 3abf
00000350: e61a bebe 3e0b 0dbf c41e 2cbd 6c36 1ebf
00000360: 20fc 99be 5f88 ccbe 1e39 b13e 4a9e 09bf
00000370: ac28 90be 7efc 30bf d499 19bf 7d3f 80bc
00000380: b34f 6ebf 1b6a 10bf 7ae3 7d3c 69ef 0bbf
00000390: 5305 f4be c3f7 09bf 8e57 55be 3f7c 32bf
000003a0: dc68 babe 67f2 8abf 601a 9abf 83f0 54bf
000003b0: bc2a d6bd b1a9 45bf 4095 28bc 558b 8ebf
000003c0: 46dd c2bd e530 46bf 05e6 1abd 896a 07be
000003d0: 5b40 853d 7696 71bf 68c8 15be ec6f 5ebf
000003e0: c78c a8be cdba 7bbf e337 a0bd 55ec babe
000003f0: 0785 03bf 2613 81be ce93 b8be 6363 1ebf
-0.123262055 -0.3683154 -0.5354329 -0.3057036 -0.7418296 -0.23357476 -0.04697105 -0.058368888
-0.095505014 -0.090874754 0.08336485 -0.6283369 -0.05752911 -0.9997823 -0.33168533 -0.88776815
-0.16781017 -0.83115417 -0.19184326 -0.9078953 -0.175996 -0.2997113 -0.38818803 -0.1293248
-0.2169657 -0.3051804 -0.42075273 -0.32979226 0.11576484 -0.27733156 -0.08666793 -0.50168073
-0.28138483 -0.07506056 -0.18512197 -0.5464192 -0.31005773 -0.49165827 -0.08496083 -0.35771883
-0.089813285 -0.77860045 -0.9608839 -0.3702742 -0.7707932 -0.72613776 0.13165507 -0.3725726
-1.2341647 -0.51036435 0.008270789 -0.6464313 -0.14674467 -0.45899707 -0.10444545 -0.61608654
-0.18260334 -0.441117 -0.472923 -0.5799296 -0.06576217 -0.19741356 -0.74641883 -0.4238322
-0.44135687 -0.51261574 0.018504158 -0.5859718 -0.24422923 -0.4274564 -0.0863592 -0.0880606
-0.021694198 -0.0019464439 -0.0042472947 -0.91581047 -0.07223781 -1.3269372 -0.030322433 -0.64644367
0.07404865 -0.7974945 -0.14363271 -0.725066 -0.73868173 -1.0763683 0.0035438864 -0.71202344
-0.35576177 -1.0536016 -0.20087367 -0.28082484 -0.13031052 -0.13545175 0.010117151 -0.8204735
-0.35987142 -1.0942914 -0.16497146 -0.89554346 -0.108449444 -0.6949721 -0.45676813 -0.7758154
-0.4869381 -0.73151475 -0.11037698 -0.7470546 0.11315708 -1.1124929 -0.40453368 -0.3041913
-0.08320062 -0.09357661 -0.07477309 -0.757697 -0.05931346 -1.2623653 -0.5669733 -0.78351796
-0.050132487 -0.42975676 -0.9876611 -0.37914073 -0.7262898 -0.7647425 0.054495286 -0.6180438
-1.3598287 -0.65151066 -0.3473391 -0.47550374 -0.7796255 -0.029734474 -0.7916957 -0.16629903
-0.25791436 -0.1034021 0.1356102 -0.115639605 0.012807815 -0.4639315 -0.7723692 -0.21599127
-0.12799324 -0.60299796 -0.40745395 -0.4556857 0.047873754 -0.6199049 -0.30860907 -0.61033326
-0.18071334 0.03257397 -0.38621292 -0.71014524 0.031129792 -0.8148074 -0.38409233 -0.87266505
-0.3266418 -0.4432565 -0.7173824 -0.35957593 -0.7545241 -0.35929233 -0.44306323 -0.2274326
0.36307856 -0.276766 -0.02238254 -0.8884248 -0.13541865 -0.6741318 0.043676633 -0.91364545
-0.20878454 -0.7387897 -0.3118822 -1.1786495 -0.31563643 -0.58899015 -0.27181086 -0.4111135
-0.002605499 -0.28425714 -0.39827824 -0.18525867 -0.22660528 -0.23948242 -0.015948668 -0.053758595
0.0348383 -0.0048728446 0.0102865705 -0.014890952 -0.018551726 0.03154782 -0.02265136 -0.023518072
-0.15216865 -0.037552796 -0.0673668 -0.13952652 -0.120032504 -0.9338529 -0.10574834 -0.6853677
-0.039213873 -0.8486223 -0.4655669 -0.7297009 -0.37129897 -0.5509528 -0.042021528 -0.6180179
-0.3007517 -0.39947793 0.3461389 -0.53757155 -0.2815603 -0.6913527 -0.6000035 -0.015655274
-0.9309036 -0.56411904 0.015496129 -0.54662186 -0.47660312 -0.5389368 -0.2083418 -0.69720834
-0.36408126 -1.0855225 -1.2039299 -0.8317949 -0.1045737 -0.77212054 -0.01028949 -1.1136271
-0.09514861 -0.7741836 -0.03781702 -0.13224234 0.065064155 -0.9437021 -0.1462723 -0.8688953
-0.32919905 -0.9833191 -0.078231595 -0.36508432 -0.5137486 -0.25209922 -0.36050266 -0.618704

arr_8 f4 [10]
00000000: 8639 ccbd 8674 093f cc80 debd 1246 f3bc
00000010: 6ee6 94bd 6a90 863c 17ce c0bb d4c1 08bd
00000020: 5040 1e3f 2323 30be
-0.09971909 0.53693426 -0.1086441 -0.029696498 -0.072705135 0.016426284 -0.005883943 -0.033387974
0.61816883 -0.17200904
